barlow_twins_supplementary_knowledge/IMP_ddp_tutorial_series/checkpoint.pt (torch, 1127 bytes, 1 tensors)

weight f4 [1, 20]
0	0xbdfbc969	-0.12294275
1	0x3db1250a	0.08649643
2	0xbe00a1e0	-0.1256175
3	0xbdd668a6	-0.10469179
4	0xbd141bcd	-0.036159325
5	0x3e0cab9e	0.13737342
6	0xbb1c35d7	-0.0023835802
7	0xbc1a7cc6	-0.009429162
8	0xbd32a966	-0.043618582
9	0x3c883505	0.016626844
10	0x3e471721	0.19442417
11	0x3e58287e	0.21109197
12	0xbe0652bc	-0.13117498
13	0x3e3a21f0	0.18177009
14	0x3e25a5a2	0.16176465
15	0xbe63b818	-0.22238195
16	0xbd0cc49c	-0.03436719
17	0x3cefe701	0.029284956
18	0x3e3227e6	0.17398033
19	0x3cb219a6	0.021740746
