barlow_twins_supplementary_knowledge/[IMP]_ddp_tutorial_series/checkpoint.pt (torch, 1127 bytes, 1 tensors)

weight f4 [1, 20]
000000 0a 39 1f be 74 4a 43 bb 2e 55 81 3d 5f 8b 2d bd
       -0.15549102 -0.0029799016 0.06315075 -0.042369243
000010 7c 9b 06 bd 4a 60 73 3d c6 90 a1 bc 68 20 d5 bd
       -0.032863125 0.059418 -0.019722354 -0.104065716
000020 29 51 39 be 08 5b 3c 3e d1 a1 57 3e 42 bb 12 3d
       -0.18097366 0.183941 0.21057822 0.035823114
000030 54 3a a6 bd 08 f5 3e bc 45 5b 3d bc 74 f9 11 be
       -0.08116594 -0.0116551 -0.011557405 -0.14255315
000040 00 8f d8 bd 90 30 10 3d 6b 5d ca 3d 31 5f ff 3d
       -0.1057415 0.035202563 0.09881099 0.12469328
