barlow_twins_supplementary_knowledge/[IMP]_ddp_tutorial_series/checkpoint.pt (torch, 1127 bytes, 1 tensors)

weight f4 [1, 20]
00000000: 9952 07be 987f 08bc fed1 c6bc 0ae1 f93c
00000010: aa08 49be 3205 a7b9 7392 213d 53d4 bc3c
00000020: 6c02 d13c 6630 b0bb caf9 d1bd c86f 953d
00000030: d865 fe3d d51b 42be dc9d 053e 5b98 eabd
00000040: be77 653c 8a35 ce3c 4364 0f3e 9790 f5bb
-0.13215102 -0.008331202 -0.024270054 0.030502815 -0.19632211 -0.00031856593 0.039446305 0.023050463
0.02551385 -0.0053768633 -0.102527216 0.07296711 0.12421769 -0.1895593 0.130485 -0.11454841
0.0140056 0.025172014 0.1400309 -0.007494043
