CODES_and_STUFF/checkpoint/model_epoch4.pth (torch, 270767 bytes, 24 tensors)

conv1.weight f4 [10, 1, 5, 5]
000000 d1 32 7f 3d 0d cd 34 be e8 0a fc 3b e2 2a 17 bd
       0.06230432 -0.17656346 0.00769173 -0.03690613
000010 05 00 48 3c 0e c3 43 3d 79 5a 5e be 22 f8 25 be
       0.012207036 0.04779344 -0.217142 -0.16207936
000020 c9 c1 80 be b8 b2 68 be 5c 74 8a 3d 93 f2 5b be
       -0.25147846 -0.22724426 0.06760475 -0.21479253
000030 68 98 ea bc 19 3e 5f be 63 14 a7 be 68 71 fa 3d
       -0.028637126 -0.21801032 -0.3263274 0.12228662
000040 0f 9d 4b 3e 6b 0b e5 3c a3 9a 87 3e 0f 73 8e 3d
       0.19884132 0.027959546 0.26485166 0.069555394
000050 73 9f 3d 3e 96 21 9b 3e 55 ca 75 3e 74 14 27 3d
       0.18517856 0.30299062 0.24002965 0.04079099
000060 1d 3e 8c 3e 9f 3c b3 3d 19 0b 92 3d da 6f 8a 3e
       0.2739114 0.08751797 0.07131023 0.2703846
000070 7a d5 91 3e 94 c2 bb 3e 9c d1 85 3e 15 ba e3 3e
       0.28483182 0.3667189 0.26136482 0.44477907
000080 3e 0a 69 3e b8 6b 58 3e d1 a1 3b 3d 13 ba 54 3e
       0.22757813 0.21134841 0.045808617 0.20774107
000090 c9 9f 08 be af a4 fc 3d de de 8f 3d 0e 8c f3 3d
       -0.13342203 0.123360984 0.070249304 0.11891948
0000a0 2c c3 8a be 9b 63 58 be 7c f0 a4 be f5 c0 91 be
       -0.2710203 -0.21131746 -0.32214725 -0.28467527
0000b0 f6 b4 92 3d c1 77 94 be 57 89 68 be 82 65 a7 be
       0.07163422 -0.28997615 -0.22708641 -0.32694632
0000c0 cc c1 24 be fb f5 87 be ae 01 98 3d 71 bb 1a 3e
       -0.16089553 -0.26554856 0.074221954 0.15110566
0000d0 b8 78 5e be 5e 27 3d be 48 bc 96 be 48 50 45 3e
       -0.21725738 -0.18472049 -0.29440522 0.19268906
0000e0 f0 3d 58 3e c0 4a 8c 3a ec 38 d7 be de 68 89 be
       0.21117377 0.001070343 -0.42035615 -0.2683782
0000f0 c1 bb 28 be 2c c6 02 3f 35 fe 2b 3f 7f 30 b3 3e
       -0.16477872 0.51083636 0.67184764 0.34997937
000100 6b 02 2e be 25 40 32 be f4 c4 17 3e 74 f9 07 3f
       -0.1699311 -0.17407282 0.14821225 0.5311501
000110 8e 96 39 3e f6 78 3f bd 96 c6 bf be 94 97 d9 be
       0.18123838 -0.046746217 -0.37456197 -0.42498457
000120 ba 1a 05 be 89 f5 2f 3e 4d 43 82 3e 02 16 36 bc
       -0.12998477 0.17183508 0.2544197 -0.0111136455
000130 8e 2d 35 be 23 a3 30 3d ff b5 43 bd 81 70 fc 3d
       -0.17693159 0.04312433 -0.047780987 0.12326146
000140 1a 83 95 be e1 9b 8a bd 40 02 3a be fa df 51 be
       -0.29201585 -0.06768013 -0.18164921 -0.20495597
000150 e8 5a 81 be 0b f2 1d be 62 d1 55 be df 53 2d be
       -0.25264668 -0.15424363 -0.20880654 -0.16926526
000160 ad 49 39 3d ab d3 0b be 88 2f 3d 3e cc ae 10 3e
       0.04523628 -0.13654964 0.18475163 0.1412918
000170 01 8b ab 3d 43 81 95 3d b4 28 f6 3d 77 db 93 3e
       0.08376122 0.07300045 0.12019482 0.28878376
000180 e2 f8 96 3e 78 f4 a0 3e 94 23 40 3e f8 1b 70 3e
       0.29486758 0.31436515 0.18763572 0.23448169
000190 ba ea 30 be a6 2e 30 3e 1a 99 ae 3d 33 0f 0b 3e
       -0.17277041 0.17205295 0.085252956 0.13580017
0001a0 56 70 13 3e eb f2 2c be 91 13 c2 3e 99 ba 6f 3e
       0.14398322 -0.16889541 0.37905553 0.23411025
0001b0 19 35 cf bd 5a 9c 55 be dd b6 63 3d ee 43 98 3e
       -0.101175494 -0.20860425 0.055594314 0.29739326
0001c0 70 76 86 3e c0 0e 58 be 3e 83 c7 be d3 28 38 3c
       0.26262236 -0.21099377 -0.38967317 0.011240202
0001d0 bf 4d 90 3e 80 cf c5 3d 04 fa 5e be 93 e4 7b bd
       0.28184316 0.09658718 -0.21775061 -0.061497282
0001e0 04 e8 84 bd 77 c9 27 3e 88 b0 32 3e ad 6a 08 3e
       -0.06489566 0.16385446 0.17450154 0.13321944
0001f0 11 1b 40 be 57 e3 11 be 2f 8b a8 bd 18 f5 9e 3d
       -0.18760325 -0.1424688 -0.08229672 0.07761592
000200 b6 50 d5 bd 74 e3 60 bd 62 a9 da 3d 12 db 8b 3b
       -0.10415785 -0.054904416 0.106768385 0.0042680586
000210 72 e9 bc 3d 1e f5 d3 3e 64 85 a9 3d 36 46 05 3e
       0.09224214 0.41397947 0.08277395 0.13015065
000220 44 03 42 bd 8a b2 23 bd 6d 53 79 3e f7 e1 b6 3e
       -0.047366396 -0.03996519 0.2434823 0.35719272
000230 af 0e 52 be 41 dc 0c be 24 24 82 be 85 b2 0b be
       -0.20513414 -0.13755895 -0.25418198 -0.13642319
000240 a0 1b 3f 3e bb 37 f1 bd 4d a9 f5 bd ff f0 6f bd
       0.18662882 -0.11778208 -0.11995182 -0.05857944
000250 8c bc 0c be e5 13 b5 bd e5 97 2f be b8 89 82 be
       -0.137438 -0.08841685 -0.17147787 -0.25495696
000260 e0 00 81 be 27 8b 83 bc 7f 7b 7c 3e 21 49 5a ba
       -0.2519598 -0.016057564 0.24656485 -0.0008326937
000270 33 12 cd bd f1 6f 53 be a9 ce 70 bb 05 a6 b3 3e
       -0.10013237 -0.20648171 -0.0036744273 0.350876
000280 3f f6 84 be d2 d1 4e be 6f d6 9f bd 60 54 97 3e
       -0.2596912 -0.20197228 -0.07804572 0.2955656
000290 34 c8 cc 3e 39 47 93 be c9 6b 3c be 46 5b 4b 3e
       0.39996493 -0.28765276 -0.18400492 0.19859037
0002a0 fa df 58 3e 73 6c 46 3e 1f ca 7b be 02 f2 ea 3c
       0.2117919 0.19377308 -0.24588822 0.028679851
0002b0 de 28 2c 3e 55 f8 9f 3e aa 0c 6c 3e de 02 b6 3e
       0.16812465 0.3124415 0.23051706 0.35549062
0002c0 5a 9a 7d 3e b4 82 d2 bd f1 68 7a be 85 5c 18 be
       0.24765912 -0.10278836 -0.24454094 -0.14879043
0002d0 2f 4b a9 3e c1 fe 5e 3d fd 64 2c bd 79 6e bc be
       0.33065173 0.05444217 -0.042088497 -0.36803034
0002e0 7b cb cf bd cb 78 a5 3e 09 6a c7 3d 71 b8 26 be
       -0.10146233 0.3231872 0.097370215 -0.16281296
0002f0 f5 fd 0b be 61 d5 84 be 30 96 e2 3d 1a 11 4c 3d
       -0.13671096 -0.25944045 0.11063802 0.049820997
000300 45 39 07 3e 27 7a 7b be 77 7b 35 be a1 cd cb bc
       0.1320544 -0.24558316 -0.1772288 -0.024878325
000310 63 1f 9a 3e 83 da a2 3d 2d 6e 0a bd 3e e8 35 be
       0.3010207 0.07951834 -0.033796478 -0.17764375
000320 4b 53 b5 bd 39 62 8f 3e 07 0f d2 3e 3f cc 02 3e
       -0.088537775 0.28004625 0.4102709 0.12773226
000330 8b b7 b2 be 14 29 fd 3c 11 87 2e 3e e5 7f ff 3e
       -0.34905657 0.030903377 0.17043711 0.49902263
000340 a7 25 31 3e a7 b6 9f be d3 d8 ae bd 53 7a 9b be
       0.1729952 -0.3119404 -0.0853745 -0.30366763
000350 ec 27 a6 3e e3 45 76 3e 22 48 3f 3c e9 51 a1 be
       0.32452333 0.24050097 0.011674913 -0.31507805
000360 2a 6f 47 bd e9 fb ce 3c ab 4d 71 3e e2 f7 84 3e
       -0.04869 0.025266604 0.23564784 0.2597037
000370 7e a5 10 3d 2d ed 3b 3c 7b 6b af 3d 9b 34 ee 3e
       0.035314076 0.011470121 0.08565422 0.4652451
000380 87 ba 1d 3e 87 d9 07 be 8e a9 01 be 8c ff 7c 3d
       0.15403186 -0.13266574 -0.12662336 0.061767146
000390 bb 6c e1 bd b2 db c7 3d 43 f6 1d 3e de d0 83 3e
       -0.11007067 0.097587004 0.15425973 0.2574529
0003a0 27 a4 23 3e aa 95 6e 3a ff 24 14 be 05 7d 6b 3e
       0.15980588 0.0009101281 -0.14467238 0.2299691
0003b0 54 b3 62 bd e6 13 1a be 90 7d a5 be 0b d8 b9 be
       -0.055346802 -0.15046653 -0.3232236 -0.3629764
0003c0 41 28 f7 bd 34 38 31 be 2b 29 ca bb 1e 2a 46 be
       -0.12068225 -0.17306596 -0.0061694584 -0.19352004
0003d0 33 b1 6f 3e 85 52 3d 3d 43 fd 01 3c 5d 17 07 3e
       0.2340744 0.046221275 0.007933917 0.13192506
0003e0 8a 89 c2 3e 1a 43 cf 3e
       0.3799556 0.40480882

conv1.bias f4 [10]
000000 e1 f9 93 bc 7e e1 25 3e fa ca 13 be a6 62 c1 3d
       -0.018063487 0.161993 -0.14432898 0.09442644
000010 ac d8 8c bb ba 6f 15 be bd 71 5f bd 7e be a7 3d
       -0.0042982902 -0.14593402 -0.05455183 0.081906304
000020 0e c2 12 bc 50 26 d2 bd
       -0.008957399 -0.10261214

conv2.weight f4 [20, 10, 5, 5]
000000 ae 27 c8 3d a6 c9 b2 3d b0 5c 16 bc bc 87 66 bc
       0.09773193 0.08729868 -0.009177372 -0.0140704475
000010 67 88 94 3d 0f 8f bc 3d aa 04 5e 3d 58 cd 0b be
       0.07252579 0.09206974 0.054203667 -0.13652551
000020 de 6e 8f be e9 3f 49 be 47 5a 08 be ef 1b 54 be
       -0.28014272 -0.19653286 -0.13315688 -0.20713781
000030 3c 41 81 be 27 ba bc bd 1f b6 54 3d 4b 5e 51 be
       -0.25245082 -0.09215193 0.051931497 -0.20446126
000040 12 a2 96 be 50 04 37 be 0d 8d f9 3b e3 47 9f ba
       -0.29420525 -0.17872739 0.0076156915 -0.0012152161
000050 cd 08 86 be f0 b2 cb bd ab 73 1d bd 97 96 de 3c
       -0.2617859 -0.09946239 -0.038440388 0.027171416
000060 7d c4 0c bc f4 be a0 bd e6 a6 b3 bd fa ed 26 be
       -0.008591768 -0.078489214 -0.08772068 -0.16301718
000070 1d f6 82 be 2d fc 80 bd c9 e4 03 3e 8e e4 17 3e
       -0.25578395 -0.06298099 0.12880243 0.1483328
000080 5c f4 8b bc b2 78 c3 bc b7 2d fe 3d 4e 89 02 3d
       -0.017084293 -0.023861263 0.12411063 0.031869225
000090 f9 be 55 bc 04 f6 9f bd c7 3d af bd 33 2b c6 bc
       -0.01304602 -0.07810596 -0.08556705 -0.02419052
0000a0 78 2e b3 bd 70 fa 37 3c 25 27 bd 3c 10 5a bc 3c
       -0.087490976 0.011229143 0.023089955 0.022992164
0000b0 4c 60 9e bd ef d1 1a be 21 a6 0a bd ec 9b dc 3c
       -0.07733211 -0.15119146 -0.03384984 0.026929818
0000c0 52 6f 9d bd 1a 74 09 be 75 cb a0 3b f8 e9 ba 3d
       -0.07687248 -0.13423195 0.0049070665 0.09126657
0000d0 09 1f a9 bd 65 49 75 bc 11 3d 89 3d 34 a4 77 3d
       -0.082578726 -0.014971112 0.067011006 0.06045933
0000e0 5d bc 15 3d 01 66 9c bd 9d 89 92 bd ee 97 0f bd
       0.03655659 -0.07636643 -0.07155154 -0.035057
0000f0 d9 35 e4 bd 69 f8 57 3d 78 36 d9 bd ac 3c 54 3d
       -0.11143083 0.052727137 -0.10606092 0.051815674
000100 a1 bd 10 3e 48 86 1c be 84 d9 a9 bd a9 f9 c9 3d
       0.14134838 -0.15285599 -0.08293441 0.09862072
000110 39 3d 3f 3e d1 1e e0 3d 4b e1 b7 bd ef 99 d8 3c
       0.18675698 0.10943378 -0.08978518 0.026440589
000120 be 79 5c 3c 4b 74 ab 3d af af 21 3d 0c 9c a0 3d
       0.01345676 0.083717905 0.039474186 0.078422636
000130 8e 81 96 3d 75 c4 38 3d e5 9e 45 bd 95 60 c6 3c
       0.07348929 0.04510923 -0.048247237 0.024215976
000140 d1 14 ac 3c 7e 30 1f bd 2b 14 a5 bd 8a 23 1f be
       0.02100602 -0.038864605 -0.08060487 -0.15540901
000150 22 f0 91 be 37 03 26 bb cc e5 a5 bd 83 3b 83 be
       -0.2850352 -0.0025331506 -0.08100471 -0.2563134
000160 df 9e 1f be 43 f2 1f be ab 15 22 be 35 ed 40 be
       -0.15587948 -0.1561976 -0.15828578 -0.18840487
000170 c8 6c 48 be 6c e4 e7 bd a5 b0 21 be 40 79 20 be
       -0.19572747 -0.11322865 -0.15790041 -0.15671253
000180 e2 9a 43 be bc c9 0a be 4e 8d 0a be c1 94 1d bd
       -0.19102052 -0.13553518 -0.13530466 -0.03847194
000190 f2 b9 58 3d 2a 5c 4b bd 9d f3 60 3d ed 4e da 3c
       0.052911706 -0.04964844 0.054919828 0.026648963
0001a0 10 d4 cc 3c e5 00 0d bd d3 6d a7 bd 53 f3 50 bb
       0.025003463 -0.03442468 -0.08175244 -0.0031883314
0001b0 85 7a be 3d 33 a2 1e bd 5e 9c 80 3c 62 bf 54 3d
       0.093007125 -0.038728904 0.015699562 0.05194033
0001c0 3c 34 e7 3d 3f 84 ff 3d 0c 22 2c bc 3a 7e d8 3d
       0.1128926 0.12476396 -0.010506164 0.10570951
0001d0 d3 ea 71 3d e8 7e 13 3e c1 84 45 3d ad 2d 3d 3d
       0.059061836 0.1440388 0.048222307 0.046186138
0001e0 87 17 a6 3d bd 3a 00 3d e7 73 38 3c 78 6c c5 3c
       0.08109956 0.031306017 0.011258102 0.024099573
0001f0 29 f3 e0 3d b5 5a 0a 3d 42 03 c3 3b 38 94 67 3d
       0.10983879 0.03377791 0.005951316 0.056537837
000200 b2 9a 3a ba 30 60 58 3d 03 62 a4 3b ea 8f 97 ba
       -0.00071183883 0.052826107 0.0050165667 -0.0011563275
000210 d0 03 07 3d dc f7 96 bd 00 f4 af bc d6 bc 11 bd
       0.03296262 -0.07371494 -0.021478653 -0.03558048
000220 32 2e 78 39 29 cc db bc 73 80 cc bd b6 81 a0 bc
       0.00023668332 -0.02683075 -0.09985437 -0.019593101
000230 f3 59 85 bd bf 7f 60 3d 54 19 7b 3d 79 c4 06 3e
       -0.06511297 0.05480933 0.06130345 0.13160886
000240 a2 25 73 bc 90 99 e7 3b 06 66 55 3d c9 77 eb 3d
       -0.014840515 0.0070678666 0.05209925 0.114974566
000250 c1 6c 03 3e c0 d4 e2 bd af b8 b8 bd 20 67 28 3c
       0.12834455 -0.11075735 -0.090196006 0.010278493
000260 2a 9a bd 3c 06 cc 74 3c 01 44 dc 3c 97 5e 02 be
       0.0231448 0.014941221 0.026887896 -0.12731396
000270 6d 89 b8 bd 45 e4 9f 3d ea 40 a2 3d 34 6d 3d be
       -0.09010587 0.07807211 0.079225376 -0.18498689
000280 3a f3 30 3d 35 c3 0a 3e 0d d2 71 3c f9 fe 99 bd
       0.04320071 0.13551028 0.014759553 -0.07519335
000290 25 cf a9 bd 37 f4 13 3e 57 31 e6 3d 72 72 3b 3d
       -0.08291463 0.1444863 0.112398796 0.04576344
0002a0 1f 5d 9d bd 29 87 4a be 46 13 85 3d 86 7b c5 bb
       -0.07683777 -0.19778122 0.06497817 -0.006026688
0002b0 7c 49 52 3d 41 93 26 3c e5 fb f9 bd b6 3f 7b bd
       0.05133961 0.010166944 -0.12206248 -0.061340056
0002c0 cf 0a fb 3c 61 ba f5 bd 50 59 35 bd be 51 28 be
       0.030644802 -0.119984396 -0.04427463 -0.16437432
0002d0 5d 38 ff bd bb f0 40 bd dd 54 5a bd d6 6b 2f 3c
       -0.12461922 -0.04710458 -0.05330359 0.010706862
0002e0 af 62 8c bd 7a 1b 92 bd 70 03 a1 bd f2 ae 58 3c
       -0.0685476 -0.07134147 -0.07861984 0.013225304
0002f0 f4 70 8c 3d 8c d0 e2 3d 24 70 3c 3d 8f 36 09 3d
       0.068574816 0.110749334 0.046005383 0.033499297
000300 b0 e1 03 3e 31 e6 1c 3e 26 04 a7 3c 88 19 4c 3d
       0.12879062 0.15322186 0.02038772 0.049829036
000310 6e ed fe 3d 6a 98 b2 3c 2d d5 f5 3d 4a f4 8c 3c
       0.1244763 0.021801192 0.12003551 0.01720633
000320 4b 23 f9 3c f0 96 25 be 63 f3 34 bc 1e d1 9e 3d
       0.030412337 -0.1617086 -0.011044356 0.0775473
000330 25 c4 9a bd 6e 70 4e bd 47 e0 3b 3b 90 79 36 3e
       -0.07556943 -0.05040019 0.0028667615 0.1781981
000340 06 21 c5 3d eb de fa bc ff c9 00 be a2 35 c7 3d
       0.09625439 -0.030623874 -0.12577055 0.097270265
000350 23 af ff 3d 54 65 fb 3d 91 f9 a7 3d 50 87 58 bd
       0.124845766 0.12275186 0.08201898 -0.05286342
000360 38 6e 67 3a 93 47 86 3c fa 9a 0d 3e f8 c1 75 3d
       0.00088283746 0.016391551 0.1382865 0.059999436
000370 4d 0f f0 bc b0 d3 77 bd cb 1f 9a 3d 7a 78 b9 3d
       -0.029304171 -0.060504615 0.07525595 0.09056182
000380 c6 2e 1a 3e b6 8b a8 3d 71 1b a9 bc 97 cc 10 bd
       0.15056905 0.08229773 -0.020642968 -0.035351362
000390 78 b0 85 3d fd cc 1c 3e f7 9b 94 3d be 4c bb bd
       0.06527799 0.15312572 0.072563104 -0.09145497
0003a0 50 33 0d be 35 aa 83 be 04 d8 e3 bd 33 b5 8b bd
       -0.13789105 -0.25715795 -0.11125186 -0.068216704
0003b0 93 7b 56 be 4b d4 30 be cd 6e 3b 3c c6 af ba 3b
       -0.20945577 -0.17268483 0.011439991 0.0056972234
0003c0 68 98 5f be 99 b9 c3 be 6a e6 d3 bd 46 cc 13 be
       -0.21835482 -0.38227537 -0.10346682 -0.14433393
0003d0 75 61 f3 bd 12 cd 15 be 08 82 07 be fa a6 08 bd
       -0.11883823 -0.1462901 -0.13233197 -0.033362366
0003e0 81 64 44 bd 4f e9 90 bd 60 d9 b7 bc 1a 86 bb bd
       -0.04794741 -0.0707575 -0.02244252 -0.09156437
0003f0 db 1c cb bd 5e 9d 04 be 57 e9 42 be 76 42 70 bd
       -0.09917613 -0.12950656 -0.19034325 -0.058657132

conv2.bias f4 [20]
000000 4b 72 d1 bd b2 03 9f 3d 4c e7 34 3c 60 d0 00 3d
       -0.10226878 0.07764377 0.011041474 0.031448722
000010 cb 0e 2a 3d 8d 1d 81 bd 83 ea 9a 3d 0e ae c2 3c
       0.041518014 -0.063044645 0.07564261 0.023764636
000020 69 8e 6c bd d8 6c a4 3d b4 fc 9b bd 8e ff 5c bd
       -0.057753 0.08028573 -0.07616559 -0.053954653
000030 84 28 df 3c ac 1a 78 bc e2 51 d9 3c 68 e0 4d 3d
       0.027240999 -0.015143078 0.026528303 0.05026284
000040 f3 f7 5d bc 6a cf 31 bd ac ef 26 3d c6 75 ca 3b
       -0.013547885 -0.043410696 0.040755913 0.0061785905

fc1.weight f4 [50, 320]
000000 c6 10 10 3a 7e b0 86 3c 6b ca 39 bd 81 0e 1e 3d
       0.00054956635 0.01644158 -0.045359056 0.03858805
000010 9f 30 fa 3c 83 d0 b8 bd 8d dd ec bd d0 5c a4 bd
       0.030540762 -0.090241455 -0.11565695 -0.08025515
000020 d1 ae e4 3a 47 59 49 3d e7 8c 72 3d 25 59 4a bd
       0.0017447119 0.049157407 0.059216406 -0.04940142
000030 cc 07 10 3e dc 2d 41 bd 69 56 57 bd 8f f9 12 bd
       0.14065474 -0.047162876 -0.05257264 -0.03588253
000040 89 5a 1d 3e 44 14 10 3e 14 c1 41 3c 21 7c 95 3d
       0.15366568 0.1407023 0.011825819 0.07299066
000050 3c 2c 45 bd e6 e7 04 bd c0 de 62 bd 5e 3f 41 bd
       -0.04813789 -0.032447718 -0.055388212 -0.047179572
000060 60 bd 54 3d 6a 6e 10 bc cb 5e 0e bc 33 ae 97 bd
       0.051938415 -0.008815387 -0.008689593 -0.07406273
000070 14 6c 25 be 64 04 6d be 8f d3 94 bc 08 f5 39 3d
       -0.1615451 -0.23146206 -0.018167285 0.045399696
000080 5a 3e 22 bd 4c 3b db bd 48 d4 3a bd c6 2f 7d bd
       -0.039610244 -0.10704669 -0.045612603 -0.06181314
000090 c3 38 94 3d d8 f8 e3 bd cd 2a 8d bd 8b 84 2f 3d
       0.07237389 -0.111314476 -0.06892929 0.042851012
0000a0 b9 53 58 3e df a4 2a bd ff 11 00 3d 27 5a 86 3d
       0.21125688 -0.04166114 0.031267162 0.06560164
0000b0 8a ce 7c 3d 6c 24 80 bd 4f 6c 76 3d 5b 32 7e 3d
       0.06172041 -0.06256947 0.060161885 0.06205974
0000c0 29 ce 32 3d e3 1f 57 3d 1f 13 77 3e 48 96 a6 3d
       0.04365364 0.052520644 0.24128388 0.081341326
0000d0 63 b0 c4 3d f9 21 56 bc 6f 72 82 bd c5 1b 45 bd
       0.096039556 -0.013069623 -0.06369483 -0.048122186
0000e0 0f 9b c1 3d 9a ee 5b bd 0f 1b 6a be 10 d8 66 bd
       0.09453403 -0.053694345 -0.22861885 -0.056358397
0000f0 8f c7 9c bb 10 aa d9 3c 53 4f 00 be aa 07 af bb
       -0.0047845314 0.02657035 -0.1253026 -0.00534149
000100 d6 a2 b2 3d 89 b2 ea 3c 74 6d 0a 3e 9a 43 93 3d
       0.08722465 0.028649585 0.13518316 0.07190628
000110 e1 21 c0 3c ee 2b ba 3c 34 36 2d bd a7 34 4c 3e
       0.023453655 0.022726025 -0.04228802 0.1994196
000120 88 04 74 bc 8f a8 ee bd 52 5c 06 be dc cc 83 3d
       -0.014893658 -0.11653244 -0.13121155 0.06435558
000130 8f ae 22 3e 53 36 02 be f4 27 51 be dd 2d 0a be
       0.15886901 -0.12716036 -0.20425397 -0.13494058
000140 ba 52 11 be 22 7b d7 bd 12 d3 73 bd fd ba 10 bd
       -0.14191714 -0.105215326 -0.059527464 -0.035334576
000150 64 e0 1d 3d bd 75 32 3d c3 53 4d bd 79 e3 a7 3c
       0.038544074 0.043569315 -0.05012871 0.02049421
000160 d5 33 2a 3d c2 c5 29 3e e0 81 7b 3c 37 f2 c3 3b
       0.041553337 0.16579345 0.015350789 0.005979802
000170 fc be 4c 3d b0 c3 f1 bc e7 30 5d bd 79 6a 3a 3b
       0.049986824 -0.029512256 -0.054001715 0.002844481
000180 ef 37 67 bd b3 53 5d bd a7 af b0 bc 48 2d 4b bd
       -0.056449827 -0.0540349 -0.021568133 -0.04960373
000190 9c a8 de 3d 6c 9e 79 bd 98 19 30 be 9b a7 88 3d
       0.108720034 -0.0609421 -0.17197263 0.06672593
0001a0 c9 ee e5 3c 98 05 bf bb a0 27 28 bd 4b c1 c3 3c
       0.028067963 -0.0058295242 -0.041053414 0.02389588
0001b0 5e ff 02 3d e1 c6 34 bc 4f 59 3f 3d aa b5 ef 3d
       0.03198182 -0.011033745 0.04671603 0.117045715
0001c0 9e 3b d7 3d d9 31 c9 bc fa af 0d 3a 9d ab 4c bd
       0.10509418 -0.024559902 0.00054049457 -0.04996835
0001d0 20 21 bc bc 59 96 ee 3c 38 b7 80 bc 2f 31 99 3c
       -0.022965014 0.029124426 -0.015712366 0.01870021
0001e0 6c 02 5b bd 49 42 b4 bb 6c 7b e6 3d 35 b8 c0 bd
       -0.053469107 -0.005501066 0.112540096 -0.09410135
0001f0 46 63 a3 3b 74 02 1d bd d5 a8 66 bd c2 ae 25 3d
       0.0049861996 -0.038332418 -0.056313355 0.040449865
000200 d5 75 cb bd c2 eb f0 bd 47 c7 04 3a 18 f9 42 3a
       -0.09934584 -0.11763717 0.0005065095 0.00074376306
000210 3b f2 cc 3c f5 cc bd 3d 75 82 09 bc 75 5f 55 bb
       0.025017848 0.09267608 -0.00839292 -0.0032558118
000220 f0 50 8d bd 35 e9 06 3c 79 6e 67 bb c0 a9 77 3d
       -0.06900203 0.008234312 -0.003531365 0.06046462
000230 af 00 73 be a4 dd b2 bd e7 58 05 3d c2 1b 6a 3d
       -0.2373073 -0.08733681 0.032555487 0.05715538
000240 f2 25 45 be d3 6c 19 be ee b6 e2 bd bc 60 81 bc
       -0.19252756 -0.1498292 -0.11070047 -0.015793197
000250 21 5c 84 ba 57 24 27 3d 81 60 a4 bd ee df 76 bc
       -0.0010098257 0.04080614 -0.08026219 -0.015068037
000260 b0 f4 5b 3d b5 32 1f bd 30 ad 9d 3d 71 5b 3b 3d
       0.05370015 -0.038866717 0.076990485 0.045741502
000270 80 f0 92 bc e4 a1 d2 3d bd 21 74 3b aa e1 75 bd
       -0.017936945 0.102847844 0.0037251555 -0.060029663
000280 cf 8a a8 bc 4c 0e 21 bc db fa 38 bd 52 44 9d bd
       -0.020574002 -0.009830069 -0.04516111 -0.07679047
000290 fa ce 87 bd 9e 49 99 ba 6c 7a f3 bc fd 8c 2a 3d
       -0.066312745 -0.0011694913 -0.029721461 0.041638363
0002a0 5b cc 15 3d b1 74 b0 3d ce eb 24 3d fa 50 80 bb
       0.03657184 0.08616007 0.040263943 -0.003915903
0002b0 58 f0 24 be 6f bd 11 be 62 68 32 bd e1 4c 47 3d
       -0.16107309 -0.1423242 -0.04355658 0.0486573
0002c0 52 97 80 3d b9 74 14 bb 73 a4 a7 bc 3d 39 cf bd
       0.06278862 -0.002265258 -0.020464158 -0.10118339
0002d0 39 75 52 3b 55 6c 57 bd 9a b3 79 bd 15 6e 33 bd
       0.0032113327 -0.052593548 -0.060962297 -0.043806154
0002e0 2b 93 77 bc ac ef ed bb 2e 84 27 3e 2f 09 85 3d
       -0.015110771 -0.007261237 0.16359016 0.06495892
0002f0 b5 1f 6a 3e 06 37 b5 3d 63 2c c3 3c 64 a5 05 be
       0.22863658 0.088483855 0.023824876 -0.13051373
000300 e6 a7 3d bb a1 48 c7 3d bc 77 b5 3d 72 30 9a 3d
       -0.0028939187 0.0973065 0.08860728 0.075287715
000310 db d1 de 3d 75 ba 1e 3c da 94 0e bc ad 95 28 bc
       0.108798705 0.0096880095 -0.008702481 -0.010289592
000320 b2 5e 02 be e2 12 8b 3d 73 71 5a 3d 29 05 b6 bd
       -0.12731436 0.06790711 0.05333085 -0.08887703
000330 4f 7d 70 bd a4 8c bc bd 5d 72 5a bd 1a 9a fc b8
       -0.058713254 -0.092065126 -0.05333172 -0.00012045
000340 58 dc 86 3d d8 88 68 3d 36 13 9d 3d 85 a9 36 bc
       0.06584996 0.05677113 0.0766968 -0.011148815
000350 24 e8 18 3d 0e 12 6c 3d e6 62 50 3c 2b cd d6 bd
       0.03733076 0.057634406 0.012718892 -0.104883514
000360 2e de 01 bd f2 ad a2 bd 24 b2 cf bd ab fe 8d 3d
       -0.031706028 -0.07943334 -0.101413995 0.0693334
000370 dc 75 3e bd 0c 74 eb bd 5e a3 99 bc 59 c1 ed 3c
       -0.04649912 -0.114967436 -0.018754657 0.02902286
000380 db d3 78 3d ac 0d 29 bd 49 c7 4d 3d 2d c8 4b bd
       0.060748916 -0.041272804 0.05023888 -0.04975145
000390 c8 82 aa 3d c9 e3 c1 3c 88 d5 55 bd 84 68 00 be
       0.08325726 0.023668187 -0.052205592 -0.1253987
0003a0 57 bd b6 3d 9e 61 78 bd 14 14 38 bd c4 02 0a 3d
       0.089228325 -0.06063997 -0.044941023 0.033694044
0003b0 5c ac 85 3d 20 7a 91 bc 9c 33 e0 bc 1b a9 2a 3c
       0.065270156 -0.017758429 -0.02736836 0.010416294
0003c0 29 a1 8f bd 65 c6 c1 bd fd d2 d2 bc 51 0d cb bd
       -0.07013161 -0.09461669 -0.025735373 -0.09914649
0003d0 01 04 78 3c 53 10 8e bb b3 bc 6a bd cf 4c bd ba
       0.015137673 -0.004335442 -0.057308864 -0.0014442446
0003e0 d5 d5 01 3d 63 5b fb bc 06 d9 a3 bd 35 c9 20 3d
       0.031698067 -0.030683225 -0.08000378 0.039254386
0003f0 dd f4 99 bc ae c7 29 3c 56 79 74 3d ae 4a d8 3d
       -0.018793518 0.010362549 0.059686027 0.10561119

fc1.bias f4 [50]
000000 25 29 90 3d d4 0f 47 bd e3 50 3a 3d 93 c7 40 39
       0.07039098 -0.04859908 0.045487296 0.00018384894
000010 c1 3c 11 3e 88 a7 b8 3d 3d ca 81 bd 16 98 f8 3d
       0.14183332 0.09016329 -0.06337402 0.12138383
000020 f1 74 3d 3e d6 b7 25 3d 4f da d1 3c 74 5e 21 3e
       0.18501641 0.040458523 0.025616793 0.15758687
000030 71 b2 fe 3d 82 94 7d 3d a4 f6 24 3e fe df 33 3e
       0.12436379 0.061909206 0.16109711 0.17565915
000040 8b ac d6 3b 92 e6 83 bd 22 20 3d 3e 73 ee 5d 3d
       0.0065513304 -0.06440462 0.18469289 0.05418248
000050 af 31 4c 3b 2a b7 76 3d f9 63 0c 3d 9d 2c cf 3d
       0.0031157543 0.060233273 0.03427503 0.10115931
000060 c5 01 10 3e 42 32 ba 3d 58 22 78 3d 4b 16 7f 3d
       0.14063175 0.09091617 0.060579628 0.06227712
000070 2e 5e b1 3d fc 8a 7c bd ec fe 6c 3d 58 38 aa 3c
       0.086605415 -0.061655983 0.0578603 0.02077882
000080 af 58 f2 3d 04 c1 70 3d 40 20 48 3e 5d 3e 3c 3e
       0.11833321 0.058777824 0.19543552 0.18383165
000090 9a 1f fd bb 58 75 75 3e 88 f6 02 3d ab fa a3 3d
       -0.0077247145 0.23970544 0.03197339 0.080067955
0000a0 27 5e 3a 3e af c9 96 3c f4 d2 29 bd e8 4e 1d bd
       0.18199979 0.018406717 -0.041460946 -0.03840533
0000b0 70 a7 16 3e 87 98 22 3e 97 62 c5 3d e4 52 a9 3c
       0.1471231 0.15878497 0.09637945 0.020669408
0000c0 37 29 58 3e 71 96 b4 bd
       0.21109472 -0.08817757

fc2.weight f4 [10, 50]
000000 f6 f4 15 bb 2b 39 b8 bd a7 ac bf bc 62 88 1e 3e
       -0.0022881604 -0.08995279 -0.023397757 0.15481713
000010 6d 81 56 be ad 32 a3 be 1d 78 4b 3d 09 30 b9 3d
       -0.2094781 -0.318746 0.049675096 0.09042365
000020 fe 8f 17 3e 87 8c 07 be d4 0c 19 3e 18 a0 0d be
       0.14801022 -0.132372 0.149463 -0.13830602
000030 73 b7 6a be 4d 61 dd 3d ea 69 16 3e 1c 7d 1a be
       -0.22921543 0.10809574 0.1468884 -0.15086788
000040 96 a0 86 bd c9 27 41 bd 33 81 8b be 4d 5a 89 be
       -0.06573598 -0.047157083 -0.2724701 -0.26826707
000050 e9 05 00 3e ba b8 cc 3d 6e 5e ca bd ad a0 b5 be
       0.12502255 0.09996171 -0.09881292 -0.35474148
000060 06 c1 44 be 3d eb cb 3d 5d 37 1d 3e f0 4d 0c 3e
       -0.19214258 0.099569775 0.1535315 0.13701606
000070 22 c9 3a be 7a 7f f1 bd 88 b0 e5 bd 83 58 7d be
       -0.18240789 -0.11791892 -0.11215311 -0.24740796
000080 bc cd 4a be e9 aa 0b 3e 7c 5a 07 3e 37 fd 46 be
       -0.19805044 0.13639416 0.13218111 -0.19432531
000090 51 da fc bd ba e0 6f 3e dc 99 58 be e1 f8 25 be
       -0.12346328 0.2342557 -0.21152443 -0.16208221
0000a0 ad 64 d3 bd 94 bb 7a be 3f da c2 3d 03 b6 ca bc
       -0.10321937 -0.24485618 0.095142834 -0.024744993
0000b0 33 a4 66 bd b7 62 25 be 8e c2 16 3e 3e 11 09 3e
       -0.056308936 -0.16150938 0.14722654 0.13385484
0000c0 9e 15 3f be 5c ef 4a bd a1 a7 ef 3c 45 d2 27 be
       -0.1866059 -0.049544677 0.029254736 -0.16388805
0000d0 17 12 ce bc c8 1b 09 be a9 e8 c0 3d 2a a5 09 3e
       -0.02515511 -0.13389504 0.094193764 0.13441911
0000e0 58 32 80 be 0f 64 82 3d 5e eb d4 3d 2d 55 2f be
       -0.2503841 0.06366741 0.10396455 -0.17122336
0000f0 e4 66 35 be c6 88 30 3e 03 3e d1 3d f9 95 83 be
       -0.17715031 0.17239675 0.10216906 -0.25700358
000100 8a 4e ca 3d a5 c4 0e 3e c6 6c 8f be 93 e5 15 be
       0.098782614 0.13942201 -0.28012675 -0.14638357
000110 ff 25 0d 3e b3 3d 0a be d1 37 44 be a5 3e d4 bd
       0.13784026 -0.13500099 -0.19161917 -0.10363511
000120 6c 85 17 be 71 17 b7 bd 7c 46 2d 3e fb b7 78 be
       -0.1479699 -0.08940018 0.16921419 -0.24288933
000130 13 65 3d be 2d 09 90 be 20 b9 00 3e d5 7a 98 be
       -0.18495588 -0.28132 0.1257062 -0.29781213
000140 27 aa 65 bc ea 2f 76 be d6 ef e1 3d 72 5f 11 be
       -0.014017618 -0.24041715 0.11032073 -0.14196566
000150 b5 8a 19 3e d3 9c c4 3d f9 6f 3f be 9f c2 3a 3e
       0.14994319 0.09600224 -0.18695058 0.18238305
000160 47 72 b3 3d a7 c6 b9 bd 38 06 83 3d e1 99 93 be
       0.08762031 -0.09071093 0.063976705 -0.28828338
000170 01 84 bc be b9 ee 7b be dd 3d 1a 3e f7 5a 6e 3d
       -0.3681946 -0.24602784 0.15062661 0.05819222
000180 71 42 e3 3d 9c ad ae be 9d 33 da 3d d4 49 1b be
       0.11096657 -0.34116828 0.10654376 -0.15164882
000190 4f b8 9c 3d a4 3f 37 3e 50 2a 07 3e a9 a5 10 3e
       0.076523416 0.1789537 0.13199735 0.14125694
0001a0 27 d0 29 be c9 e2 f3 bd 72 3c 1f 3d 12 c5 27 be
       -0.1658331 -0.1190849 0.038876005 -0.1638377
0001b0 de e3 04 3e c8 1e cb 3d 90 15 b6 3d 70 4f 8e bc
       0.1297755 0.099179804 0.088908315 -0.017371863
0001c0 4c 53 24 be 09 1f 4f 3d 87 dd 03 be fe ee 48 be
       -0.160474 0.050566707 -0.12877475 -0.19622418
0001d0 28 59 44 be d8 d8 47 ba d2 9b c4 3d 3a 94 1a 3e
       -0.19174635 -0.000762356 0.09600033 0.15095606
0001e0 5a 24 9a bc 3d 2e e0 3d e0 fe fb 3c c4 9b 3b be
       -0.018816162 0.10946319 0.030761182 -0.18321139
0001f0 57 d7 4d be bd 27 44 be c3 bf 00 be d2 3e 8d 3d
       -0.20101677 -0.19155784 -0.12573151 0.06896748
000200 4e b9 11 3e 24 29 fb 3d e4 5a 29 3e bd 0b 1f be
       0.14230844 0.12263706 0.16538578 -0.15531822
000210 d5 f7 ec 3c 4b 91 25 be 08 a4 2f 3e 2b 6b cc 3d
       0.02892677 -0.16168706 0.17152417 0.09981378
000220 8c 0d 3b bd 6a 2c fa bd af 9f de bd 15 20 ad bd
       -0.045667216 -0.122155026 -0.10870301 -0.08453385
000230 33 85 cb 3d 34 17 4e be 8b 6f 1b be 32 1c 31 be
       0.09937515 -0.20126039 -0.15179269 -0.17295912
000240 0e 3f 1c 3e ab 27 d2 3d f8 57 5c 3d 52 71 0c bd
       0.15258428 0.10261472 0.05379483 -0.03428776
000250 d4 2e 56 be aa 8e c5 bd c7 c7 47 be 92 56 ef bb
       -0.20916301 -0.09646352 -0.19509803 -0.007304021
000260 ed 8a 0b 3e 0a 00 cc bd 7b 2e 14 3e b1 d8 0f be
       0.13627215 -0.09960945 0.14470856 -0.14047505
000270 92 4c 85 3d b3 8c 3a be aa d3 33 be 23 ea 3d be
       0.06508745 -0.18217735 -0.17561212 -0.18546347
000280 88 8b a7 bd 1e 16 6e be b1 29 dc bd de 14 8e 3d
       -0.0818091 -0.23250625 -0.107501395 0.06937574
000290 fa 2d 4a be 43 db 17 3e dc 43 5f be df e4 a3 bd
       -0.19744101 0.14829735 -0.2180323 -0.08002638
0002a0 54 63 da 3d a6 49 12 bc e0 5e ba 3d fb b6 fd 3d
       0.106634766 -0.008928692 0.09100127 0.123884164
0002b0 13 1a a5 bc c2 fc f7 3d 4a 8b 11 be 90 70 d0 bc
       -0.020154035 0.121087566 -0.14213291 -0.025444299
0002c0 c4 c2 ef 3d 1d 87 fc 3d af 31 12 3e ed 57 62 bd
       0.117070705 0.12330458 0.14276765 -0.055259634
0002d0 45 9a 37 3e 4d bd ec 3d ac d9 02 3e 61 fa 56 be
       0.17929943 0.11559544 0.12778348 -0.2099395
0002e0 d5 d0 c5 bd d5 8f 88 be 60 2b 49 be 2c 21 53 be
       -0.09658972 -0.26672235 -0.19645452 -0.20618123
0002f0 f2 7a ee 3d 71 e1 9c bd 10 71 d8 3d 32 f7 98 3d
       0.11644544 -0.07660187 0.1056844 0.07469024
000300 94 e8 68 be ea 8e fa bd f7 5e f4 bd f9 20 f2 3d
       -0.22744972 -0.1223429 -0.119321756 0.11822695
000310 b0 54 e6 bd e9 e2 ad 3d c4 41 ff 3d 58 38 1f be
       -0.112466216 0.08490545 0.12463716 -0.15548837
000320 1c e3 bb 3d d3 30 7a be 43 8b 95 be 07 0e eb bd
       0.09174177 -0.24432687 -0.2920781 -0.11477285
000330 d5 7b 19 be e1 f4 02 3e 9d 0e 23 3c f2 49 9c bc
       -0.14988644 0.12788726 0.009952215 -0.019078229
000340 2e 6d 2e bc 94 c3 2b 3e 6a 50 9b 3d 8b 6b 39 3e
       -0.010646148 0.16773826 0.07583697 0.1810743
000350 72 cf 13 3e b5 34 80 be 45 9c 3b be 8c 85 58 be
       0.14434603 -0.25040212 -0.18321331 -0.21144694
000360 24 01 1c 3e 0a d3 83 bd 24 82 0d 3e 35 35 f5 3c
       0.1523481 -0.06436737 0.13819176 0.029932598
000370 fb 95 5f be 58 e0 da 3d 3a 84 83 bc a2 36 c9 3d
       -0.21834557 0.106873214 -0.016054261 0.098248735
000380 82 1b 35 3e 0e fe 25 be 84 55 8e bd 01 4a 48 be
       0.17686275 -0.16210195 -0.069499046 -0.1955948
000390 f4 83 14 be be 31 2d 3e 43 66 35 be 74 4e 12 bd
       -0.14503461 0.16913506 -0.17714791 -0.03571935
0003a0 fb 3f ed 3d dd 5d 86 bd 97 bb 35 bd ac 5b 7b 3d
       0.11584469 -0.06560872 -0.044368353 0.061366722
0003b0 b6 c8 dc 3d cd d3 64 be 7f b8 6c be 85 a7 2f bd
       0.1078047 -0.2234642 -0.23117255 -0.04288437
0003c0 1a aa 9c bb 0e 0c 03 3e 48 12 b7 3d 1b 2a 3c be
       -0.00478102 0.12797567 0.08939034 -0.18375437
0003d0 d4 74 aa 3d 66 4f 99 be 2e 1f 90 be 99 b6 6f bd
       0.083230644 -0.2994339 -0.28148788 -0.058523748
0003e0 4d 5f a8 3d d5 a9 8e bd 47 11 8c bd df 74 96 bc
       0.08221302 -0.06965987 -0.06839233 -0.018366275
0003f0 d1 6a 00 3e f4 f6 2c be 92 b7 16 3e 2d ed 17 3e
       0.12540747 -0.1689108 0.14718464 0.14836569

fc2.bias f4 [10]
000000 36 ae 56 3e bc 19 7e 3e bc c6 0c bb 9e 22 a1 bd
       0.20964894 0.24814504 -0.002148076 -0.07867931
000010 d6 cd ff bc ff f5 ed bc 2d 81 ad bd 49 51 7b bd
       -0.03122608 -0.029047964 -0.08471904 -0.061356816
000020 90 5f 99 3e 5b ee 13 3e
       0.2995572 0.14446394

exp_avg f4 [10, 1, 5, 5]
000000 5f 60 b8 3c 0e 6a a2 3c d4 38 70 3c e1 92 17 3c
       0.02250689 0.019825961 0.014661986 0.009251327
000010 2c 43 83 3b 70 1e 92 3c 04 03 80 3c ba 0c 1c 3c
       0.0040058102 0.01783678 0.015626438 0.009524519
000020 d9 93 e0 3b ab 0f 9c 3b a0 26 34 3c 1b f0 0e 3c
       0.0068535623 0.00476261 0.010995537 0.008724238
000030 32 c0 9e 3b 12 b3 52 3b ff af cd 39 4c 1d 2b 3c
       0.004844689 0.0032150191 0.00039231774 0.010443997
000040 d8 3e 9a 3b ec 3d 18 3a 98 71 c6 39 76 ab 32 ba
       0.0047071986 0.0005807567 0.00037850137 -0.0006815711
000050 c8 9e 49 3c 07 18 81 3b 8a e6 c3 b8 5a 83 25 ba
       0.012305923 0.003939632 -9.341266e-05 -0.00063138234
000060 7a 42 89 ba c2 9b e0 3b e4 c5 50 3b 3f 2e 98 bb
       -0.0010472082 0.0068545053 0.0031856233 -0.004644185
000070 cb 5c ef bb 85 38 1a bc 73 ca cb 3b 9c 60 86 3a
       -0.007304763 -0.009412889 0.006219202 0.001025218
000080 52 a6 ec bb fb e0 23 bc fb 31 2f bc f3 d4 18 3c
       -0.0072219754 -0.01000237 -0.010693069 0.009328115
000090 30 17 42 38 81 80 e4 ba 0f bd a4 bb fa fa 04 bc
       4.62748e-05 -0.0017433317 -0.0050274204 -0.008116478
0000a0 0a dd 14 3c fc 2b 8b 3b f5 7a 8e 3b 40 d1 8a 3a
       0.009085903 0.0042471867 0.0043481537 0.0010590926
0000b0 5b 24 d4 ba 94 77 19 3c 3c 87 11 3c b3 c9 9b 3b
       -0.0016185151 0.009366889 0.00888234 0.004754269
0000c0 a4 1c 1d 3a 31 8b b1 ba e4 a9 31 3c 63 7e 14 3c
       0.00059933425 -0.0013545511 0.010843728 0.009063336
0000d0 28 3e 1e 3c de a0 f2 3b 2c a0 e9 39 9e ba e8 3b
       0.009658374 0.007404431 0.0004456056 0.0071023246
0000e0 35 9e cb 3b 20 56 54 3b ec 43 7b 3b 21 61 ab 38
       0.006213928 0.0032399967 0.0038340045 8.172007e-05
0000f0 6c 15 ce 3b 70 f8 bd 3b 7c 39 72 38 51 4b e4 3a
       0.006289175 0.0057974383 5.7750833e-05 0.0017417466
000100 d5 79 3b bb 14 3a d4 3b 83 68 ae 3b de 09 fb 3a
       -0.0028606553 0.00647665 0.0053225174 0.0019152721
000110 f3 18 96 38 51 5b 11 bb 8d a1 36 3b 8e 47 5e 39
       7.1572045e-05 -0.0022179673 0.0027867288 0.00021198226
000120 8c c5 b8 ba 44 28 b1 bb ee 86 be bb 9b 81 30 3c
       -0.001409696 -0.0054064114 -0.0058144247 0.010773088
000130 32 6f 24 3c b4 58 cc 3b 4c 0c 27 3b 49 79 54 bb
       0.010036277 0.00623616 0.0025489507 -0.0032420924
000140 d4 d0 04 3c 0e 27 fb 3b 1b 63 5c 3b 2b fc 19 3a
       0.008106429 0.007664568 0.0033628407 0.0005874063
000150 50 63 2f ba 96 4f 47 3b c3 d6 db 3a 53 29 c5 3a
       -0.0006690519 0.0030412427 0.0016772378 0.0015042223
000160 ff d1 4e ba 34 ab 95 b9 de 19 6b 3b ff b8 c4 39
       -0.0007889568 -0.0002854705 0.0035873572 0.00037521866
000170 7e 26 2f 3b ce 19 ab 3a 3e 71 71 3b 64 f2 e1 3b
       0.0026725824 0.0013053955 0.003684118 0.0068953503
000180 ba 9e fe 3a e9 43 20 3a 46 57 2d 3b 97 6c b9 3b
       0.0019425966 0.0006113635 0.0026449724 0.005658697
000190 d6 e6 d5 bb 4d 19 c1 bb 18 3f a9 b8 cd ef e6 3b
       -0.006527762 -0.0058929087 -8.0703e-05 0.0070476294
0001a0 8a d0 09 3c c1 ec 9e bb 6e 2a 1d bb 58 e1 50 3b
       0.008411536 -0.0048500006 -0.002398159 0.0031872597
0001b0 ca ba 12 3c 42 df c9 3b 80 23 87 36 d4 c1 ff 3a
       0.008955667 0.0061606476 4.0274463e-06 0.0019512721
0001c0 54 e0 82 3b 01 60 6e 3b 24 10 53 3a 5d 44 fe b9
       0.003994027 0.003637314 0.00080514164 -0.0004849759
0001d0 e7 3d 06 3b 50 23 76 3b 72 da c1 b9 84 5b 57 ba
       0.0020483674 0.003755767 -0.00036974583 -0.0008215236
0001e0 31 cb 1a bb ff 53 10 3b 07 b0 7f 3b 4a 7c 68 3b
       -0.0023619647 0.0022022722 0.0039014833 0.0035474473
0001f0 ce 4b c9 3a d1 c4 85 bb 27 dc 9f bb 08 61 82 bb
       0.0015357675 -0.0040823002 -0.004878539 -0.003978852
000200 8a b2 77 ba 54 a7 e5 3a 77 db 2f bb 50 1f 9d bb
       -0.00094489066 0.0017521181 -0.0026833692 -0.0047949925
000210 fc 64 49 bb 44 a5 44 ba d3 fd 36 39 77 bb 90 3a
       -0.0030730357 -0.0007501433 0.0001745143 0.0011042197
000220 23 9e 44 ba 7a 7a a8 b9 49 39 c8 b9 be 1f 3e ba
       -0.0007500371 -0.0003213471 -0.00038189653 -0.0007252655
000230 bb 06 bb ba bf b7 11 bb 71 ba 97 38 2d 31 00 3b
       -0.0014268974 -0.0022234765 7.2349685e-05 0.001956056
000240 2d 03 25 3b ed 58 d5 ba 5e 70 8b ba b1 1e 7a 3b
       0.0025178895 -0.0016277112 -0.0010638346 0.0038165266
000250 54 43 97 3b fd 4a 47 3b 83 74 99 bc 92 90 87 bc
       0.0046161804 0.0030409687 -0.018732315 -0.016548429
000260 56 c9 55 bc 56 8f 3f bc 04 3c 16 bc 07 04 8a bc
       -0.0130484905 -0.011691889 -0.009169582 -0.016847624
000270 4f 97 6e bc 88 26 37 bc 0d da 81 bb f3 ed 42 bb
       -0.014562442 -0.01117862 -0.0039627613 -0.002974388
000280 14 25 6a bc 1e e2 47 bc 85 31 b4 bb 4b 67 97 3b
       -0.014291067 -0.012199907 -0.0054990673 0.004620468
000290 0e 1e 8e 3b ed 29 2a bc 9f 65 00 bc a6 5a a1 3a
       0.004337079 -0.010385972 -0.007836728 0.001231034
0002a0 50 02 17 3c 1e d5 19 3c 9c 9d ae bb e6 06 b2 ba
       0.00921686 0.00938919 -0.005328847 -0.0013582378
0002b0 45 b0 fa 3b b7 4c 46 3c d1 9c 22 3c 02 b7 02 bc
       0.0076504075 0.012103251 0.009925083 -0.007978203
0002c0 5f d0 be bb c4 58 95 bb 55 3b 85 ba d2 1f 1d bb
       -0.0058231796 -0.004557701 -0.0010164777 -0.0023975265
0002d0 6d d0 10 bc 19 ca b7 bb 38 2e f8 ba f4 86 ba ba
       -0.008838755 -0.0056088087 -0.0018934673 -0.0014230893
0002e0 99 e5 a0 ba cb 8d 15 bc ef 61 b0 bb 79 53 87 ba
       -0.0012275457 -0.009128044 -0.0053827683 -0.0010324559
0002f0 cc df 17 ba 48 eb 11 39 5b 43 01 bc b7 18 e5 bb
       -0.0005793541 0.00013915927 -0.007889594 -0.0069914716
000300 be d6 b4 bb 8b e1 39 bb 54 71 e3 ba 18 b6 36 bb
       -0.0055187633 -0.0028363194 -0.00173525 -0.0027879532
000310 cb 0f d3 bb df ed f4 bb c2 92 bf bb f2 a3 64 bb
       -0.0064410917 -0.0074746455 -0.0058463523 -0.0034887758
000320 5c 57 81 3a ba d5 01 3c 8c bc 4b 3c 70 e5 2a 3c
       0.0009867954 0.007924492 0.01243509 0.010430679
000330 58 8c 80 3b 07 ba d9 b9 54 4c e3 3b 3f 47 43 3c
       0.0039229803 -0.00041528067 0.0069365893 0.011918842
000340 91 bb 12 3c 9f 2f ac 3b e3 82 2b bb 54 8a 34 3b
       0.008955852 0.0052547003 -0.0026170544 0.002754827
000350 05 4f 03 3c 5f f3 1e 3c 96 60 5a 3b b7 0f 02 bc
       0.008014445 0.009701579 0.003332173 -0.007938317
000360 f2 78 73 bb cd 36 4f ba 5c 59 b3 3b df 0c 87 3a
       -0.0037150946 -0.00079045893 0.005473299 0.0010303519
000370 a2 be 22 bc 2a cc f7 bb 62 60 4b bb b9 da 38 3b
       -0.009933146 -0.00756218 -0.003103279 0.002820654
000380 71 24 12 3b cc 28 4c 3c 69 24 5b 3c 7c a6 1b 3c
       0.0022299553 0.012460899 0.01337538 0.009500142
000390 5a c7 95 3b ec 63 68 3a 13 1a 44 3c 2e c3 25 3c
       0.0045708837 0.0008864987 0.011969107 0.010117335
0003a0 1d 11 5d 3b 37 49 a5 3a fd 1a e1 ba f9 f6 62 3c
       0.0033732124 0.0012610321 -0.0017174181 0.013852828
0003b0 99 1a f1 3b 90 be 2d b9 cd a3 9c 3a 44 ba 12 bb
       0.007357907 -0.00016569556 0.0011950672 -0.0022388855
0003c0 a9 a7 66 3c fd d5 b0 3b 32 f2 6c 3b 98 04 2c 3a
       0.014078059 0.005396603 0.0036155102 0.0006561964
0003d0 22 7e 3b bb 5e 0c 03 3c ed f9 22 3b fc 16 3f 3a
       -0.0028609117 0.007998554 0.0024868206 0.0007289497
0003e0 7f d2 04 bb 88 9a 9d bb
       -0.0020267067 -0.0048096813

exp_avg_sq f4 [10, 1, 5, 5]
000000 bb 91 bb 3a b8 c3 99 3a 80 31 87 3a f3 6a 77 3a
       0.0014310399 0.0011731302 0.0010314435 0.0009438239
000010 78 1e 71 3a bb b7 a3 3a ca bd 83 3a 37 16 64 3a
       0.00091979606 0.0012490669 0.0010051068 0.000870082
000020 63 1a 5f 3a 7c d6 63 3a 67 ac 87 3a c4 08 49 3a
       0.0008510707 0.00086913235 0.0010351063 0.00076688477
000030 4e b2 20 3a 6b 95 2a 3a 3d 2f 32 3a e4 2b 5f 3a
       0.0006130085 0.00065072504 0.00067972 0.0008513315
000040 dc f6 1b 3a 2f 1d f3 39 0e 23 05 3a 15 27 27 3a
       0.00059495657 0.00046370315 0.0005078771 0.0006376368
000050 9b 62 45 3a 1a 15 14 3a fe 23 f3 39 31 14 0e 3a
       0.0007529647 0.00056488963 0.00046375388 0.0005419879
000060 03 a9 3d 3a 5f 29 8b 3a 0c 84 85 3a 2e 61 8c 3a
       0.00072349625 0.0010617188 0.0010186448 0.0010710114
000070 01 3b 8c 3a 53 ad 89 3a 88 e4 9c 3a f3 89 9a 3a
       0.0010698737 0.0010503925 0.0011969963 0.001179038
000080 bb d0 91 3a e2 e0 8b 3a 33 f6 93 3a 05 14 ac 3a
       0.0011124829 0.0010671879 0.0011288583 0.0013128525
000090 1a 4b 92 3a 4b dd 7c 3a 5f 73 85 3a a5 8c 9a 3a
       0.0011161298 0.00096460123 0.0010181478 0.0011791183
0000a0 f2 89 99 3a 1f 18 86 3a 53 d2 80 3a 7e 71 8a 3a
       0.0011714085 0.0010230577 0.0009828307 0.0010562388
0000b0 d1 55 a0 3a 6f cd 8c 3a d2 08 87 3a a4 5a 89 3a
       0.0012232607 0.0010742376 0.0010302311 0.0010479284
0000c0 e8 bf 90 3a 69 d8 a0 3a bb 75 82 3a c8 95 80 3a
       0.0011043521 0.0012271527 0.0009953299 0.0009810263
0000d0 3f 53 6a 3a 60 46 43 3a e1 ac 3c 3a 81 e6 50 3a
       0.0008938796 0.00074491464 0.0007197392 0.0007968918
0000e0 e9 27 3f 3a 44 26 34 3a cd 20 0e 3a 33 21 30 3a
       0.0007292019 0.0006872157 0.0005421758 0.0006718814
0000f0 2b b9 34 3a f1 97 24 3a ec ba 3f 3a 30 40 1c 3a
       0.0006894047 0.00062787445 0.00073139253 0.00059604924
000100 7c fe 2c 3a 46 9e 2e 3a fa 83 16 3a 8a 9a 3e 3a
       0.00065992004 0.0006661158 0.0005741712 0.0007270953
000110 39 0e 2f 3a 90 e2 2b 3a 9a 21 17 3a 8b af 11 3a
       0.00066778396 0.0006556893 0.00057652 0.0005557469
000120 7a f5 43 3a 03 0d 50 3a f8 77 40 3a f8 68 63 3a
       0.00074752385 0.0007936509 0.00073420955 0.00086750044
000130 34 3b 54 3a cf ab 3b 3a df ef 30 3a 52 b4 31 3a
       0.000809598 0.00071590854 0.0006749611 0.0006778884
000140 3b 5b 65 3a 02 94 48 3a 8d 42 36 3a db 9d 2d 3a
       0.0008749251 0.00076514494 0.0006952666 0.00066229486
000150 f8 1e 31 3a 7c 53 4c 3a 39 b3 29 3a 73 63 19 3a
       0.0006756629 0.00077944226 0.00064735446 0.0005851306
000160 03 a6 0c 3a 05 59 16 3a 56 ee 2c 3a cc 7d 09 3a
       0.0005365314 0.0005735311 0.0006596794 0.00052448804
000170 66 f3 fc 39 06 fc ff 39 67 bf 10 3a ab eb 1a 3a
       0.00048246532 0.00048825162 0.0005521685 0.0005909751
000180 56 30 f9 39 ca 9c dc 39 b1 9b f5 39 b7 67 17 3a
       0.00047528994 0.00042078487 0.0004684604 0.00057756476
000190 c7 1d 04 3a 9b 39 c3 39 70 8a e2 39 70 21 fc 39
       0.00050398376 0.00037236218 0.00043209223 0.00048090098
0001a0 3d 8a ff 39 1a 34 c2 39 59 96 ce 39 90 84 f8 39
       0.00048740386 0.00037041382 0.000394034 0.00047401013
0001b0 52 f5 c8 39 85 1c f1 39 b3 f6 b8 39 c5 02 cc 39
       0.0003832975 0.0004598835 0.0003527902 0.00038911976
0001c0 d2 05 aa 39 c3 ab bd 39 33 03 1a 3a 3e e0 cd 39
       0.00032429263 0.00036176862 0.00058751105 0.0003926772
0001d0 b2 aa d3 39 7e d9 c0 39 b0 94 00 3a 52 39 26 3a
       0.00040372234 0.00036783138 0.00049049687 0.0006340939
0001e0 ef 8b e6 39 33 1b e4 39 1c 7a 05 3a a5 e0 1b 3a
       0.00043973277 0.00043507814 0.0005091743 0.00059462554
0001f0 ae a5 2f 3a d3 cd bb 39 84 6c bc 39 81 85 c8 39
       0.00067004084 0.0003582077 0.00035939005 0.0003824644
000200 7e 64 c4 39 d3 a9 b8 39 e4 a4 d3 39 65 6e d8 39
       0.00037458906 0.00035221744 0.0004036791 0.0004128098
000210 76 86 d2 39 3d 35 c3 39 2b 5a b1 39 46 20 e1 39
       0.00040154502 0.00037232964 0.0003382725 0.0004293939
000220 ad f6 d9 39 65 1c c0 39 a8 55 b9 39 c2 7f bf 39
       0.00041573253 0.0003664225 0.0003534977 0.00036525546
000230 fa 8d be 39 b2 1d b6 39 48 5e a8 39 40 5d ae 39
       0.00036345405 0.0003473587 0.00032113702 0.00033257343
000240 88 54 bb 39 7e 63 b7 39 08 3f b8 39 fc e6 ba 39
       0.000357304 0.00034978607 0.00035142177 0.0003564878
000250 cc 27 c0 39 3a f5 be 39 1c 51 c1 3a 0c 07 be 3a
       0.00036650745 0.00036422332 0.0014748904 0.001449795
000260 ad e7 ac 3a 36 a8 87 3a 1d 5b 59 3a b0 15 bc 3a
       0.0013191603 0.0010349813 0.000829147 0.0014349725
000270 12 2f b5 3a f1 ec 8f 3a 7f 3d 29 3a 57 00 16 3a
       0.0013823232 0.0010980648 0.0006456002 0.00057220965
000280 d3 1a ba 3a f0 b8 a2 3a c1 29 33 3a 97 4b 01 3a
       0.0014198668 0.0012414735 0.000683453 0.0004932223
000290 08 78 19 3a 00 67 ab 3a 30 f1 6b 3a 3f b0 03 3a
       0.0005854373 0.0013076961 0.00090004783 0.0005023516
0002a0 c8 c2 30 3a ae f0 1f 3a 14 64 87 3a f5 4e 31 3a
       0.0006742892 0.0006101233 0.0010329508 0.00067637797
0002b0 09 97 2d 3a d0 f6 3d 3a 9c ed 1b 3a da c9 c5 3a
       0.0006621932 0.0007246556 0.00059481873 0.0015090064
0002c0 1f a7 c0 3a f3 1b b3 3a 76 8a b8 3a 48 ca c7 3a
       0.0014698243 0.0013664946 0.001407935 0.001524278
0002d0 be 8a bb 3a 69 2a b1 3a 18 c5 b0 3a e6 ff c6 3a
       0.0014308316 0.0013516668 0.0013486473 0.0015182465
0002e0 bc 09 d2 3a fe 64 b2 3a cf 5f b2 3a 32 c4 bc 3a
       0.001602463 0.001361042 0.0013608875 0.0014401732
0002f0 ec 27 cd 3a f7 a2 d0 3a a5 25 a9 3a 7b 3e b2 3a
       0.0015652156 0.0015917708 0.0012904896 0.0013598943
000300 7f 71 bd 3a 03 c4 c6 3a b2 8d c5 3a 19 43 a1 3a
       0.001445338 0.0015164617 0.0015072136 0.0012303322
000310 84 37 a9 3a 10 6e b6 3a f8 14 be 3a 7d 61 b9 3a
       0.0012910222 0.0013918299 0.0014502099 0.0014143434
000320 86 85 e8 39 b4 4a b7 39 16 7a b9 39 b4 71 b6 39
       0.0004434997 0.00034960138 0.0003537691 0.0003479846
000330 79 ef b6 39 b1 00 e9 39 86 a3 a8 39 f4 aa ab 39
       0.00034892166 0.00044441738 0.00032165291 0.00032743032
000340 51 5a 9e 39 5e 7a 9f 39 ad 8d de 39 7f 45 94 39
       0.000302034 0.00030418014 0.00042448696 0.00028280538
000350 99 56 8f 39 27 3a 8f 39 d1 ca 9a 39 d9 9f d6 39
       0.00027339606 0.00027318412 0.0002952428 0.00040936357
000360 a7 d4 9c 39 c1 14 86 39 08 a2 96 39 2c bd be 39
       0.00029913077 0.00025573935 0.00028730952 0.00036380568
000370 3f e1 c9 39 0d 1b b4 39 5d 55 ac 39 7d 85 a9 39
       0.0003850553 0.0003435243 0.00032869997 0.00032333648
000380 e3 c6 c3 39 3b 71 32 3a 67 e1 17 3a fe db 09 3a
       0.0003734148 0.0006807034 0.00057937804 0.00052589166
000390 22 61 02 3a e6 cc eb 39 b3 59 18 3a 47 48 09 3a
       0.00049735804 0.00044975354 0.0005811706 0.00052369054
0003a0 82 64 e6 39 14 f4 f6 39 54 1b e1 39 d1 d2 0e 3a
       0.00043943903 0.0004710263 0.00042935705 0.0005448284
0003b0 2e 40 de 39 c8 c2 f1 39 06 3a f0 39 02 3c bb 39
       0.00042390957 0.00046112225 0.00045819598 0.0003571213
0003c0 51 c6 02 3a 61 46 03 3a cd d2 f1 39 48 6f a6 39
       0.0004988658 0.00050077407 0.0004612416 0.00031744898
0003d0 be 7d bf 39 51 35 00 3a d1 b5 e3 39 d3 fa b9 39
       0.00036524044 0.0004890757 0.00043432278 0.00035472828
0003e0 38 21 c5 39 d4 cf 02 3a
       0.00037599518 0.0004990075

exp_avg f4 [10]
000000 13 99 d2 bb d5 1d 68 bc d6 79 cb 3a 53 88 00 bc
       -0.0064269393 -0.014167269 0.0015523981 -0.007845002
000010 7a 1f d2 3b 39 b5 3f 3b 0b 1f 7e 3c f1 27 7e 3a
       0.0064124437 0.0029252304 0.015510331 0.0009695283
000020 b6 ba 56 3c 86 9d 43 b9
       0.013106039 -0.00018655331

exp_avg_sq f4 [10]
000000 33 d4 b7 3a 28 69 bd 3a 58 0e 93 3a ed 85 96 3a
       0.0014025032 0.0014450895 0.0011219485 0.0011484005
000010 83 3a 53 3a cd b8 bb 39 be 5b e7 3a 90 dd e4 3a
       0.000805773 0.00035805107 0.0017651243 0.001746105
000020 a6 2b 09 3a e6 af 5c 3a
       0.00052326394 0.0008418545
