CODES_and_STUFF/checkpoint/model_epoch3.pth (torch, 270767 bytes, 24 tensors)

conv1.weight f4 [10, 1, 5, 5]
00000000: 4987 973e aa8c 8a3e 31a7 133c 0c2d f9be
00000010: 56bd c1be f736 033d 1134 e43e 956d 003f
00000020: 9965 963d 0f04 81be 8f3e 9ebe 43c3 ad3e
00000030: ff2a d53e dff2 4c3e dc48 b2be 8569 b5bd
00000040: 44c7 c3bd 0e49 ab3e 3e29 c93e 7191 5d3e
00000050: 7bdd 38be 2a43 6cbe 5fb9 753d e577 d33e
00000060: 8784 453e 8c2e 76be d8cf 31be 1932 a9be
00000070: ca30 4cbe 0205 36bd cef4 88bd 504d 57bd
00000080: b27c 87be 4bb7 a6be e4de 9ebe a49a 883e
00000090: 2db9 e93c de3a 2dbe 6ea7 a03e 4f0f 933e
000000a0: c849 3e3e 08f4 713d 8636 e13e d55a 883e
000000b0: 448d a73e 2a57 4dbe f288 943e 5258 8e3e
000000c0: 830e 8abc c1a7 89be 0e22 9bbe ee70 48be
000000d0: 352e db3d 9a71 cb3e 0d27 2f3e 9d60 45be
000000e0: cf86 66bd 8f65 cebd 206d 1c3e 8c22 b63e
000000f0: 07ee 3fbd 0438 98bb 262c 11be f7df 1d3e
00000100: b6e3 c33e 0f4d 9dbe 0e11 83be 0025 89be
00000110: 78a3 9f3e 7077 8e3e 56db 16be f1e9 17be
00000120: 1cb8 f5bd 0278 463e 7b02 de3e 9c14 d3bd
00000130: 2475 f6bb 632f 8fbe f1d1 a63d fd96 473d
00000140: b473 33be 079d 75be 6158 e238 f866 a53c
00000150: 18e7 7e3d 2b7c 123d eef3 67bd 6e35 253e
00000160: f0cb 0dbe 1dba 763c e2a8 5bbb cd71 913d
00000170: 2497 dfbd d65d f7bd 7fad 4abe 79e1 9b3e
00000180: d3c0 a33e 63a6 4c3e 0c94 203e fc10 863e
00000190: 3698 3d3e 44c7 1a3d d302 003e 2d78 0f3e
000001a0: 2f31 5d3e 4a60 863e 5040 813e 2b95 c23e
000001b0: 009a bc3e d372 603e 61a4 063e 3983 f53b
000001c0: e592 893d 0366 b23d 4635 803e 26f0 a1be
000001d0: 5d02 24be 0238 58be 544f 52be 9766 02be
000001e0: 84be b2be a6fb 89be c779 98be 3904 c9be
000001f0: aefe aebe 0a3d 453e 71c9 d73e aa5c 8b3e
00000200: d4d4 6a3e 4aeb 113e d17e 063e 0c93 1d3d
00000210: ac08 a43e 2482 8b3e 259c 193e 66ef 90be
00000220: 6a7c 0fbd 2644 79be b83b da3a 542f 913d
00000230: 2108 d7be aae4 b3bd 02f8 a1be e2f8 99bc
00000240: 0ac7 9bbd 5103 44be 216c 88be 3e04 423d
00000250: 55b6 94bd 2e20 f83c 97ac 8bbb cd2c 4f3c
00000260: ec1d 30bc 2391 27bd eab1 d0bd 775d 0cbd
00000270: d871 aebc 9cbb f8bd d075 09be 1cdb 63bc
00000280: 5766 be3d 8ce0 613d 408d bdbd e1d2 f73d
00000290: 1b1d 12be 39df e0bd c5bd 28be 428f 703d
000002a0: f3d4 2dbc b528 063e 007f f4bd a078 6c3e
000002b0: 8a3a a6bd 45a9 b73d 6fe6 6cbd 9be8 59be
000002c0: d22a 4dbe be6c 20be af66 f8bc f659 e23d
000002d0: 95b6 d4bd 6f95 a8be 524f 03bd 7662 843c
000002e0: 02de b23e 8b14 a8be ec98 89be d767 0d3e
000002f0: a5e6 c93e db59 973e 995e 40be a8ba 27be
00000300: 810c ca3e 6a43 d33e b45a 0b3d 2fce bcbd
00000310: cbc8 893e cc84 203e 8ff8 0b3e d458 b9bd
00000320: eca2 333e 8e3a f2bd 1afe 32be 3506 fc3c
00000330: 6e2e 16bd 4bb4 5f3d 6299 13be 9cbe dabd
00000340: c9e2 17bc 5f66 863d 2157 543c fc64 f9bd
00000350: 1835 72be 80a4 993d 976a 0cbe 9ece 963c
00000360: a3db 75be 743f 86bd bdff 8dbd a6d1 82bd
00000370: 9f38 063d c842 cbbc 0ef4 24be 8d10 89bd
00000380: 53c5 b53d c580 b53e c8c1 2d3e 4f1e 743e
00000390: e16d 073e 3a30 1bbe d923 c83e e6ef 4f3e
000003a0: 84b0 8bbd d79f ba3c 955b 73bd 3b4c d93e
000003b0: 743b 713e b124 aabd bc99 5cbe 50ad 5cbe
000003c0: 786c 943e 06dd 51bd 3b47 4ebe 4f7d 12be
000003d0: 928c a9be 6be1 713e e3bc 2fbd 603d 03be
000003e0: 222e 9dbe 8546 75be
0.29595402 0.27060443 0.0090120295 -0.4866718 -0.37839764 0.03203484 0.44570974 0.5016721
0.07343597 -0.2519841 -0.30907103 0.33938035 0.41634366 0.20014523 -0.34821212 -0.08858017
-0.09559491 0.33454174 0.39289278 0.21637513 -0.18053238 -0.23072496 0.059991237 0.4130241
0.19288836 -0.24041194 -0.17364442 -0.33046034 -0.19940487 -0.04443837 -0.06687318 -0.052563965
-0.26462322 -0.32561716 -0.31029427 0.2668048 0.028530682 -0.16916987 0.3137774 0.28722617
0.18582833 0.059070617 0.4398691 0.266318 0.32724965 -0.20052782 0.2901073 0.27801758
-0.016852623 -0.268858 -0.3029942 -0.1957433 0.10702173 0.3973511 0.1710474 -0.19275136
-0.056280907 -0.100779645 0.15276003 0.35573232 -0.04685786 -0.0046453495 -0.14176998 0.15417467
0.38259667 -0.30722854 -0.2559895 -0.2678604 0.31179404 0.278255 -0.14732108 -0.14835335
-0.11998007 0.19381717 0.43361267 -0.10306665 -0.0075212885 -0.2796584 0.08145512 0.048727978
-0.17524606 -0.23985682 0.000107929816 0.0201907 0.062232107 0.035762947 -0.056629114 0.16133663
-0.13847327 0.015059021 -0.003351741 0.07101784 -0.109175 -0.12078445 -0.19792746 0.3044546
0.3198305 0.19985346 0.15681475 0.26184833 0.18515095 0.03778769 0.12501077 0.14010687
0.21600793 0.26245338 0.2524438 0.3800443 0.36836243 0.21918802 0.13148643 0.0074924496
0.06717471 0.087108634 0.25040644 -0.3162853 -0.16016527 -0.21115115 -0.20538074 -0.12734447
-0.34910977 -0.26949805 -0.2978041 -0.39261034 -0.3417868 0.19261566 0.42145875 0.27219135
0.2293275 0.14249912 0.13134314 0.038470313 0.32037866 0.27247727 0.1500097 -0.28307647
-0.03503076 -0.24342403 0.0016649878 0.07089105 -0.4199839 -0.087838486 -0.31634527 -0.018795434
-0.07606323 -0.1914189 -0.26644996 0.047367327 -0.072613396 0.030288782 -0.0042625177 0.012644959
-0.010749321 -0.040909898 -0.101901844 -0.034268823 -0.02129452 -0.12145159 -0.13423848 -0.01390722
0.092968635 0.055145785 -0.09255457 0.12100769 -0.14268915 -0.10980076 -0.16478641 0.05873037
-0.010609853 0.13101466 -0.11938286 0.2309289 -0.08116634 0.089678325 -0.057836946 -0.21280138
-0.20035866 -0.15666482 -0.0303224 0.11052315 -0.10386387 -0.3292651 -0.032058068 0.016160231
0.34935004 -0.32828173 -0.26874483 0.13809143 0.3943378 0.29560742 -0.18786086 -0.16379797
0.39462665 0.4126237 0.034022048 -0.09219014 0.26911005 0.15675658 0.13669036 -0.09050146
0.17542619 -0.11827575 -0.17479745 0.030764678 -0.036665373 0.0546153 -0.1441398 -0.10680887
-0.009270378 0.065624945 0.012960226 -0.12177464 -0.23653066 0.07502079 -0.13712536 0.01840907
-0.24009566 -0.065550715 -0.06933544 -0.063876435 0.03276884 -0.024812117 -0.16108724 -0.0669261
0.08875527 0.35449806 0.16968453 0.23839687 0.13225509 -0.15155116 0.3908985 0.20306358
-0.06820777 0.022781296 -0.05941351 0.42440972 0.23557836 -0.083077796 -0.2154302 -0.21550488
0.28989005 -0.051236175 -0.2014436 -0.14305614 -0.3311506 0.23621146 -0.042904746 -0.12816381
-0.3069926 -0.23952682

conv1.bias f4 [10]
00000000: c026 373e 11c7 05bc 4d90 13be 0e23 ba3d
00000010: 456b 633c 34c6 3a3d 7570 7dbe 6aa2 f3bc
00000020: f26c 81be 66b9 7f3d
0.17885876 -0.008165137 -0.14410515 0.090887174 0.0138805555 0.045599177 -0.2474993 -0.029740531
-0.2527843 0.06243267

conv2.weight f4 [20, 10, 5, 5]
00000000: 0d21 e6bd 629c cfbd 765b 49bd cf5d 17be
00000010: b794 0abd 2b2d 56be 6f48 19bd 9b1f a3bb
00000020: 70fe 22be 2a08 a03c 2a36 53bd ef71 523c
00000030: 3ac5 9abc fb2e 5b3d fb2b 94bc 609c 253d
00000040: 6a37 9bbc ba76 d5bd 34c0 b5bd cb9c c4bd
00000050: 70ea 3c3d f29e a13d 7589 ab3d 555e eb3d
00000060: aafa 133e 6905 3bbd 96a8 23bd af35 4fbd
00000070: ded6 fe3d 42d4 233e b350 82bc 541e a1bd
00000080: 5e02 bf3c 108d ef3d f250 2fbd 6228 e4bd
00000090: c6dc 7ebc 59d4 36bd 6259 fbbd 8ecb cdbd
000000a0: 57ad 1a3e 9de4 573e 8be4 3f3e 40ba 1d3e
000000b0: 334e b33d 6231 203e 6c11 063e f410 c63d
000000c0: 768c 483d e9a8 cb3d d46d fdbd c2e2 093d
000000d0: 09ed e23d 9007 673d 1a6f 89bd 5a52 9abe
000000e0: d163 23bd b220 ec3b 19a0 11bc cf27 ca3d
000000f0: a0fe a9be de95 a5bd eeca 68bd 96b2 06be
00000100: 7054 c5bd 9ef9 34be 7cdb 08be 0f5d 56be
00000110: 0973 14be efa7 57be e69f a43d e5f6 7dbd
00000120: c692 08bd a11d 183d d98b cebb 5646 8cbc
00000130: 0d88 9b3d 4d9d bc3d 1222 8f3d 2f8e e93c
00000140: f8fe f6ba 15dc 12bd 4270 243b 4e1f f5bc
00000150: f11b b6bd 80f3 4e3d 6c1d ee3d 8726 b53d
00000160: e611 853a b38d a03c 66e8 0bbd 1c46 ff3d
00000170: ca91 053e 00a9 ec3d 42a3 cb3d b661 013d
00000180: c7cc bdbc 0658 a43c 9bed 56bb a31f 8abc
00000190: aed5 d03d bd2d 083c dd04 dbbc deea 543d
000001a0: b078 513d 1acb 973d dce7 203e fc4b d73d
000001b0: 2f64 163e 7050 f63d 487e df3d 43f7 233e
000001c0: 6d36 443e ba03 2f3e 9555 acbd c264 3fbc
000001d0: ea26 eebd 9fed 4bbd 4fcb 2dbe 4174 54be
000001e0: 954c 97ba 1e6b d9bd 7a23 98bd 20df 893c
000001f0: d577 dd3d d6a8 ef3c 7aa4 153d cf31 cd3c
00000200: 3e3b a4bc cfa6 453d ac16 22bd 8f13 a03d
00000210: 8346 123d a666 73bc 4fce e93d 6cad b6bc
00000220: 5aef 1c3e ec03 033e 2b51 4e3e 2158 b03d
00000230: a7db 0cbb 7000 9fbd 2304 683d bad5 0abe
00000240: 6e3f 45be c3c0 003d 4a06 463c 374b e93c
00000250: a575 553d 7975 603d 5e82 c0ba 5c88 693d
00000260: 73bf 523d 2d7a 503d e5fc 823d bf44 01bd
00000270: d0f5 c2bc bc20 443c de32 38bd 4dbc b1bc
00000280: c426 e43c cd24 193d 221f 573d 91c9 2a3d
00000290: 26a1 88bc 79e3 373d b2ee 5abc eaa9 73bc
000002a0: 8ad4 883c 5b1d adbc 0011 52bd 7838 1abd
000002b0: 83b6 39bd e25a 0fbd ff8c 1d3d 27b9 0bbc
000002c0: eaa5 07bc cd86 d73d be94 623d 620b bb3d
000002d0: 82f8 99bc 7c82 95bd 50b3 d63d a054 f93d
000002e0: e702 52bc 182c 9dbe 3baa 61be 7935 4dbe
000002f0: 5b8b 59be 89c2 1cbe 704c cdbd 1cfd 04be
00000300: 623d 14ba d093 973d e462 433d 1bee 373e
00000310: e050 653d b1f2 023b 6008 15bd 6d39 79bd
00000320: e66d 84bd 6955 92bc 04e3 fe3b 20da ffbc
00000330: d6fa 0bbd 1fa7 13bd 0991 e83c 9841 523d
00000340: 6ba4 0c3d d306 ef3c 3327 df3c 8474 683d
00000350: 278a cb3d 57f4 283c 0936 a03c 4aa3 31bd
00000360: 6ef6 1f3d 4a72 223c cc90 71bd c692 8cbd
00000370: 5017 d6bd 983a e9bd 4779 9bbd 728b 4c3b
00000380: cce0 59bd 821e 443c 894c 973d 5b6c 1d3d
00000390: d4ac 953d 40fc d83c 8383 3abd 03b7 05bd
000003a0: 6e66 01bd b22e 793c 3d6e 95bc 2b1d 57ba
000003b0: 6090 e9bd 745d 92bd 1d5e 82be b407 90be
000003c0: 8e9b 0abe 46b7 eebd 755b 7dbe fc7c 8cbe
000003d0: 2b68 37be 505d de3b 02eb a53c a11f b9bd
000003e0: 86e8 13be 7c72 c0bd ab42 8d3c df6d d63d
000003f0: 1e96 983d b104 7c3d 6a77 9d3d 648a 23be
-0.11236773 -0.101372495 -0.04915949 -0.14781879 -0.03383323 -0.20915668 -0.037422594 -0.004978133
-0.15917373 0.019535143 -0.051565327 0.012844547 -0.018892873 0.0535116 -0.018087378 0.040432334
-0.018947322 -0.10423036 -0.088745505 -0.096002184 0.046122015 0.078916445 0.08375827 0.11492602
0.1445109 -0.045659456 -0.039955698 -0.050588306 0.124433264 0.15998939 -0.015907621 -0.07867113
0.023316558 0.116968274 -0.042801805 -0.11140515 -0.015555566 -0.044636104 -0.12272908 -0.100485906
0.15105186 0.21083303 0.18739526 0.1540308 0.0875515 0.15643838 0.13092583 0.09671202
0.04896208 0.099443264 -0.12374464 0.03366352 0.11080367 0.056403697 -0.06710644 -0.30140954
-0.039890114 0.007206046 -0.008888268 0.09870874 -0.33202076 -0.080852255 -0.056834154 -0.13154063
-0.09635246 -0.17673346 -0.13364977 -0.20933937 -0.14497007 -0.21060155 0.08038311 -0.062003035
-0.0333431 0.03713763 -0.0063032922 -0.017123383 0.07594309 0.0920969 0.0698892 0.028510181
-0.0018844297 -0.035854418 0.0025091325 -0.029922154 -0.08892048 0.05052519 0.116267055 0.08845239
0.0010152429 0.019598817 -0.03415718 0.12464544 0.13043895 0.11555672 0.09943248 0.031587325
-0.023168935 0.020061504 -0.0032795432 -0.016860789 0.10197006 0.008311686 -0.026735717 0.0519818
0.051140487 0.074117854 0.15713447 0.1051254 0.14686655 0.12027061 0.10912758 0.16012292
0.19161387 0.17091265 -0.08414761 -0.011681737 -0.11628516 -0.04978716 -0.16972087 -0.20747472
-0.0011543209 -0.10616134 -0.074286416 0.016830027 0.10813872 0.029255312 0.03653381 0.025048165
-0.02004778 0.048254784 -0.039572403 0.078162305 0.035711776 -0.014856016 0.11416303 -0.02229949
0.1532568 0.12794465 0.2014815 0.08610559 -0.0021493228 -0.07763755 0.05664457 -0.13558093
-0.19262478 0.031433832 0.01208646 0.028478248 0.052114148 0.05479953 -0.001468729 0.057014808
0.05145211 0.050897766 0.06395892 -0.031559702 -0.023798853 0.011970695 -0.044970386 -0.021696234
0.027850516 0.03738861 0.052519925 0.041696135 -0.016678404 0.04489467 -0.013362573 -0.014872054
0.016702909 -0.021132162 -0.051285744 -0.03765151 -0.045340072 -0.034998782 0.038464542 -0.0085280305
-0.008279303 0.10523758 0.055317633 0.091330305 -0.018795256 -0.073002785 0.1048342 0.12174344
-0.012818075 -0.30697703 -0.22037594 -0.2003993 -0.21244566 -0.15308584 -0.10024345 -0.12987179
-0.00056548987 0.0740124 0.04770173 0.17961924 0.05598533 0.001998108 -0.03638494 -0.06084578
-0.06466274 -0.017862992 0.007778527 -0.03123194 -0.034174763 -0.03604805 0.02838947 0.051332086
0.03433649 0.029178059 0.027240371 0.056751743 0.0993846 0.010312161 0.019557016 -0.043368615
0.039053373 0.009914944 -0.05897598 -0.06863932 -0.10453665 -0.11388129 -0.07591491 0.0031211046
-0.0531929 0.011970164 0.07387645 0.038433414 0.07308355 0.02648747 -0.045535576 -0.032645237
-0.031591825 0.015208887 -0.018241042 -0.00082059455 -0.114044905 -0.07146731 -0.25462428 -0.28130877
-0.13535902 -0.116560504 -0.2474192 -0.27439106 -0.1791083 0.006786026 0.020253662 -0.09039236
-0.1444417 -0.09396836 0.017243704 0.10470175 0.074505076 0.06152791 0.07688792 -0.1597076

conv2.bias f4 [20]
00000000: 9d96 03bd 349d ac3c 7f81 3dbc 0c9b 0c3c
00000010: ee88 4ebd 9f19 e53c 2c58 07bd e393 5d3c
00000020: 3210 96bd b87e 99bd d340 8abd 33af 0c3c
00000030: 27d5 7bbc 6bd4 3e3c 5126 b8bc 9267 263d
00000040: 8249 5fbd 7fa9 c0bb 543f 80bd 5d7b 07bd
-0.032126058 0.021071054 -0.011566519 0.008581888 -0.050423555 0.027966319 -0.03304307 0.0135240285
-0.07327308 -0.07494873 -0.067506455 0.008586693 -0.015370644 0.011647324 -0.022479208 0.040626116
-0.054513462 -0.0058795805 -0.06262079 -0.033076633

fc1.weight f4 [50, 320]
00000000: 4fe4 a0bd 981a 7d3b f300 6b3d bc5b bbbd
00000010: 2c58 42bd e2ca 60bd d8de a3bc 2cf0 d43c
00000020: 4ddc c93d d11f 1f3d e3a2 28bc cdc1 0a3d
00000030: 41c8 cc3d f2b7 9f3d 3684 15bc 2b48 4ebe
00000040: 6bcb a13c 29b7 92bc ce71 7b3c b876 cbbc
00000050: 06ad 25be 9067 6b3d 4522 8cbb bc9f 12be
00000060: a37b f63c 697a 30bd 7d69 fbbd 45a4 f2bd
00000070: cfc9 1c3d 1056 a13d e79d c23d 55ec febd
00000080: f2b8 0dbd 8ad7 70bc ed5c 08be 7589 dcbb
00000090: 6b39 363d 2461 acbd 6d0b 413c 3f76 e33d
000000a0: b601 cabd 6054 e1ba fe5c 9c3c 35cd 82bd
000000b0: e0a4 9bbc 94d2 fabc 06dc 3e3c 20f0 a83d
000000c0: 109f abbc 6b28 803b 1671 a7bd fdd6 bdbb
000000d0: a260 acbc 08d2 3b3c b53e 3abb df25 853d
000000e0: 4517 0dbd 6209 01be 441d 7ebd db00 b03d
000000f0: 88cb 28bc fc02 463d e328 d93d c56e 2dbd
00000100: e6ff a83b 6a35 3bbc 7762 9ebd d891 37be
00000110: cc58 c9bc 363f cbbc f061 4bbd 1ce8 c43c
00000120: 7073 953d 79e2 3f3c 6e0b d5bc ea67 f73d
00000130: ddc8 a13d bb96 7d3d 11fb a1bd 97da a9bd
00000140: 9701 dcbd 975e 1fbe d6b5 6abd 7d4a c0bd
00000150: aa4d 4cbd 846e 653c 9b54 4abc d058 21bd
00000160: 7638 173e b6e5 553e d313 8a3d d041 6abd
00000170: ce0f 88bd 0107 a3bd c371 68bd 478b 843d
00000180: d0ab 723c 2dfe 413d 88e4 61ba a6d2 7abe
00000190: e9ff b33c d1a0 473d 5ea0 883c bb53 10be
000001a0: abb5 55bd 38d2 a8bd 14df 7d3c 4994 23bd
000001b0: f793 9dbb 5231 9f3b f846 e1bc 0682 43bd
000001c0: 9bba adbd 6be3 09bc d6d0 843d fd1f 143e
000001d0: ba1d b6bc 36be 8c3c 4142 ce3d 41d2 3e3d
000001e0: e95e 143d d618 133e 8292 463d 493f 31bc
000001f0: 5029 0a3d 24a9 a9bd c81c 30bd b12e a7bd
00000200: 6a7d 37bd 1856 4ebd 8401 22bd 4a20 923d
00000210: 5ede 40bd f255 ccbb 078a c7bc caab cabd
00000220: 3293 923c e399 babd b7a7 763c 04e8 873c
00000230: 8b6a f6bc 1a01 3b3d b525 df3c f9d1 6c3d
00000240: afbe 143d daee 133a 53cd 2fbe d5cf f0bd
00000250: d588 6ebd 2049 26bd d936 19bd 54bf b6bd
00000260: e995 c93c d0ca 10be 5946 51be d819 a73d
00000270: 2606 f03d 4515 de3d 7b05 06bd e237 80ba
00000280: 79a5 5dbd 54d6 6c3d c866 6739 103c f039
00000290: 4a47 44bd 7a38 12bc 63ab 543c de24 253d
000002a0: d289 a33b f272 2a3e 8bd6 0ebd ccf0 d2bd
000002b0: 5233 99bc 53b6 903d ebd8 29bd 652c a5bd
000002c0: 6bfc 26bd 31c0 93bd 5f03 4ebd 478f 8abd
000002d0: 7d90 12be 4818 2e3c 815e 9bbd def6 89bd
000002e0: 6bb8 d43d 393c 823d 3675 12bd 2279 9cbc
000002f0: 88ec 333d a0e5 183c 28e9 ed3d 8b96 4b3d
00000300: 5596 83bd 2038 88be 73f2 a9bc a1a4 5b3d
00000310: 523a d0bb fb6a 76be 99d6 3bbd 01a5 2cbd
00000320: 05a6 a6bc 97f3 91bd 5cd1 09bd 5b68 ec3c
00000330: 9931 0abe a87b bebd f06a d33d 4e5a c93d
00000340: 4385 35bd 3ccb 5a3b 38df 883d cccc dfbc
00000350: 6279 c2bd 6e86 a9bd 1cb1 2bbd eb76 ab3d
00000360: 65f0 913c 7455 0bbe fafc e6bd 8734 4dbe
00000370: e247 163e c6c6 163d 2197 09be 17d7 47be
00000380: eefc 093d 9bb5 8bbc 970f 0dbe af1b 20be
00000390: 62ea 213e 5dcb 883d d120 4fbe 2bf8 d53c
000003a0: 5c82 833d dd34 e7bb 31b0 b6bd eba2 86bb
000003b0: 7c7f a33b 1828 46be b5ca 42be 3c04 e5b9
000003c0: 8291 dfbd d030 e8bd f452 35bd bdfd bfbd
000003d0: 1f74 743d eae4 d9bc 23d5 aa3d 52a5 ea3a
000003e0: 84bf 80bd 5fec b63d a3ff 04bd 3610 afbd
000003f0: ebef 22bd 3de2 64bd 1be3 4f3a 31c9 043e
-0.078560464 0.0038620587 0.057373952 -0.09148356 -0.04744737 -0.054880984 -0.020003721 0.02599343
0.09856472 0.038848702 -0.0102927415 0.03387623 0.09999133 0.07798757 -0.00912576 -0.20144717
0.019750318 -0.017909603 0.015346957 -0.024836883 -0.16179284 0.05747181 -0.004276546 -0.14318746
0.030088251 -0.04308549 -0.1227598 -0.11847738 0.038278397 0.07877743 0.09502774 -0.124474205
-0.034600206 -0.014699826 -0.13316698 -0.0067302533 0.04448835 -0.084169656 0.011782509 0.11106538
-0.098636076 -0.0017191283 0.01908731 -0.063867964 -0.018999517 -0.03061799 0.011649137 0.08248925
-0.02094987 0.003911068 -0.08175866 -0.005793451 -0.021042172 0.01146365 -0.0028418724 0.06501364
-0.03444602 -0.12601236 -0.06203963 0.08593913 -0.010302432 0.04834269 0.10603502 -0.042341966
0.0051574586 -0.011426309 -0.077336244 -0.17926729 -0.024578474 -0.024810415 -0.049653947 0.02403646
0.072974086 0.01171171 -0.026006427 0.12080367 0.0789964 0.061911326 -0.07909215 -0.08293646
-0.10742491 -0.15563427 -0.05730232 -0.093892075 -0.049878754 0.0140034 -0.012349273 -0.03939134
0.14767632 0.20888409 0.067420624 -0.05719167 -0.066436395 -0.0796032 -0.056749117 0.064718775
0.014811471 0.04736154 -0.00086171227 -0.24494419 0.021972613 0.04873735 0.016678032 -0.1409444
-0.052175205 -0.08243221 0.0154950805 -0.039936338 -0.0048088985 0.0048581744 -0.02749966 -0.047731422
-0.08482858 -0.008416037 0.06485145 0.14465328 -0.022230972 0.017180543 0.10071231 0.046587233
0.036223326 0.14364943 0.048479564 -0.010818311 0.033730805 -0.08284214 -0.042996198 -0.081632026
-0.04479734 -0.050375074 -0.039552227 0.07135065 -0.047087066 -0.0062358314 -0.024357809 -0.098960474
0.017892454 -0.09111383 0.015054635 0.016590126 -0.0300801 0.045655347 0.02723966 0.057817433
0.036314663 0.00056431966 -0.17168169 -0.11758391 -0.058235962 -0.04059708 -0.037405822 -0.08923212
0.024607616 -0.14139867 -0.20436992 0.08159226 0.11719923 0.108439006 -0.03272007 -0.0009782279
-0.054112885 0.057821587 0.00022068166 0.00045821117 -0.04791955 -0.008924598 0.012980315 0.040318362
0.0049907947 0.1664541 -0.034872573 -0.102998346 -0.01870123 0.070660256 -0.041466635 -0.08065108
-0.04076807 -0.07214392 -0.050296184 -0.06765609 -0.1431293 0.010625906 -0.075863846 -0.06736539
0.103867374 0.06359143 -0.035756312 -0.01910073 0.043926746 0.009332091 0.11616737 0.049704116
-0.06425158 -0.2660532 -0.020745492 0.0536238 -0.0063546086 -0.24064247 -0.045858953 -0.042149547
-0.020342836 -0.07126539 -0.033646926 0.028858354 -0.13495483 -0.09300929 0.10323131 0.098316774
-0.04431654 0.0033385297 0.066832006 -0.027319334 -0.09495808 -0.082775936 -0.04191695 0.08372291
0.017814824 -0.13606817 -0.1127872 -0.20039569 0.14675859 0.03681066 -0.13436557 -0.19515644
0.03368848 -0.01705437 -0.13775478 -0.1563556 0.15812066 0.066794135 -0.20227362 0.026119312
0.064213485 -0.0070558623 -0.089203246 -0.004108777 0.0049895626 -0.19351232 -0.19022639 -0.0004368144
-0.10916425 -0.11337435 -0.044268563 -0.093745686 0.059681054 -0.026598413 0.08341434 0.0017902052
-0.06286529 0.08931803 -0.032470357 -0.08548014 -0.039779585 -0.05587982 0.00079302647 0.12967373

fc1.bias f4 [50]
00000000: 9d39 6e3d 0b0a 583b 2159 3d3e fe33 6fbc
00000010: 1305 6b3d 7ce5 f13c 03bf e73d 85a6 ba3d
00000020: c87a dc3c bef0 833c ecbd d03d 913d 0a3e
00000030: c6eb 013e 378a 053e d282 6d3d fba6 cd3d
00000040: 41e4 fe3c f71f 3ebd 39b9 a23d a74f 13bb
00000050: b049 a53d 8016 813d cb74 6f3d 3ad1 883d
00000060: 5ed1 fb3c 4faa 613d b5ac bd3c 9b99 113e
00000070: cbff eb3d d2de 463d 1831 f93b 0a8c 013e
00000080: cf67 1a3e e15e 8f3c 4cd4 fa3d 4c15 403d
00000090: 03ed 053d eab7 89bd b284 283e 820c 053e
000000a0: 1c3c 923d 0b12 9e3c 41a4 5b3c 9117 2a3e
000000b0: 2015 873d 2a17 c03d a70e 013e d447 953d
000000c0: 95cc 063e 88fe ad3c
0.058160413 0.003296497 0.18491031 -0.014599798 0.057377886 0.029528372 0.113157295 0.09113792
0.026914015 0.016106006 0.10192475 0.13500048 0.12687597 0.13041006 0.057986088 0.100416146
0.0311147 -0.046417203 0.07945485 -0.0022477896 0.080706954 0.0630312 0.05846099 0.06680532
0.030739482 0.05509406 0.023153642 0.14218752 0.11523398 0.04855234 0.0076047294 0.12651077
0.15078662 0.017501296 0.12247524 0.04689531 0.032696735 -0.06724532 0.16456869 0.12993053
0.07140371 0.019295713 0.01340586 0.16610552 0.06595826 0.09379418 0.12603246 0.07289091
0.1316398 0.021239534

fc2.weight f4 [10, 50]
00000000: 004d 86be a18c 61be a5aa 87be 8e02 b6bd
00000010: 8da1 f63d 2041 13be 5d82 9ebe 8900 39be
00000020: bdeb 40be 25e3 113e 3024 a53c 0483 31be
00000030: 536d 74be cb1d fb3d ef82 d8bd 6077 34be
00000040: 0ec6 ac3d a0ec 79be 6608 3abe e5a7 96bd
00000050: ef7a f4bd e6de 443e 98fe 013e 1d73 59be
00000060: 3703 173e c7bd 3abd 0297 dd3d 809d 4abe
00000070: 9553 413d 2c1e db3d af0f 5cbe d7df c13d
00000080: 02d7 36bd 2b69 df3d 530f 67be a4d9 53be
00000090: 999c 2f3e 05f6 45be 124a 2ebe d89c de3d
000000a0: 9fbf c73d d091 8b3c 5c97 e3bd 3052 a93d
000000b0: feb4 a2be eb5d 00be 622e 9cbd 12fd c4bc
000000c0: 957f c23d c044 a8be e091 3fbe 51d1 8cbd
000000d0: c950 253e deb4 b0bc 2a73 14be 05b7 083d
000000e0: 3945 b83d 469e d43d 43e1 78bd 8f5e 69be
000000f0: 69ca 893b 6393 3a3e 23cd c13d 26b5 983d
00000100: 12a8 22be ee94 9d3d 28b2 9dbe 1cbf 3abe
00000110: 4f6f 003e f221 1cbe 3471 42be 7f33 61be
00000120: a807 30be f462 833d 7610 36be 5bb2 663e
00000130: 565e 9fbe 919b fc3d 3557 8fbe 0745 2fbe
00000140: 6fff 31be 9109 dfbd b765 353e 89da a3bc
00000150: ec60 f43d 0d5e 423d becd 70be d864 82be
00000160: a983 1a3e 34b7 cf3d 498d 813d 16fa 2ebe
00000170: 9e7c 47be 9fa7 af3d e078 1bbe 1e10 d33d
00000180: 1a50 573e 8c72 7abd 4d46 90be 11f9 27be
00000190: d297 8fbe 6f8a b53d ea9f 65be 12e1 ce3d
000001a0: 2b07 f33d d1d5 88be 20ed 25be 7945 37be
000001b0: b55a 16be 547a b03d e28f e73c ab9a f83d
000001c0: 1850 89bd 4b3b f3bd b3e6 c1bb 5cca c33d
000001d0: 79bb b7bd f4c4 883c 0938 d53d 1e4e 0e3c
000001e0: 5794 10be 98d8 56bd 9474 473d 6113 903d
000001f0: 1243 bc3d 3583 30bd 97f8 25be c1cb 8abe
00000200: 7c48 8fbe 2fbb b0bd 926b e43c 7fa8 54be
00000210: e544 083e ce27 c23d d7a4 103e a46b 7f3d
00000220: 8548 4c3d 3353 943d 6646 123e 7f79 f13d
00000230: b309 403d 5056 e7bd 894f 343e ce93 fbbd
00000240: 5e0a 64be 2eec 6cbe 297a 4ebd b60a 483e
00000250: 9ddb c7bd 9a2b 1fbe ab2c 1e3d a58c b93d
00000260: eb41 8cbe 9cbb 9f3d 9b75 a63d 52d1 5cbe
00000270: 93fa f83d af8d 8bbd 7151 273e 8346 e7bd
00000280: 9253 e93c ccdd 833c e8d8 eb3d b6c9 44be
00000290: 6d45 44be a2ee c03d 6ec5 3bbe fd7f 6c3d
000002a0: 597f 18bd be12 0abe a61e 5dbd 87a4 c3bd
000002b0: 1eaa 033e 5329 b33d 44a3 603d ace5 cebd
000002c0: 862f 4abe afb7 d8bd a940 04bd ce22 e43d
000002d0: 6e17 413d 9e0f a53d 34d6 33be 7443 a83d
000002e0: 67f3 2abe 7dfe 123c 098d 07be 6677 94bd
000002f0: 7a52 c43c e768 13be a5c6 af3d 0bd1 08be
00000300: c767 bbbd d988 59be 8476 5d3c 9454 1d3e
00000310: 422a 61be 1b05 59bd c18d 41be 7863 203d
00000320: ec3d 93bd 5965 80be 188a 443e 576f ae3d
00000330: 1c13 23be 12e1 29bc 3431 cf3d 139f 2c3e
00000340: 73a2 37be 3e0b c33d 7e5b 78be 7d2c e3bd
00000350: 0db8 0f3d 7526 5fbe e826 093e 23a3 01be
00000360: 6381 63bd c08d 863d c37d c13b 4be3 76bd
00000370: 8aef efbd adb9 cb3d d541 7ebe 3468 38be
00000380: 1f92 50bc e6de aa3d 383d 8f3c bbc4 043e
00000390: d571 663d 461a 71be 340a 453d 9ac2 57be
000003a0: 74ae 3f3e f184 2bbd 0b01 0abe 7670 39be
000003b0: c650 1fbe c2b8 6a3d c00b e2bd 06cf 2bbe
000003c0: 4b13 62be 5be9 dcbd 87f2 4e3e e491 873d
000003d0: 052c bb3d 04ee 6bbd 8caf 793e e5e8 0cbd
000003e0: de5c 4d3d cf80 c23d 6533 ec3c 9758 923d
000003f0: cb1d 31be 6f0e 82be f2a2 12be ae04 d73d
-0.2623062 -0.22026302 -0.2649738 -0.08887206 0.12042532 -0.14380312 -0.30958834 -0.1806661
-0.18839927 0.14246805 0.020158857 -0.17335135 -0.23869829 0.12261542 -0.105718486 -0.17623663
0.084362134 -0.24406672 -0.18167266 -0.07356242 -0.1193751 0.19225654 0.12694776 -0.21235318
0.1474732 -0.045591142 0.10819818 -0.19786644 0.04719885 0.10699114 -0.21490358 0.09466522
-0.04463864 0.10908731 -0.2256444 -0.20688492 0.17149581 -0.1933213 -0.17020443 0.10869759
0.09753346 0.017037302 -0.11112854 0.08267629 -0.3177871 -0.12535827 -0.07626034 -0.024046455
0.094969906 -0.32864952 -0.1870799 -0.068758614 0.16144098 -0.02157062 -0.14497057 0.033377666
0.08997578 0.10381751 -0.0607617 -0.22789977 0.0042050374 0.18220286 0.09462955 0.07456426
-0.15884426 0.07694422 -0.30799985 -0.18236965 0.12542461 -0.15247324 -0.18988496 -0.219923
-0.1719042 0.06415358 -0.17779717 0.22528975 -0.3112666 0.123343594 -0.2799622 -0.17116176
-0.17382596 -0.108904965 0.17714582 -0.020001667 0.11932549 0.047452975 -0.23515984 -0.25467563
0.15089287 0.10142365 0.06325776 -0.17087588 -0.19481131 0.08576893 -0.15182829 0.103058085
0.2102665 -0.061144397 -0.28178635 -0.16403605 -0.28045517 0.08864295 -0.22424284 0.101015225
0.118666016 -0.2672563 -0.16203737 -0.17897595 -0.1468304 0.08617082 0.02826685 0.121388756
-0.0670473 -0.118765436 -0.005917394 0.09560081 -0.089713044 0.016695477 0.104110785 0.008685617
-0.14119087 -0.052452654 0.048695162 0.07034946 0.0919248 -0.04309388 -0.16208111 -0.27108577
-0.2798499 -0.086294524 0.027883325 -0.20767401 0.13307531 0.094802484 0.14125381 0.062358513
0.049873848 0.072424315 0.14284667 0.11790752 0.04688425 -0.1129576 0.17608465 -0.12284051
-0.2226958 -0.2313697 -0.05040947 0.19535336 -0.09758685 -0.15543976 0.038616817 0.09060029
-0.2739404 0.077994555 0.081279 -0.21564224 0.12157168 -0.068141334 0.16339661 -0.11292746
0.028482232 0.016096972 0.11515981 -0.19217572 -0.19167109 0.094205156 -0.18337032 0.057739247
-0.037230823 -0.13483712 -0.053984307 -0.095528655 0.12857863 0.08748116 0.054843202 -0.101024
-0.19744691 -0.1058191 -0.032288227 0.11139451 0.047141485 0.08059619 -0.17562181 0.08215991
-0.16694413 0.008971808 -0.13237394 -0.07249336 0.02396511 -0.14395486 0.0858281 -0.13360994
-0.09150653 -0.2124361 0.013517026 0.15364295 -0.21988776 -0.052983385 -0.18901731 0.03915736
-0.07189545 -0.25077322 0.19193304 0.0851733 -0.15925258 -0.010368602 0.101168066 0.16857557
-0.17933063 0.09523629 -0.24253651 -0.1109247 0.035087634 -0.21792014 0.13393748 -0.12659888
-0.055543315 0.065700054 0.0059048845 -0.060275357 -0.1171561 0.09947524 -0.248298 -0.180085
-0.0127301505 0.08343296 0.017485246 0.12965672 0.056260902 -0.23545179 0.048105434 -0.21070328
0.18718892 -0.04187483 -0.1347696 -0.18109307 -0.15558156 0.057305105 -0.110373974 -0.16778192
-0.22077672 -0.107866965 0.20209704 0.06619623 0.091392554 -0.057600036 0.24383372 -0.034401793
0.050137393 0.094972245 0.0288331 0.071458034 -0.17296521 -0.25401637 -0.14319971 0.104989395

fc2.bias f4 [10]
00000000: 8296 2a3e 7adf 053e 098c 11bd ede4 1abe
00000010: 3807 5e3d 9fa7 06be 4b03 9d3d 6af8 f6bd
00000020: d454 b63d 8684 043e
0.16658977 0.13073531 -0.03553394 -0.15126391 0.054206103 -0.1314988 0.07666644 -0.120591
0.089028984 0.12941179

exp_avg f4 [10, 1, 5, 5]
00000000: 88a2 57bb 40b9 2939 1c5a f73a 4e34 5e3b
00000010: d958 27bb bc58 583a 8ae4 9a3b 7c02 ab3b
00000020: cca6 963a 6cda a8bb f03c 5238 ae35 d43b
00000030: 3e0f 083c ca40 a43b 06a2 daba ba2c 8f3b
00000040: 62c9 413c 8cd5 243c 5934 ae3b 3c53 ca3a
00000050: eb6d 9d3b 305e 9d3b 4e76 983b b38d 303b
00000060: 4435 edba 926f 1dbc 7a94 0bbc 8e9b 16bc
00000070: a038 39bc c1d2 34bc a5f9 dcbb 5621 b1bb
00000080: 94aa 10bc 0b1a 02bc 12b2 45bb 908d 1abb
00000090: a099 dbb9 fbed f9ba 37ec 2eba 4941 b63b
000000a0: 7c26 5cbb 8b92 e5ba 04e4 083b 0098 7db9
000000b0: b0cc 343b 8e66 18bc a55c 40bb 6828 f0b9
000000c0: 302a 34ba 1407 a5ba e4fa a03b fd1f 7a3b
000000d0: f479 343a 6858 91bb 64e7 2dbc 991f f23b
000000e0: 7e90 ad3b cee5 533b 1bbb adbb 7cdd 5ebc
000000f0: 6b0e 3c3c 2778 073c 844c b43b cba1 e2bb
00000100: e9a0 44bc b219 5f3c 442e 2c3c 6aaa bf3b
00000110: 1084 a3bb dc4a 39bc d01a 5e3c e052 413c
00000120: 0a37 fa3b 147b 15bb 12d3 6ebb 5a96 aebb
00000130: 2298 2fbb 834c 833a c228 c53a 6f17 5abb
00000140: ca48 b6bb 7cfa 8fba b02d a33a d243 8aba
00000150: 9fb7 e8bb eb64 a0bb 3dc0 78ba 1e49 69ba
00000160: 3d5e e0bb 91ad 20bc fe01 88bb f2e8 1cbb
00000170: a29e 85bb 1585 1dbc fea3 1abc f618 17bb
00000180: f813 f4ba ab58 89bb 663d 16bc 829c ebbb
00000190: a622 aabb 0d8a db3b 7c04 103c 7520 873c
000001a0: 221c 843c dc06 4d3b d5c6 033c 3649 e43b
000001b0: 1a77 683c 7ee3 0e3c 8084 fc3a 56c9 a2ba
000001c0: 9279 56b9 6ea8 693b 5aa8 67bb 0fd9 a0bb
000001d0: 47eb 1fbc cbed b9bb 0b8a 74bb baaa 2bbc
000001e0: 3156 10bc 0027 04bc f2dd 6ebb 727b cbbb
000001f0: 2172 0cbc 9268 6e3b d295 e93a f673 a1bb
00000200: 8b4c 71bb 5cb2 feb9 b408 6e3b a0e6 8aba
00000210: d978 93bb 88ab e039 203f 493a 9c56 d8bb
00000220: 27ae f9bb 6634 e5bb 0d89 0cbb 1fa8 d9ba
00000230: c3aa 46bc 3082 4ebc 3256 cabb 746f 00b9
00000240: 136f 6abb a43a 68bc 3eca 23bc c855 1dba
00000250: 3f5e c33a 8ec4 7bbb 537f 9fbb 6d1a a8bb
00000260: 9d6f a9bb 9d47 8fbb 988c d6ba a557 c8bb
00000270: d6e5 cbbb 2e93 abbb 6adf 35bb 2576 c1ba
00000280: b956 c0bb b642 b9bb 831e adbb 5851 2fb9
00000290: f4b5 61ba 0066 d4bb ed25 a2bb eabf 31bb
000002a0: 7c5d 83ba 5c6c b2bb 069e bdbb f838 71bb
000002b0: de6a 70bb fa6d 9cbb b011 14bc 782a 933b
000002c0: b256 313b 1b97 49bb a186 0cbc 2577 46bb
000002d0: 513e 4e3b 91e1 e53a c5ee 3fbb 4439 2ebc
000002e0: 1e22 7bba c45b de3a 724a c0ba c73c 33bb
000002f0: be3c 8abb 6d61 393b f8bd 3fb9 8db3 6cbb
00000300: 83bd 58bb 0e38 85bb 9bc0 813b f6c6 09bb
00000310: d009 4939 5792 80bb 0c92 a9bb 7a44 3e3b
00000320: 7e87 0dbc 9403 bfbb 1228 d2bb ca99 d4bb
00000330: e4d5 e6bb 8c89 0ebc c16b dbbb ba08 e0bb
00000340: d15b f3bb 5a12 ffbb 6698 ecbb a2fa c1bb
00000350: 4186 88bb 82f4 b3bb ce1f c6bb 9efe e3bb
00000360: c17f 04bc 277a b0bb 58b2 c6bb 0e83 0cbc
00000370: 8881 00bc 2825 17bc 2f6f e6bb 98b9 04bc
00000380: 2c01 15bc 1b69 12bb f7ce 64bc d66a 17bc
00000390: d51a 11ba c0e7 013c f4eb 19bc 447d 93bc
000003a0: 986b bebb 4896 143c 5bfd 7e3c c14a 15bc
000003b0: 359e 15bc e707 0e3c 3845 973c 2ab2 bf3c
000003c0: 001c 69bb ec8f 0a3b a631 9b3c cc64 bc3c
000003d0: b09c b83c 986c 4bba 267a cd3b 2728 ab3c
000003e0: 162d a33c 82e9 983c
-0.0032903273 0.00016186107 0.0018871459 0.0033905688 -0.0025535135 0.00082529685 0.004726951 0.005218802
0.0011493801 -0.005152991 5.0124654e-05 0.0064761257 0.008304415 0.0050126063 -0.0016680367 0.0043693455
0.011827799 0.010060679 0.005316299 0.0015436183 0.004804363 0.004802488 0.004652775 0.0026939928
-0.001809754 -0.00960912 -0.008519286 -0.009192361 -0.011305004 -0.011036576 -0.006743627 -0.0054055853
-0.0088297315 -0.007940779 -0.0030165953 -0.0023582913 -0.00041885395 -0.0019068116 -0.0006672772 0.005561982
-0.0033592274 -0.0017514987 0.002088786 -0.00024184585 0.0027587824 -0.009301795 -0.0029352095 -0.00045806472
-0.00068727415 -0.001259061 0.004912721 0.003816604 0.00068846275 -0.0044355877 -0.01061425 0.0073890206
0.005296766 0.003233302 -0.0053018457 -0.013602611 0.011478047 0.008268393 0.0055022854 -0.00691626
-0.012001255 0.013616966 0.010509077 0.0058491724 -0.0049901083 -0.011309352 0.013556197 0.011799544
0.0076359557 -0.0022808956 -0.0036441726 -0.005327982 -0.002679356 0.0010017309 0.0015042054 -0.0033278128
-0.0055628764 -0.0010984684 0.0012449529 -0.0010548776 -0.0071019675 -0.004894843 -0.0009489095 -0.000889914
-0.0068471716 -0.009807006 -0.004150628 -0.0023942557 -0.0040777484 -0.009614249 -0.009438513 -0.002305565
-0.0018621674 -0.0041914782 -0.009169912 -0.007190288 -0.0051921187 0.0066998065 0.008790132 0.016494969
0.016126696 0.0031284606 0.008043011 0.0069667352 0.014188552 0.008721231 0.0019265562 -0.0012419622
-0.00020453919 0.003565337 -0.0035348148 -0.004908688 -0.009760684 -0.005674099 -0.0037313725 -0.010477716
-0.008809612 -0.008065939 -0.0036448208 -0.006209784 -0.008572132 0.0036378247 0.0017821139 -0.0049271537
-0.0036819305 -0.00048579543 0.0036321105 -0.0010597296 -0.00450049 0.0004285241 0.0007676948 -0.0066021215
-0.0076196375 -0.006994772 -0.0021443993 -0.001660589 -0.012125674 -0.012604281 -0.006174826 -0.00012248551
-0.0035771772 -0.014174137 -0.009996949 -0.0006001857 0.0014905407 -0.0038416716 -0.004867473 -0.0051301033
-0.005170776 -0.0043725506 -0.0016368804 -0.0061139637 -0.006222467 -0.005236051 -0.0027751573 -0.0014759941
-0.005869713 -0.0056537045 -0.0052831783 -0.00016719603 -0.0008610182 -0.006481886 -0.0049483688 -0.0027122446
-0.0010022367 -0.0054450464 -0.00578666 -0.0036807638 -0.0036684792 -0.0047738524 -0.00903742 0.0044911467
0.002705973 -0.0030760232 -0.00857702 -0.0030283418 0.003147025 0.0017538538 -0.0029286605 -0.01063377
-0.0009579974 0.0016964604 -0.0014670624 -0.0027349459 -0.004218667 0.002828683 -0.00018285948 -0.0036117763
-0.0033071942 -0.00406552 0.003959728 -0.002102313 0.00019172509 -0.003923695 -0.005174881 0.0029032514
-0.008638261 -0.005829284 -0.006413468 -0.0064880596 -0.0070445407 -0.008699786 -0.006696195 -0.006836978
-0.007426717 -0.00778417 -0.0072203157 -0.0059197703 -0.004166395 -0.005491794 -0.006046272 -0.006957843
-0.0080870995 -0.0053856554 -0.0060637407 -0.008576168 -0.007843383 -0.009225167 -0.007032297 -0.00810089
-0.009094518 -0.002234048 -0.01396536 -0.00924178 -0.00055353093 0.007928789 -0.0093946345 -0.018004067
-0.005811166 0.009069033 0.015563334 -0.009112061 -0.009131958 0.008668876 0.018465623 0.023400385
-0.0035569668 0.0021142913 0.018944573 0.022997282 0.022535652 -0.0007760017 0.0062706647 0.02089317
0.01991896 0.018666033

exp_avg_sq f4 [10, 1, 5, 5]
00000000: 0601 0d3a 215e 0d3a 78a3 1e3a 0868 1b3a
00000010: 4a0e 1b3a 577f 033a e30a 013a 8dd1 f439
00000020: 8d30 d339 ce02 f539 8e5a ff39 ca20 fc39
00000030: 2150 013a 8c05 d139 9714 d739 4629 fc39
00000040: 8dae f239 085d e239 f4fa e039 fd7f f539
00000050: e209 093a 8fee fd39 49a5 f939 78b8 fc39
00000060: 0d77 f839 23c7 463a 6033 373a f860 333a
00000070: 12c4 1c3a 7146 133a 9ecb 3f3a 4b3c 273a
00000080: 9bd2 1a3a 1b65 063a 5286 0b3a b133 343a
00000090: ae4a 153a f1cf e439 9559 f139 5c59 103a
000000a0: ff9f 183a 564f ee39 57af c039 6ab3 f339
000000b0: 4137 073a c49d 0b3a 22db ef39 c1f3 d639
000000c0: 2471 d539 590a e839 00b5 393a ce72 223a
000000d0: 2f9f f539 88c2 c439 9aef b839 71cf 423a
000000e0: 7d79 293a 7b6b f439 bc48 a839 95c5 b739
000000f0: 32da 3e3a 012d 273a 30f2 e839 991c 9939
00000100: 62f9 c339 f3e9 2c3a 0b7d 143a 663c b639
00000110: 3271 b439 782f d339 74de 1a3a f7ea f839
00000120: e650 be39 25fa df39 b3a3 bf39 e9ba 7e39
00000130: 7352 6f39 59df 6139 2ed1 7539 b512 8839
00000140: 09ff 8339 ebb7 6a39 4c7d 6939 2646 8239
00000150: a04e 8739 8739 8039 e52d 6439 e03d 7439
00000160: c742 8039 1941 8339 b8ec 7939 4d14 6439
00000170: 02af 5839 2883 6439 e605 8039 eeac 8039
00000180: 3f2c 6339 c542 4e39 e70e 6639 9807 8339
00000190: 4de4 823a 1857 8c3a a5ef 943a 18ca 9e3a
000001a0: a10b 9b3a 566a 8e3a 4634 9b3a 7de9 9c3a
000001b0: e13e 9d3a e3bd 953a f4fd 953a f802 8e3a
000001c0: 2938 793a ddae 783a 8492 833a 07f1 813a
000001d0: e630 643a ebf9 523a 8de0 523a f250 6d3a
000001e0: 000c 6a3a 24e8 583a 405d 553a c660 633a
000001f0: 5762 793a 0aeb 0b3a 6e7f 013a 7da5 ec39
00000200: 09ba f539 a3d4 0e3a 6f41 1f3a fc83 063a
00000210: 973b e939 fb59 063a b5af 173a c696 1a3a
00000220: 1836 0a3a 45c3 f039 4908 0a3a 6574 163a
00000230: 4439 213a db10 183a 9ecd 013a 3c91 0f3a
00000240: 7b91 1c3a 63ce 2f3a 1026 283a 64e9 103a
00000250: 5971 203a b59d 2c3a 6648 1e39 caea 1439
00000260: 7df5 1339 d9ac 1639 25af 1839 5958 1339
00000270: 818f 0939 498b 0b39 fda9 0c39 9541 1639
00000280: ff1d 0e39 c988 0839 3bed 0539 6daa 0839
00000290: 9b61 1a39 ff47 0c39 1ad8 0639 17a3 0439
000002a0: 762a 1439 3e23 2539 48ff 0d39 dbb1 1f39
000002b0: 5230 1a39 43c3 2239 c61c 2839 f3f3 9939
000002c0: 3bc5 9c39 31d6 9939 c23a 9b39 9a14 8239
000002d0: aabe 9639 57d2 9339 6137 7239 d094 6c39
000002e0: 3f10 6639 3493 9639 0e1f 8339 44c3 4139
000002f0: 3256 7539 c8f2 4a39 6304 8d39 91b1 6139
00000300: 8090 6639 2c6c 5f39 ce11 2d39 c526 7d39
00000310: baf8 8039 266d 8439 d880 6a39 3233 4439
00000320: 5dc8 9839 28b5 8439 0635 8839 3923 8e39
00000330: 19fc 9239 b9e8 8439 3775 7b39 1c06 8339
00000340: 1c4e 8239 6485 8639 ab20 7e39 405b 7c39
00000350: 3344 8039 72eb 7539 98a3 7739 ea0b 7d39
00000360: 8b6a 7639 a204 6d39 f0a4 6d39 2745 8039
00000370: d335 8839 00b1 7439 b9a4 6839 6799 7b39
00000380: b1fd a139 28c9 c639 2596 f239 798f e939
00000390: daef eb39 1dae 1e3a e641 e539 153d f839
000003a0: 3be8 cb39 a1cc 053a 9d9a 353a da01 ff39
000003b0: 1d82 de39 0d9a d239 a6b1 213a 4f60 4b3a
000003c0: a5e2 003a b442 e339 7a23 073a e6b1 3c3a
000003d0: 534c 5d3a b32c 013a 198f 0a3a e2f2 193a
000003e0: 400d 443a 2ded 603a
0.00053788756 0.00053927494 0.00060515804 0.00059282826 0.000591491 0.00050162285 0.0004922582 0.00046695434
0.0004028123 0.0004673213 0.0004870486 0.00048089615 0.00049328996 0.0003986772 0.00041023336 0.00048095937
0.00046287887 0.00043175393 0.00042911584 0.000468254 0.0005227608 0.0004843366 0.00047616128 0.00048202625
0.00047390946 0.0007582774 0.00069885515 0.00068427576 0.00059801445 0.00056181016 0.0007316413 0.0006379529
0.00059060164 0.000512676 0.00053224445 0.00068741577 0.0005695027 0.00043642477 0.00046033846 0.00055064796
0.0005822181 0.00045454007 0.00036751732 0.00046482246 0.0005158075 0.0005325938 0.000457489 0.00040998872
0.00040710822 0.00044258198 0.0007084161 0.0006196917 0.00046848643 0.0003752897 0.00035273732 0.0007431424
0.00064649415 0.00046619386 0.00032097648 0.0003505169 0.00072804384 0.00063772505 0.00044430932 0.0002920374
0.00037379103 0.00065961404 0.0005664385 0.00034758745 0.00034416612 0.00040280423 0.0005907782 0.00047477309
0.00036299898 0.00042720247 0.00036552324 0.00024292957 0.00022823531 0.00021540876 0.00023442946 0.0002595388
0.00025176283 0.00022384494 0.00022267288 0.00024847797 0.00025807787 0.00024456924 0.00021760871 0.00023292704
0.00024463815 0.0002503477 0.00023834675 0.00021751337 0.0002066456 0.00021792634 0.00024418457 0.00024542905
0.0002166489 0.00019670565 0.00021940061 0.00024991925 0.0009986252 0.0010707108 0.0011362924 0.0012114672
0.0011829027 0.0010865431 0.001184114 0.001197144 0.0011996889 0.0011424389 0.0011443482 0.0010834625
0.00095069647 0.0009486506 0.0010038172 0.0009913751 0.0008704796 0.0008048105 0.0008044325 0.00090528943
0.000892818 0.0008274338 0.00081392005 0.0008673783 0.000951325 0.0005337453 0.0004939948 0.00045136726
0.00046868648 0.00054485555 0.0006075119 0.00051313615 0.0004448562 0.00051251025 0.0005786375 0.0005897101
0.0005272343 0.00045921854 0.0005265517 0.000573939 0.0006150196 0.00058008515 0.0004951599 0.00054766587
0.0005972606 0.0006706474 0.0006414363 0.0005527942 0.0006120406 0.00065847795 0.00015095025 0.00014201846
0.00014110464 0.00014369506 0.00014561096 0.00014051925 0.00013118798 0.00013307961 0.00013414766 0.00014329546
0.0001355335 0.00013020927 0.00012772244 0.00013033459 0.00014722945 0.00013378261 0.0001285974 0.00012649257
0.00014130198 0.00015748755 0.00013541908 0.00015229678 0.00014704585 0.00015522265 0.00016032447 0.0002936419
0.00029901587 0.0002934202 0.00029607682 0.00024810882 0.00028752285 0.0002819474 0.00023099549 0.00022562151
0.00021940561 0.00028719904 0.00025009405 0.00018478656 0.00023397131 0.00019354664 0.00026896884 0.00021523821
0.0002198834 0.00021307234 0.00016505198 0.00024142403 0.00024599378 0.00025258324 0.00022363977 0.00018711088
0.00029140981 0.00025311974 0.00025979447 0.00027110594 0.00028035117 0.00025350394 0.00023980891 0.0002499082
0.00024853728 0.00025657855 0.00024235497 0.00024066586 0.00024464875 0.00023452731 0.00023616699 0.00024132399
0.00023500079 0.00022603807 0.00022663525 0.00024465585 0.00025980044 0.00023335591 0.00022186608 0.00023994372
0.00030897328 0.00037915376 0.00046269703 0.0004454812 0.00045001396 0.00060531666 0.00043727382 0.00047347756
0.00038892202 0.00051040394 0.0006927641 0.0004863877 0.00042440082 0.00040169098 0.0006168134 0.00077581865
0.0004916585 0.00043346512 0.0005155128 0.000719814 0.0008441854 0.000492762 0.00052856054 0.0005872679
0.0007478781 0.0008580264

exp_avg f4 [10]
00000000: ba34 2e3c 493e 803c 6930 56bc b4e1 333c
00000010: 820e 6c3c b3f6 773c 0633 b23b 29b1 dfba
00000020: ebbe 853b 7ad9 d9bc
0.010632688 0.0156547 -0.013073065 0.010979105 0.014407756 0.015134501 0.0054382114 -0.0017066348
0.004081597 -0.026592959

exp_avg_sq f4 [10]
00000000: 7746 4b3a 5dc1 7d3a c83b 563a 97da 9c39
00000010: 63bb 673a 68d8 6b3a 1c6d 1739 e4a4 a839
00000020: 197e 8d39 2fe2 8b3a
0.00077543355 0.00096799975 0.000817236 0.000299175 0.00088398735 0.00089967856 0.00014441129 0.0003216631
0.00026987566 0.0010672266

exp_avg f4 [20, 10, 5, 5]
00000000: 1426 a83b 9d4d 4c3b 5483 0dba f09c 383a
00000010: 0006 e937 2411 b63b 3ea8 893b 9280 fd3a
00000020: 4dd1 d03a 1afd c7ba 4435 50ba 7c05 96ba
00000030: 0051 68b7 8891 953a 33a8 b43a 42f0 ae3a
00000040: 2f02 4ebb 50bb a9bb d268 56bb c462 343a
00000050: 4782 7a3a f216 123b 4a88 eeba 41f1 bbbb
00000060: 3e26 aebb 1434 0c3b 3617 763b 8d5c 843b
00000070: 1eb3 943b ec73 7f3a eed9 c43a 4500 3a3b
00000080: 15d4 8c3b 265d 233b 1809 0ebb 44d5 bdba
00000090: b418 e0ba 721f 14bb 4919 0fbb cc50 41bb
000000a0: f226 9aba 8cd0 27bb 3664 9ebb deb8 ebbb
000000b0: e0d1 14bc d708 abba 0845 b93a 0f72 e33a
000000c0: 427d 7abb 2082 b0bb ac3e fb3a 5ac9 f63a
000000d0: 03b1 5f3b 598c 053b 03d5 1bba 3511 5e3b
000000e0: dedd 353b e141 0d3b e4d3 b1ba 8868 9fbb
000000f0: 96ef 923a cb23 253b 499b 043b 836c 99ba
00000100: a448 92bb 3242 2bbb 82ce 8dba 508a c3b8
00000110: dc3a 3e39 8925 0bba 20f5 daba dc5d bbb9
00000120: e80f f4ba e7c0 14bb 9629 aa39 59e4 b73a
00000130: d452 0b3b 96e4 793b 4316 273b ad2b 323a
00000140: a805 b5ba 6589 2bba 0110 2a39 37fa c63a
00000150: d824 0f3a 2423 803a d4ee a7ba ce29 75bb
00000160: df42 8dbb c5cf 80bb 931b 1f38 40bb a536
00000170: 7695 65ba faee 5fbb dc5e 9cbb bbec 9eba
00000180: 4803 a9ba 6de7 243a 65d6 923a e31d 1cb9
00000190: 1cbd 703a 60e3 dab9 6e56 b63a f05e 7d3b
000001a0: 83c4 f43b ba52 203c e8b9 083c b82f fa3b
000001b0: 8e8d 013c 9605 0e3c bbd9 ff3b bbd9 273c
000001c0: cee6 3c3c 17a1 fe3b 2389 403b cd75 f2ba
000001d0: 9e4f b1ba 7a3e 203a 94f1 8539 4f5d 9aba
000001e0: 8b31 983b bdc1 893a 263c 6cbb 3a39 ccbb
000001f0: 491a b4bb bdb0 a43a c887 693a e8c9 723a
00000200: cc65 053b 3133 513b a5d0 bc3b 7537 993b
00000210: 5eaa 993b 93c9 8b3b 644c bd3b 566b cd3b
00000220: f22e 0f3c 2b08 1e3c 213f e03b d436 333b
00000230: e24c 6dba 6306 09ba 55ef 073b a87d f03a
00000240: 495d de39 a737 8d3a 6814 34ba 3cc4 28bb
00000250: 2ab3 6dbb ef99 28bb 935a 3cb8 cede 6a3a
00000260: a229 333a 4a76 cf39 6dd1 2c39 23e2 8a39
00000270: 0868 4a3a f452 533a e00f e239 3f50 4439
00000280: 133b 2939 608b 2338 91ec a239 24fb cb39
00000290: 7cde 453a 66fc 403a 81f9 8d39 d46f 5a39
000002a0: 68dc c239 16e7 903a 1241 383a 939b c43a
000002b0: 38da ce3a daf9 d13a 663e 9e3a 7c5f 0f3a
000002c0: 66db 473b 7d7c 9c3b 17a0 cf3b f01e 493b
000002d0: 5455 dc39 d0ef 1a3b ea8a 7c3b a65e 263b
000002e0: 0217 92bb 40c8 aaba a40d 983a 5038 ab3a
000002f0: 42f0 12bb 1e6b c5bb aaf9 65bb f79a 2dbb
00000300: 73fa 34bb aa7f 43bb 89fa d4bb 8a45 9cbb
00000310: b94f 03bb c788 93ba 88e4 2dbb 9f68 d4ba
00000320: 0fd1 753a e945 1e3b 1487 223b d56d 073a
00000330: 3a1c 8f3a 6ffb 093b a734 e13a f2b9 603a
00000340: 509c e139 8005 253b 1520 653b 7eb0 883b
00000350: 21ee 2c3b 8378 393b f8a1 963b 90d4 443b
00000360: 1840 933b 25c6 9c3b b8de ae3b 57ef ae3b
00000370: 2ace 893b 3693 863b e1cf 6b3b d104 ac3b
00000380: 43fa d73b 9a6a ca3b a440 9f3b d039 0dba
00000390: 4ece e53a 993a d83b 4565 ee3b bc57 a93b
000003a0: 9002 5e3b 2845 be3b 3eba 1e3c ac23 d93b
000003b0: 05e2 5d3b 5075 a03b df00 d13b d2c3 c03b
000003c0: f663 ad39 52f5 2eba b4cd 553a ec6b e03a
000003d0: 0146 c339 f35b 043b 6a7d 66ba 60f5 45b9
000003e0: c626 11ba aa20 d7ba 4a83 243a 18fd 693a
000003f0: a4c1 5e3a e6a1 b1ba a0ef 753b 1121 fa3a
0.0051314924 0.003117419 -0.00053982926 0.00070424285 2.7778558e-05 0.0055562425 0.0042009642 0.0019340685
0.0015931517 -0.0015257925 -0.00079425075 -0.0011445726 -1.3847137e-05 0.001141117 0.0013783037 0.0013346749
-0.0031434407 -0.0051798 -0.0032716286 0.00068811723 0.0009556156 0.0022291509 -0.0018198576 -0.005735547
-0.0053146174 0.0021393346 0.0037550456 0.004039353 0.004537954 0.0009744752 0.0015018561 0.0028381508
0.004297743 0.0024927347 -0.00216729 -0.0014483114 -0.0017097206 -0.002260175 -0.002183514 -0.0029497622
-0.0011760874 -0.0025606481 -0.0048337234 -0.0071936687 -0.009083241 -0.0013048899 0.0014134953 0.0017352718
-0.0038221632 -0.005386606 0.0019168458 0.0018828318 0.0034132607 0.0020377843 -0.0005944522 0.0033884768
0.0027750651 0.002155416 -0.0013567177 -0.004864756 0.0011210318 0.0025198336 0.0020234159 -0.0011705313
-0.004464226 -0.0026131985 -0.001081899 -9.324087e-05 0.00018141739 -0.00053080224 -0.0016705133 -0.0003573735
-0.0018620463 -0.0022697987 0.0003245591 0.0014029845 0.0021259086 0.0038130633 0.0025495447 0.00067966693
-0.001381089 -0.00065436057 0.00016218425 0.0015180771 0.0005460507 0.0009776098 -0.0012812265 -0.003740895
-0.00431095 -0.003931018 3.7934235e-05 4.939182e-06 -0.0008757928 -0.003416954 -0.0047720503 -0.0012124995
-0.0012894655 0.00062905886 0.001120281 -0.00014888453 0.0009183453 -0.00041749608 0.0013911256 0.0038661323
0.007469715 0.009785349 0.008345105 0.007635083 0.007907284 0.008668324 0.007807938 0.010244782
0.0115296375 0.0077706682 0.0029378615 -0.0018498242 -0.0013527756 0.00061128254 0.00025547727 -0.0011777076
0.004644578 0.0010510009 -0.0036046593 -0.006232408 -0.0054962975 0.0012564879 0.00089084776 0.0009261654
0.0020354865 0.0031921382 0.005762177 0.0046758004 0.004689499 0.004265973 0.0057769287 0.006268899
0.00873922 0.009645502 0.006843463 0.0027345913 -0.0009052289 -0.0005227087 0.0020742018 0.0018347995
0.00042412643 0.0010774032 -0.0006869496 -0.002575173 -0.003627012 -0.0025726517 -4.4907047e-05 0.0008959592
0.0006834512 0.0003957025 0.00016481215 0.00026489896 0.00077211903 0.0008061372 0.00043117907 0.0001872191
0.00016139103 3.899203e-05 0.00031075304 0.00038906292 0.00075481064 0.0007361829 0.0002707951 0.0002083176
0.0003716678 0.0011055197 0.0007028739 0.0014999978 0.0015781587 0.0016019896 0.001207304 0.00054692454
0.0030495762 0.0047755823 0.006336223 0.0030688606 0.00042025244 0.0023641475 0.0038534948 0.0025386005
-0.004458309 -0.001302965 0.0011600745 0.0013063047 -0.0022421037 -0.0060247323 -0.0035091438 -0.0026490071
-0.00276151 -0.0029830732 -0.0064995927 -0.004769032 -0.0020036532 -0.0011255973 -0.002653392 -0.0016205496
0.00093771605 0.0024150556 0.002479975 0.00051662076 0.0010918446 0.0021054407 0.0017181829 0.000857263
0.00043031806 0.002518028 0.003496175 0.00417143 0.0026387053 0.002830059 0.004596945 0.0030033924
0.0044937246 0.004784363 0.0053366087 0.00533859 0.004205485 0.0041069044 0.003598206 0.0052495976
0.006591113 0.0061772587 0.0048600007 -0.0005387338 0.0017532797 0.0065987823 0.007275256 0.0051679295
0.003387604 0.005806584 0.009687958 0.006626567 0.0033856642 0.0048967972 0.0063782777 0.0058827186
0.00033071608 -0.0006674129 0.00081559573 0.0017122007 0.00037245455 0.0020196408 -0.0008792492 -0.00018878793
-0.0005537089 -0.0016412933 0.0006275667 0.00089259585 0.00084974826 -0.0013552278 0.003752686 0.0019083341
