CODES_and_STUFF/checkpoint/model_epoch1.pth (torch, 270767 bytes, 24 tensors)

conv1.weight f4 [10, 1, 5, 5]
000000 43 fb 9e 3e bb 35 96 3e b4 b5 ed 3d eb c2 a9 be
       0.31051072 0.29337868 0.11606923 -0.33156523
000010 d6 25 85 be bf 72 a5 3d 54 d4 c7 3e b6 ab ce 3e
       -0.2600543 0.08078527 0.3902918 0.4036538
000020 99 22 c0 3d 89 62 24 be 6d 16 97 be 29 df 8d 3e
       0.09381599 -0.16053213 -0.29509297 0.2770932
000030 b7 7c 45 3e 2e 9f 9e 3d 03 ec 8e be 98 18 7a bd
       0.19285856 0.07745205 -0.27914438 -0.06105861
000040 91 ef a5 bd 48 65 81 3e b6 54 af 3e c9 8d 7c 3e
       -0.08102334 0.25272584 0.34244317 0.24663462
000050 fc 12 3c be e5 cc 46 be c8 3a 02 3e 97 0c da 3e
       -0.18366617 -0.19414099 0.12717736 0.4258773
000060 48 91 57 3e 42 4a 8d be 3e e8 1d be b4 ef ae be
       0.21051514 -0.27595717 -0.15420625 -0.34167254
000070 e8 12 61 be 53 ad 15 3c b0 86 df bd 75 50 38 3c
       -0.21979868 0.009135562 -0.109143615 0.011249651
000080 84 2d 5f be fd e9 8c be ad ca 68 be c7 36 57 3e
       -0.21794707 -0.2752227 -0.22733565 0.2101699
000090 41 ab 69 3d c9 05 19 be d3 38 8e 3e 1c e2 82 3e
       0.057048086 -0.14943613 0.27777728 0.25563133
0000a0 b8 ac 43 3e b5 e2 59 3d 51 b6 b7 3e e7 59 21 3e
       0.19108856 0.05319472 0.35881284 0.15756951
0000b0 0b 55 92 3e 4b f6 17 be 03 9f 93 3e 74 7f 67 3e
       0.28580508 -0.14840047 0.28832254 0.22607213
0000c0 2c 6d b2 bb e2 1f 6f be ff 19 94 be 6e 62 45 be
       -0.005445143 -0.23352006 -0.28926083 -0.19275829
0000d0 c5 b1 a0 3d 7d 0b b1 3e 26 14 3a 3e 5f 7e 1e be
       0.07846407 0.34579077 0.18171749 -0.15477894
0000e0 1e e7 d2 bc 86 3f e9 bd f8 79 ca 3d 42 21 ab 3e
       -0.02574497 -0.11389069 0.09886545 0.3342381
0000f0 70 19 70 3c 17 83 3d 3d c4 3a 00 be 9d 69 10 3e
       0.014654502 0.046267595 -0.12522417 0.14102788
000100 5b df ba 3e c5 c0 93 be 72 b6 8c be a0 57 97 be
       0.36498532 -0.2885801 -0.27482945 -0.2955904
000110 22 7a 97 3e 09 03 79 3e b2 88 1f be b0 e1 44 be
       0.29585367 0.24317564 -0.15579489 -0.19226718
000120 ac 12 15 be d1 a8 27 3e ca 05 bf 3e 40 c9 39 be
       -0.14557904 0.16372992 0.37309104 -0.18143177
000130 ca f4 1d bd be ad 95 be 73 88 93 3d ea fb 3a 3d
       -0.038563527 -0.29234117 0.0720376 0.0456504
000140 af 09 3b be e5 c9 51 be 3b 3d 9d 3c fd b1 d6 3c
       -0.18265413 -0.20487173 0.019194236 0.026207918
000150 cd 4e 98 3d ae 2e 70 3c 4c 46 5c bd fd c9 1f 3e
       0.07436905 0.014659567 -0.053777978 0.15604396
000160 e2 b8 eb bd 8e 37 9c 3d 6a f1 7f bd e6 83 50 3d
       -0.11509873 0.07627784 -0.06248609 0.05090704
000170 37 47 96 bd 60 00 82 bd 7b b9 21 be f8 57 80 3e
       -0.07337802 -0.06347728 -0.15793411 0.25067115
000180 3d cf 9b 3e e4 25 79 3e d9 0b 0d 3e 61 c9 60 3e
       0.30431548 0.2433086 0.13774051 0.2195182
000190 31 6f 3f 3e 81 71 7b 3d 6f f4 0e 3e 1b 18 0b 3e
       0.1869476 0.061387543 0.13960432 0.13583414
0001a0 ee 0c 46 3e 4d 81 6a 3e f0 4b 57 3e 64 dd b4 3e
       0.1934087 0.22900887 0.21025062 0.35325158
0001b0 1b 76 b3 3e db 4a 4f 3e 66 fa e1 3d 64 af 61 bd
       0.35051045 0.20243399 0.11034088 -0.055098906
0001c0 f3 0f f7 3a 7b 19 2f 3d 71 9b 45 3e 23 06 9b be
       0.0018849358 0.04274891 0.19297577 -0.3027812
0001d0 91 57 47 be d5 21 6c be 98 8c 63 be db 6f 0b be
       -0.19466998 -0.23059781 -0.22221601 -0.13616888
0001e0 f6 fd b8 be 34 14 84 be bf 8e 81 be 4b 1b b0 be
       -0.36131257 -0.25796664 -0.2530422 -0.34395823
0001f0 3e 87 98 be eb 21 2d 3e c5 67 b0 3e ea f3 4b 3e
       -0.29790682 0.1690747 0.3445417 0.19917265
000200 05 61 2f 3e cb 85 90 3d 0f a1 40 3e 3b 44 79 3d
       0.17126854 0.07056769 0.18811439 0.060856085
000210 21 eb b1 3e 19 47 99 3e 8b 1b 1c 3e b6 59 31 be
       0.34749702 0.29937056 0.15244882 -0.17319378
000220 42 c9 c9 3c 95 26 4b be 92 7e 69 3d de 2f 62 3d
       0.0246321 -0.19838937 0.057005472 0.05522143
000230 93 95 cd be 03 26 04 be 9a cf ab be 9e ea a2 bc
       -0.4015318 -0.12905125 -0.33556825 -0.019887265
000240 8d c0 13 be 3c 67 79 be bf ea b1 be 2c eb 18 3a
       -0.14428921 -0.24355787 -0.3474941 0.0005833383
000250 0c 0e a3 bd 85 a9 97 3c c1 bb 78 bd 93 fa ee bb
       -0.079616636 0.01851345 -0.06072593 -0.0072930544
000260 ec 64 fd bc 3e 55 77 bd 56 3d f5 bd b3 16 f8 bd
       -0.030931912 -0.060384028 -0.119745895 -0.121137045
000270 19 21 2b bd 34 c1 20 be 6f 1c 23 be 90 af 26 bd
       -0.04177961 -0.15698701 -0.15928815 -0.040694773
000280 3b b2 02 3d 00 b5 74 3d 0e f8 07 be 7a 22 df 3d
       0.031908255 0.059742928 -0.13278219 0.10895248
000290 e0 74 26 be 8b 8c 14 be ef 99 46 be 96 17 1b 3c
       -0.16255522 -0.14506738 -0.19394659 0.009466073
0002a0 87 92 af bc e2 fa 0c 3e 43 ba e9 bd 5d 62 64 3e
       -0.021432174 0.13767579 -0.1141248 0.22303148
0002b0 53 32 e4 bd 36 e8 82 3d c4 ff c7 bd d2 b9 84 be
       -0.11142411 0.06391947 -0.0976558 -0.2592302
0002c0 1d 2b 4a be 54 00 08 be 02 21 44 bc ff 83 f5 3d
       -0.19743009 -0.13281375 -0.01197076 0.11988067
0002d0 e4 88 bf bd c5 69 a0 be af 4e 4d 3d 52 8b 20 bb
       -0.09352282 -0.31330696 0.050123867 -0.0024497104
0002e0 3e 5e 8e 3e c0 cc 8d be 21 b8 68 be e9 46 38 3e
       0.27806276 -0.27695274 -0.2272649 0.179958
0002f0 39 30 ae 3e c4 14 95 3e 90 ae ed bd bb ce 12 be
       0.34021166 0.29117405 -0.11605561 -0.14336674
000300 30 41 a3 3e 54 f2 a6 3e 32 73 7c 3d 6c 09 a3 bd
       0.31885672 0.32606757 0.061633296 -0.079607815
000310 81 93 81 3e 9d 9f 91 3d c3 00 d4 3d 63 29 58 bd
       0.2530785 0.07110522 0.10351708 -0.052773844
000320 cb 1f 27 3e 45 be fa bd 77 8f 3b be 3e 3b 47 3c
       0.16320722 -0.12243322 -0.18316446 0.0121601205
000330 c9 43 b0 bd 77 8e 92 3d ca 35 27 be 57 fa 29 be
       -0.08606679 0.07156079 -0.16329113 -0.16599403
000340 a5 48 70 bd be ff de bb 5a d2 b9 3c fe 86 15 be
       -0.05866303 -0.006805389 0.022683311 -0.14602277
000350 5e 41 90 be c9 90 0f 3d 31 c6 73 be ec b7 ee 3b
       -0.2817487 0.035050187 -0.23806073 0.007285109
000360 f9 76 8e be 58 d0 b6 bd 42 8e ef bd 27 7f d1 bd
       -0.27825144 -0.08926457 -0.116970554 -0.102293305
000370 75 6e 38 bd fd 34 b0 bd 10 41 74 be cf 58 e3 bd
       -0.045027215 -0.08603857 -0.23852944 -0.11100923
000380 c0 fc e6 3d 04 2b a8 3e 39 ee fc 3d 72 93 2e 3e
       0.11278677 0.32845318 0.12350125 0.17048433
000390 48 42 a0 3d 55 22 50 be 2b e7 ae 3e 4f 2a db 3d
       0.07825142 -0.20325597 0.34160742 0.10701429
0003a0 8d be 00 be 99 e2 9f 3d e4 36 a0 bc dd e4 ac 3e
       -0.1257269 0.07806892 -0.019557424 0.3376836
0003b0 a1 11 2f 3e 1c f8 01 bd ee 3f d9 bd ae b0 09 be
       0.17096569 -0.031730756 -0.10607897 -0.13446304
0003c0 68 38 84 3e 74 2b 4c bd 27 45 23 be e7 1a 95 bd
       0.25824285 -0.049846128 -0.15944348 -0.07280522
0003d0 6b 1b 8a be 7a 1c 87 3e e9 c6 63 bd 65 65 08 be
       -0.26974043 0.26388913 -0.055609617 -0.13319929
0003e0 31 ef 9c be be 60 57 be
       -0.3065124 -0.21032998

conv1.bias f4 [10]
000000 3a 0b 83 3e c5 2e e7 3c 07 2c c6 bd ac 5f 38 3e
       0.25594503 0.028220544 -0.09676366 0.18005246
000010 de dc be 3c b2 ab a5 3d 5a e9 fb bd bb 79 4f 3d
       0.023298677 0.08089389 -0.12300368 0.0506532
000020 21 2c 00 be c8 4d f1 3d
       -0.12516834 0.11782414

conv2.weight f4 [20, 10, 5, 5]
000000 83 1b ea bc b6 5e 3d bd e6 87 a8 3c 70 f9 f7 bd
       -0.028577572 -0.0462329 0.020572614 -0.12108123
000010 6f 6b c1 bc 78 b4 24 be c3 4a 0c bd 94 ab 0e 3c
       -0.023610799 -0.16084468 -0.034250986 0.0087079
000020 f4 47 ee bd 7b db 28 3d d2 31 be bd ba b6 80 bd
       -0.11634818 0.041224938 -0.09286846 -0.06284852
000030 29 1c 0b bb e2 6c 8b 3d 59 a6 00 bd 6e 2b 89 3d
       -0.0021226502 0.06807877 -0.03140864 0.06697737
000040 bc 7e 53 bd 2b e7 d4 bd df 07 d0 bd 90 fa dd bd
       -0.051634535 -0.10395654 -0.10157751 -0.10838807
000050 db 21 9d 3d c1 75 12 3d bc 6a 29 3c a8 5c 8f 3d
       0.07672473 0.03575683 0.010340389 0.07000095
000060 64 a0 b5 3d 42 22 37 bd e9 47 34 bc 73 90 28 3b
       0.08868483 -0.044710405 -0.011003473 0.0025720864
000070 ff 3d 0c 3e e3 99 0b 3e ee 7b 8e 3b e9 68 5c bd
       0.13695525 0.13632922 0.0043482697 -0.053810988
000080 94 67 67 3c 63 6e a7 3d fd 35 8a bd 38 52 8a bd
       0.014123816 0.081753515 -0.06748579 -0.06753963
000090 09 a4 f9 bc 34 82 e3 bd 04 71 b7 bd 3e af 00 bc
       -0.030473726 -0.11108819 -0.08957103 -0.007854281
0000a0 b9 3b b3 3d cb d8 16 3e 2e 66 1f 3e 7e cc 1b 3e
       0.087516256 0.14731137 0.15566322 0.15214726
0000b0 ce 6f d4 3d bc 58 16 3e 3f 46 1f 3e b4 70 05 3e
       0.103728876 0.14682287 0.1555414 0.13031274
0000c0 7f 62 6e 3d 95 ef 88 3d 4e 7e fd bd 31 d9 83 3b
       0.058199402 0.06686322 -0.12377606 0.004023694
0000d0 7a 2a 84 3d 6c 5f 22 3d f1 55 86 bd 34 43 59 be
       0.06453414 0.039641783 -0.06559361 -0.21217042
0000e0 34 be 4f bd 98 a2 a0 bc f2 1a 03 bc 5d 41 8c 3d
       -0.0507185 -0.01960878 -0.00800203 0.068484046
0000f0 b9 d2 60 be 27 ba 6a bd f0 8f 7b bd 10 05 0e be
       -0.21955384 -0.057306435 -0.061416566 -0.13869119
000100 47 1f e4 bd 93 85 2c be c0 d5 e9 bd 93 dd 45 be
       -0.11138778 -0.1684783 -0.11417723 -0.19322805
000110 2d ea 23 be 66 42 49 be 0e d5 39 3c 2d a2 c4 bd
       -0.160073 -0.19654235 0.0113423 -0.09601245
000120 93 eb 00 bd 72 90 ad 3c a6 e4 b9 bc 7e 62 e7 bc
       -0.03147466 0.021187041 -0.022692036 -0.028245207
000130 04 a3 99 3d 29 d6 c2 3d c7 3a 9f 3d f4 3f 70 3b
       0.07501796 0.09513504 0.07774883 0.0036659213
000140 f1 ca b7 3b e6 aa 02 bd 9b 88 2d bc 00 26 50 bd
       0.0056089093 -0.031901263 -0.010591651 -0.05081749
000150 47 fa d0 bd 93 4c 58 3d af 4b 86 3d 52 a7 17 ba
       -0.102039866 0.052807402 0.06557404 -0.00057851255
000160 05 32 02 bd 7a c1 0c 3d 88 71 ac bc f9 7a df 3d
       -0.031785984 0.0343642 -0.02105023 0.10912127
000170 29 85 04 3e 7e 31 e5 3d e1 4a 90 3d ae 5b 18 bd
       0.12941422 0.111910805 0.07045532 -0.037196808
000180 b2 bb 27 bd 27 85 b6 3c f7 41 97 bb 26 e1 99 bc
       -0.040950485 0.022280289 -0.004616018 -0.018784117
000190 9d 48 9e 3d 8d 18 c7 3b 99 81 68 bc ca 2a 2f 3d
       0.07728694 0.0060759247 -0.014191055 0.042765416
0001a0 b4 a7 a5 3b 22 ad 26 3d ad 9b 1f 3e 59 4e 01 3e
       0.005055392 0.040692456 0.1558673 0.12627544
0001b0 cd 9a 26 3e c8 2d 07 3e be 6e a3 3d 7b d9 06 3e
       0.1626999 0.13201058 0.07980107 0.131689
0001c0 d5 10 2f 3e 5a 7f 2d 3e 44 f7 fc bc 44 8f ce bc
       0.17096265 0.16943112 -0.030879624 -0.025214799
0001d0 7b 34 01 be 39 da 8d bd 11 61 03 be 26 ca 2d be
       -0.12617676 -0.06926388 -0.12829997 -0.16971645
0001e0 b8 09 12 ba 97 55 ac bd 8c 02 81 bd 60 f9 79 bc
       -0.0005570906 -0.084147625 -0.06299314 -0.01525721
0001f0 33 45 a4 3d c8 d3 23 3d 30 60 2b 3d f4 33 8c 3d
       0.08021011 0.039996892 0.04183978 0.06845847
000200 63 c5 5c 3c 5a f8 a9 3c a3 e3 3c bd b4 46 8c 3d
       0.013474795 0.020748306 -0.04611553 0.06849423
000210 55 70 74 3d db aa 13 3b d2 88 e9 3d 4f eb 6d bd
       0.05967744 0.0022532258 0.114030495 -0.058085736
000220 f5 a0 0b 3e a6 f2 d0 3d 06 2c 35 3e de 03 c3 3d
       0.13635619 0.102025315 0.17692575 0.09522222
000230 a4 4f 29 bd f6 0b f8 bd fc 86 a6 bc 6a 5c 16 be
       -0.041335717 -0.12111656 -0.020328037 -0.1468369
000240 24 7d fc bd 7c 96 1a 3b fc 3e a2 bc 50 48 50 3c
       -0.12328556 0.002358823 -0.019805424 0.012712553
000250 da cc 13 bb 6d 9d 81 3b 14 15 e0 3b d5 3a 87 3d
       -0.002255252 0.003955534 0.00683845 0.06603018
000260 b3 6b 6d 3d e1 9b 2b 3d 03 e2 1e 3d 13 44 c4 bc
       0.057964038 0.041896705 0.03878976 -0.023958242
000270 16 9c 61 bc dd bb 73 3c e1 5c 3d bd e0 77 82 bc
       -0.013770124 0.014876333 -0.046231154 -0.015926301
000280 02 2c cb 3c f5 fb 12 3d 17 70 5c 3d 7c 96 2b 3d
       0.024801258 0.035884816 0.053817835 0.04189156
000290 70 a4 26 bb 57 f4 bc 3c 27 28 b8 bc ba be 44 bc
       -0.0025427602 0.023065729 -0.022480084 -0.012008363
0002a0 68 e2 fd 3c b1 29 e3 3a 0c d0 3a bd 94 6d f1 bc
       0.030991748 0.0017331151 -0.045608565 -0.029471196
0002b0 fa 98 1c bd bb fc 0a bd 47 90 26 3d e5 56 32 bd
       -0.038231827 -0.03393243 0.040664937 -0.0435399
0002c0 bb b4 35 bd 73 20 8e 3d 5a 10 0d 3b 0a a8 47 3d
       -0.04436181 0.06939783 0.002152464 0.04874424
0002d0 c9 0a 1f 3c 37 1c 33 bd 1d 54 91 3d 48 a5 0d 3d
       0.009707161 -0.04372808 0.070961215 0.034581453
0002e0 e8 bb c3 bd 12 49 24 be 78 f1 0e be 98 e9 3f be
       -0.09557325 -0.16043499 -0.139593 -0.18741453
0002f0 8a ae 41 be 20 4f 18 be 58 28 b4 bd bd 4f eb bd
       -0.18914238 -0.14873934 -0.087967575 -0.11489818
000300 99 12 e2 3c 68 51 9f 3d 34 16 77 3d 7b f7 bf 3d
       0.027596759 0.07779199 0.06032391 0.09373375
000310 11 7d 4c 3d 03 a2 2e 3d 23 5d d7 bc 36 64 8b bd
       0.04992396 0.042634975 -0.026289528 -0.06806223
000320 33 b3 70 bd 5b ef c8 bc f6 2c 6d bc 76 b3 3d bd
       -0.058764648 -0.024528196 -0.014476052 -0.046313725
000330 d5 7c 40 bd a9 76 e8 bc b0 60 59 3c fe de e1 3c
       -0.04699405 -0.028376894 0.013267681 0.027572151
000340 40 0b b9 3c e8 a9 b2 3c c4 f4 f0 3c 12 90 47 3d
       0.022588372 0.021809533 0.029413588 0.04872138
000350 a1 a5 b0 3d 57 62 87 3c e2 22 11 3d 34 0a 1e bd
       0.08625341 0.016526384 0.035433657 -0.03858395
000360 2a 67 4b 3d a0 4d 56 3c 21 9d 58 bd 37 6d 80 bd
       0.04965893 0.013080031 -0.052884225 -0.06270831
000370 26 be c8 bd 26 14 e4 bd ab f2 b9 bd ca b3 c4 3b
       -0.09801893 -0.111366555 -0.09079488 0.006002878
000380 83 51 3c bd 5f 7c 3a bd 7c 1e b8 3b 55 87 98 bb
       -0.045976173 -0.045528766 0.0056188684 -0.0046548047
000390 1a 4d 94 3b ec b0 ad bd 42 db 0c bd bd d4 f2 bc
       0.004525793 -0.08481011 -0.034388788 -0.029642457
0003a0 1d b1 04 bd f2 6a a5 3a 23 ae c2 bc 1c 8a fe 3c
       -0.03239547 0.0012620373 -0.023764675 0.031071715
0003b0 22 3d 7a bd 0b ba 37 bd ec 7f 38 be 33 b2 41 be
       -0.061093457 -0.04485516 -0.18017548 -0.18915634
0003c0 61 86 a1 bd bb 52 a8 bd c4 c5 52 be 85 e5 36 be
       -0.07886959 -0.082189046 -0.20583254 -0.17860992
0003d0 88 b3 16 be 18 05 34 bc 49 95 c7 bb 92 48 9e bd
       -0.14716923 -0.010987543 -0.006090794 -0.077286854
0003e0 e7 08 dd bd 9a 7c 8f bd 40 06 45 bc 7d 95 6b 3d
       -0.107927136 -0.07006188 -0.012025416 0.05751561
0003f0 05 12 89 3d c3 e9 e7 3c c8 54 8d 3c d0 32 26 be
       0.0669289 0.028309708 0.01725234 -0.16230321

conv2.bias f4 [20]
000000 04 f6 d4 bc fa a6 ee 3c 62 08 a0 bc 1e 70 cf 3a
       -0.025996216 0.029132355 -0.019535247 0.001582626
000010 72 a8 4d bd 48 e1 2b 3c 8d 33 24 bd 84 27 5b bb
       -0.05020947 0.010490723 -0.040088225 -0.0033440301
000020 a6 ad 73 bd 91 37 7f bd a9 fc 7f bd 1d 1c 56 3c
       -0.059491776 -0.06230885 -0.062496815 0.013068226
000030 21 51 1c bd 3a 44 a7 3c 55 9d 62 bc 2f 8b 36 3d
       -0.038163308 0.020418275 -0.013831456 0.04456633
000040 66 bb 86 bd 51 4f 36 bc 31 91 3d bd 22 11 47 bc
       -0.06578712 -0.011127309 -0.046281043 -0.012150081

fc1.weight f4 [50, 320]
000000 c2 c5 06 bd 0a e2 da 3c 10 e5 a8 3d 87 1b a6 bd
       -0.03290344 0.026719112 0.08246815 -0.08110719
000010 5c fb 83 bd e8 15 61 bd 38 9d 08 bb 4c bb b2 3c
       -0.06444427 -0.054952532 -0.0020845663 0.021817826
000020 ed ee 93 3d 7f 66 13 bc a4 9c 8c bc 48 d6 3d bc
       0.07223306 -0.008996605 -0.017164536 -0.011586733
000030 16 2a b5 3d 9d 64 97 3d b0 7f a5 bc ce ff 25 be
       0.08845918 0.07392237 -0.020202488 -0.16210863
000040 9d 1d 07 3d 63 be 9e 3b 72 e1 9f 3c ae 8e 51 39
       0.032987226 0.004844473 0.01951668 0.00019984946
000050 ae 1d bd bd 91 c1 8e 3c 8e 07 89 3c a2 b2 67 bd
       -0.092341766 0.017426284 0.016727235 -0.056566842
000060 55 8a 5b 3d d1 43 41 bd 0d 48 01 be 75 68 c3 bd
       0.05359872 -0.047183815 -0.12625141 -0.09541408
000070 d2 81 ab 3d e3 33 53 3d 64 44 ad 3d 39 98 be bd
       0.08374371 0.051563155 0.0846031 -0.09306378
000080 76 1b 78 bc 26 f6 bf bb 6f 7f 99 bd 6e 3c 98 3c
       -0.015143266 -0.0058582006 -0.07495009 0.018583503
000090 a7 92 08 3d 09 d2 68 bd 13 d7 36 3c 86 01 5d 3d
       0.033342984 -0.05684093 0.011159676 0.05395653
0000a0 02 43 00 bd 9a f3 91 3b a9 1b 53 3d 0f 1a cc bd
       -0.031313904 0.0044540884 0.05154005 -0.09965908
0000b0 89 af 92 3c 2f 7c 1e bd 42 74 f9 3b 48 02 82 3d
       0.017905967 -0.03869265 0.007612736 0.06348091
0000c0 f5 28 b4 3c 38 d6 79 3c 2f 70 cf bc 2c 3b ee bc
       0.021992186 0.015248828 -0.025322048 -0.02908095
0000d0 0a ca 2e bd 2a 8e 90 3c 0a 20 d6 bb 6e 28 4d 3d
       -0.04267315 0.017645914 -0.006534581 0.050087385
0000e0 7e 9a ad bc 1a 58 db bd b0 90 1c bd 41 c4 66 3d
       -0.021191832 -0.107101634 -0.038223922 0.056339506
0000f0 28 82 1d bb 70 ad db 3c 48 68 d2 3d b8 fd 0a bd
       -0.0024033878 0.0268161 0.10273796 -0.03393337
000100 61 c7 f0 3c 3b d7 01 bb 94 7e 89 bd b2 a5 f1 bd
       0.029391946 -0.0019812125 -0.06713596 -0.11799182
000110 7b 4f 1a bc 14 3a f0 3a 4c 31 2f bd 56 30 93 3b
       -0.009418364 0.0018327856 -0.042771623 0.004491846
000120 67 ff 3c 3d b9 ff 63 3c a7 72 88 3c ab dd 4b 3d
       0.04614201 0.0139159495 0.016656233 0.049771946
000130 29 91 26 3d 3e 53 02 3d ab 01 0a bd f8 e3 0b bd
       0.04066578 0.031817667 -0.033692997 -0.034152955
000140 c8 53 c2 bd 62 60 d5 bd 7a 80 77 3c 6d ac 21 3c
       -0.09488636 -0.10418774 0.015106315 0.00986777
000150 45 16 3d bd 79 b9 83 3d 60 aa 6f bc 28 c3 f2 bc
       -0.046163816 0.064318605 -0.014628023 -0.029634073
000160 a8 1c 43 3d 77 37 26 3e 22 8a aa 3d ff a6 76 bd
       0.04763475 0.16232096 0.08327128 -0.060217854
000170 cb ea 65 bd a2 25 96 bd 0c ec 53 bc 05 9a 45 3d
       -0.05613212 -0.07331397 -0.012934696 0.048242588
000180 06 c6 00 bd 75 fc b9 3d 5e e4 f7 3c 20 77 13 be
       -0.03143885 0.090813555 0.030260261 -0.14400911
000190 52 44 0a 3d 01 11 cd 3c 3b 56 fc bc db 8d 55 bd
       0.03375656 0.025032522 -0.030802837 -0.052137237
0001a0 2d d6 12 3d 0e 60 f2 bc 7a 73 ec bb aa 4e 88 3c
       0.035848785 -0.029586818 -0.0072159143 0.016639072
0001b0 7e 7b 40 bc a8 05 43 3b 9f 1a 6a 3b 7b fd d9 bb
       -0.011748193 0.002975801 0.0035721434 -0.0066525317
0001c0 51 47 88 bd dd 28 13 bc e8 3a 63 3d fa c1 dd 3d
       -0.066542275 -0.0089819105 0.0554761 0.10828014
0001d0 f6 3d ef bc 1a 53 af ba 1c b5 86 3d 0e a7 23 3a
       -0.02920435 -0.0013376207 0.065775126 0.00062428496
0001e0 c2 d2 6e ba ad 3f bf 3d 98 72 5d 3d ad 52 03 3d
       -0.0009110385 0.09338317 0.054064363 0.032061268
0001f0 9f 80 15 3d 96 cb af bd a2 92 04 bd 03 a4 94 bd
       0.036499616 -0.08583753 -0.032366402 -0.07257845
000200 91 1b 3b 3b 1f 98 40 bc f4 b0 59 3c 52 42 ad 3d
       0.0028550366 -0.0117550185 0.013286818 0.08459915
000210 2e 1e 9b bc 50 b9 39 3c 69 ec ea 3a c3 44 b7 bd
       -0.01893529 0.011335686 0.0017923239 -0.08948662
000220 1f 00 aa 3c 2a b6 87 bd af 4f b3 bc b4 49 8a bc
       0.02075201 -0.06626542 -0.021888582 -0.016880848
000230 21 b1 c0 3b f3 2c dd 3d 0d ea d8 3c 2f d0 cc 3c
       0.0058804904 0.10799589 0.026478792 0.025001613
000240 d9 29 30 3d 00 59 67 bd e0 b1 dc bd 64 30 0d bc
       0.04300866 -0.05648136 -0.107761145 -0.008617494
000250 81 79 05 bd 72 90 1d bd 90 11 40 bc 32 8d 4f bd
       -0.03258658 -0.038467832 -0.011722937 -0.050671764
000260 31 ed 68 3d 5e e4 e1 bd 64 10 08 be 39 0a 2a 3d
       0.05686683 -0.11029886 -0.13287503 0.041513655
000270 79 06 02 3e cc c8 98 3d 71 88 06 3c 4e cd af bc
       0.12697782 0.07460174 0.008211241 -0.021460202
000280 6e 03 2f bd 26 80 24 3d 6d 4d a8 bc 9f cd 2e 3c
       -0.04272788 0.040161274 -0.020544732 0.010669141
000290 2b 17 36 bd 9c ba 58 bd 1f d8 99 bb 82 9a 95 bc
       -0.04445569 -0.05291234 -0.004694953 -0.018262152
0002a0 72 ef 39 bd 70 5b 05 3e b3 7f c1 3c 49 10 80 bd
       -0.04539437 0.13023162 0.023620462 -0.06253106
0002b0 2a 96 5a bd 4f 9d 10 3b d4 29 6d bd 4e fa 13 bd
       -0.053365864 0.002206642 -0.05790122 -0.03612738
0002c0 0e b4 27 bd eb a3 62 3b d8 34 8b 3c b2 50 b1 3c
       -0.040943198 0.0034582566 0.016992971 0.021644924
0002d0 66 65 02 be d5 34 35 bc d8 09 c3 bd 81 d3 9b bd
       -0.12733993 -0.011059959 -0.09523362 -0.076087005
0002e0 59 e9 a5 3d 90 cf e6 3d fc 69 43 bd 38 76 da 3c
       0.08101148 0.11270058 -0.047708496 0.0266677
0002f0 68 33 91 3d fc 7d 3b 3d c6 9e b0 3d f8 21 02 3d
       0.07089883 0.045774445 0.08624034 0.031770676
000300 95 0a de bc bb 0c 30 be dc d9 82 bd 9a 5c c2 3d
       -0.027104655 -0.17192356 -0.0638921 0.094903186
000310 dd c5 89 bc 07 b5 f7 bd f2 80 7d bd 74 76 c4 3a
       -0.016817981 -0.12095075 -0.06189055 0.0014988915
000320 78 7c 0c bd 64 50 34 bd 08 d0 df bc 23 dd 7c 3d
       -0.03429839 -0.04402198 -0.027320877 0.06173433
000330 c9 91 66 bd fe 94 b8 bd a2 d9 97 3d ae e5 e7 3d
       -0.056291375 -0.09012793 0.07414557 0.11323105
000340 69 24 e2 bc d4 fa ac 3c 38 b7 d6 3d fb f4 14 3d
       -0.027605252 0.021115698 0.10484165 0.036366444
000350 3c b4 e3 bd b1 82 64 bd 6e b4 0a bd 54 9a e2 3d
       -0.11118361 -0.0557887 -0.033863477 0.11064592
000360 3c c5 4d bc 50 eb 80 bd 1c d8 c5 bd 41 b4 24 be
       -0.012559231 -0.06294882 -0.0966036 -0.16084386
000370 28 92 aa 3d 54 e0 ca 3c d0 08 b6 bd 2c 08 d2 bd
       0.08328658 0.024765171 -0.088883996 -0.10255465
000380 4a 6f ab bc 07 f1 67 bd e9 04 0f be e4 6b f4 bd
       -0.02092709 -0.056626346 -0.13966717 -0.11934641
000390 97 d9 c4 3d de 7f e9 3c 28 6f 2b be dd 24 83 3c
       0.096118145 0.028503355 -0.16741621 0.016008789
0003a0 f2 ad 3d 3d 8b 85 33 3d a1 37 92 bd b8 62 2f bc
       0.046308465 0.04382853 -0.071395166 -0.010704689
0003b0 87 5b 6f bc 87 2a 36 be d5 ba 2b be ea d0 93 3c
       -0.014609224 -0.1778966 -0.1677049 0.018043954
0003c0 98 83 64 bd ad 53 83 bd bc dd 19 bd 75 96 db bc
       -0.05578956 -0.06412444 -0.037564978 -0.026805142
0003d0 95 3a f3 bb 9e 6e ef bb 3a df a9 3d 5a 84 b0 bc
       -0.007422755 -0.007306888 0.0829453 -0.021547485
0003e0 e6 1c 7f bd 18 b6 95 3d dd d4 2d bd 16 62 a8 bd
       -0.06228342 0.07310122 -0.04243933 -0.082218334
0003f0 17 4e 54 bd c4 99 80 bd 26 79 a4 3c de b2 dd 3d
       -0.051832285 -0.062793285 0.0200773 0.10825132

fc1.bias f4 [50]
000000 73 2b 42 3d c6 40 18 bb 97 01 ef 3d 9d 5b 39 bc
       0.047404718 -0.0023231967 0.11670225 -0.011313346
000010 eb 91 23 3d a0 c5 78 ba ef 8f 98 3d 06 23 1f 3d
       0.03993408 -0.00094898976 0.07449328 0.03885176
000020 cf 42 ae bb e1 d5 29 3d 33 8f 76 3d 0d f7 55 3d
       -0.005318023 0.041463736 0.06019516 0.05223756
000030 ae c5 77 3d 61 91 62 3d 5a 87 4d 3d dd 5c 7a 3d
       0.060491256 0.055314425 0.05017791 0.061123718
000040 96 d0 1b 3c cc 7a 5a bd ea e7 1f 3c c5 89 79 bc
       0.00951018 -0.053339764 0.009759882 -0.015230601
000050 07 00 75 3d 97 ae ec 3c 31 46 1a 3d ee ef 81 3c
       0.05981448 0.028891845 0.037664596 0.015861478
000060 90 24 94 3c df 07 4f bc eb 51 81 bb df a8 c5 3d
       0.01808384 -0.012636154 -0.003946533 0.0965135
000070 d0 f6 a9 3d 8d 3c d9 39 cd c9 f0 3a f0 46 5f 3d
       0.08299029 0.0004143458 0.0018370688 0.05451101
000080 b2 a9 da 3d 6b 86 75 bc c8 0d 91 3d 29 b8 79 3b
       0.10676898 -0.014985661 0.07082707 0.0038104153
000090 e2 8b a2 bc ae f3 63 bd 8f 59 bd 3d 96 08 7e 3d
       -0.019842092 -0.055652313 0.092455976 0.062019907
0000a0 e2 32 b3 3b d6 74 a3 bc 9a e9 74 3b 2d 52 bd 3d
       0.005468712 -0.019953173 0.0037370683 0.092441894
0000b0 d6 34 7f 3d f9 26 79 3d 2f 67 63 3d 08 ca 9f 3d
       0.062306248 0.060828183 0.055518325 0.07802206
0000c0 58 f2 c2 3d d4 85 9c 3c
       0.0951888 0.019106783

fc2.weight f4 [10, 50]
000000 b1 62 68 be 2e b6 0e be c0 92 40 be ca bb 0d bd
       -0.22693898 -0.13936684 -0.1880598 -0.034602918
000010 25 f9 d7 3d 3f 87 08 be f3 ea 8a be e2 34 0a be
       0.105455674 -0.13332842 -0.27132377 -0.13496736
000020 6b 90 09 be cd aa de 3d e1 6d c1 3c f7 ec 04 be
       -0.13433997 0.108724214 0.023611965 -0.1298102
000030 f7 46 61 be e0 3a d0 3d 3a 79 d4 bd c2 15 2f be
       -0.21999727 0.101674795 -0.10374685 -0.17098144
000040 a3 3c 4e 3d ac 6b 6c be 65 77 d3 bd 49 04 4a bd
       0.050350796 -0.23087949 -0.10325507 -0.049320493
000050 14 5e a8 bd d5 b8 45 3e 9b be dd 3d 27 fc 69 be
       -0.08221069 0.19308789 0.10827371 -0.22850095
000060 76 ea 15 3e cd 26 8e 3c 81 01 aa 3d 08 e6 ef bd
       0.14640221 0.017352486 0.08301068 -0.11713797
000070 fc b0 27 3a 55 76 c9 3d 59 b8 48 be 1c ce 85 3d
       0.0006396917 0.09837023 -0.19601573 0.06533453
000080 4a ca c9 bd bc 4f af 3d 38 44 18 be da df 1a be
       -0.09853037 0.0856013 -0.14869773 -0.15124455
000090 72 33 33 3e 11 c1 05 be 83 d8 dd bd f8 72 f2 3d
       0.17500094 -0.1306193 -0.10832312 0.11838335
0000a0 2d fb dc 3d 67 f4 8a 3b a5 6f 05 be ab ee 97 3d
       0.107900955 0.004240561 -0.1303087 0.07418569
0000b0 77 6e 98 be ee f9 9e bd ec 12 df bd 1c 9e fb bc
       -0.29771778 -0.07762514 -0.10892281 -0.03071504
0000c0 91 b5 5e 3d 84 a2 89 be 6d 22 16 be 29 9b 78 bd
       0.054372374 -0.26881802 -0.1466157 -0.060694847
0000d0 9a 8a 13 3e 68 21 5e bd b7 b7 0b be ce d2 1e 3d
       0.14408341 -0.054231077 -0.136443 0.038775258
0000e0 de d3 a9 3d 52 08 ab 3d 6b e1 a2 bc 0d df 47 be
       0.082923636 0.08351196 -0.019882878 -0.19518681
0000f0 de 13 e0 bb 0f e2 3b 3e 22 be 95 3d 73 16 a8 3d
       -0.006838306 0.18347953 0.073116556 0.08207407
000100 c2 32 6f bd 12 41 87 3d 94 02 86 be 45 81 06 be
       -0.058398016 0.06604208 -0.26173842 -0.1313525
000110 36 af fd 3d ca 7d c9 bd e4 3d 28 be 42 29 0e be
       0.123869345 -0.098384455 -0.1642986 -0.13882926
000120 a3 1d 68 bd fc 1c b5 3d 8e eb 4d be d5 90 45 3e
       -0.05666889 0.08843419 -0.20109388 0.1929353
000130 46 73 92 be 4c 14 c8 3d 8a ea 3b be dd b8 52 be
       -0.28603572 0.09769496 -0.18351188 -0.20578332
000140 97 03 0f be 57 8b 4b bd 9c 8a 38 3e 18 f7 34 bc
       -0.13966213 -0.04969343 0.18021625 -0.01104524
000150 92 ae d4 3d 8f 37 72 3d bb e4 41 be 25 90 6a be
       0.10384859 0.059135016 -0.1893491 -0.2290655
000160 2d 62 0a 3e 52 40 af 3d 70 86 0c 3d 5c fe 08 be
       0.13514014 0.0855719 0.034307897 -0.1337828
000170 c0 f5 36 be 83 75 93 3d 7f 13 b4 bd cc a1 b8 3d
       -0.17867184 0.07200148 -0.08792781 0.09015235
000180 c6 84 45 3e 4e d2 81 3c 04 0a 81 be 96 fb c7 bd
       0.1928893 0.015847351 -0.25202954 -0.09764783
000190 1b b0 63 be a5 f2 cd 3d 05 cc 5c be 7a 3b c2 3d
       -0.22235148 0.100560464 -0.21562202 0.094840005
0001a0 92 f3 b3 3d 95 cd 4d be 88 e5 00 be b9 bd 04 be
       0.08786692 -0.20097955 -0.12587559 -0.12962998
0001b0 6f 0c aa bd da ec 69 3d a4 16 c7 3c 62 4a d2 3d
       -0.08303153 0.057110645 0.024302788 0.10268094
0001c0 12 ca cd bb 01 d0 ab bd 82 5b 1b bc 72 3d 33 3d
       -0.006280192 -0.08389283 -0.009482266 0.04375977
0001d0 d0 ef 5f bd 65 11 90 3c 89 09 d3 3d 56 44 bf 3a
       -0.054672062 0.01758642 0.10304553 0.0014592509
0001e0 ec 0e 0d be a5 1e 16 bd 9f c9 36 3d 73 c2 67 3d
       -0.13775223 -0.03665032 0.044625875 0.056581926
0001f0 be 84 09 3e 06 3b 42 39 38 2a 0d be 38 d7 88 be
       0.13429543 0.0001852327 -0.13785636 -0.267267
000200 dc f1 70 be 36 00 0b bd 75 38 f3 3c 64 7c f6 bd
       -0.23529762 -0.033935748 0.029690007 -0.120354444
000210 fc a0 18 3e fb 3f f1 3d 37 7c 08 3e a4 6a 79 3d
       0.1490516 0.117797814 0.13328634 0.060892716
000220 27 7b 3f 3d 5c 3b 9c 3d 36 08 1d 3e 80 f4 c1 3d
       0.046748307 0.076285094 0.15335163 0.09470463
000230 2a ff 23 3d f1 ec fe bd a3 d4 06 3e 72 42 fa bd
       0.040038265 -0.12447537 0.13167052 -0.12219705
000240 20 34 28 be 9b 4d 72 be 65 2c 70 bd 54 6c 05 3e
       -0.16426134 -0.23662417 -0.058636088 0.13029605
000250 af 7b 9f bc 66 14 01 be f2 4a 1a 3d 12 5a 9b 3d
       -0.019468157 -0.12605438 0.03766913 0.07585539
000260 e8 4d 73 be ee 2f 8e 3d 6c 6d da 3d ca 4a 5a be
       -0.23760188 0.069427356 0.10665402 -0.21317592
000270 5d d2 dd 3d 74 9d 08 bd 0b 01 1b 3e 2f c9 b1 bd
       0.10831139 -0.033353284 0.15137117 -0.08680951
000280 77 51 13 3d 02 c5 1b 3d 4c 07 dd 3d 57 d0 12 be
       0.035966363 0.03802968 0.107924074 -0.14337288
000290 ae c4 2a be c8 99 d1 3d 00 ca f4 bd 5e e9 3e 3d
       -0.1667659 0.102344096 -0.11952591 0.046609275
0002a0 cb 6e 1a bd 40 04 c2 bd 54 b7 1b bd 69 8b 57 bd
       -0.037703317 -0.09473467 -0.038016632 -0.052623186
0002b0 a5 06 de 3d 71 54 89 3d 8e b9 b1 3d 4b 05 8d bd
       0.10841111 0.06705559 0.0867797 -0.06885775
0002c0 e4 88 28 be b4 ed a8 bd c2 69 18 3b a7 97 e5 3d
       -0.1645847 -0.08248463 0.0023256396 0.11210566
0002d0 61 3d c8 3c 94 61 42 3d 89 29 06 be bb 0e 9c 3d
       0.02444333 0.04745634 -0.13101782 0.07619997
0002e0 9a 1e 09 be f8 8f b7 3c b3 80 b6 bd fe e8 fb bc
       -0.1339058 0.022407517 -0.08911266 -0.030750748
0002f0 d4 7d 74 3c d8 9f ac bd 08 6b b9 3d ec 1a f1 bd
       0.014922578 -0.08428925 0.09053618 -0.11772713
000300 84 70 6e bd 89 2f 3b be 7c 4e a4 3c 4e e1 02 3e
       -0.058212772 -0.18279852 0.020056956 0.1278126
000310 fa 26 1a be e9 dd 94 bd db 3c fd bd 08 e7 ed 3b
       -0.15053931 -0.072688885 -0.12365123 0.007260207
000320 8f c2 84 bd 32 df 27 be 95 04 41 3e 54 45 b3 3d
       -0.064824216 -0.16393736 0.18849404 0.08753458
000330 ba 8c 19 be 82 29 04 bd 15 f4 c9 3d ef 54 25 3e
       -0.14995089 -0.032266147 0.09861008 0.16145681
000340 bd 74 c5 bd 02 29 c4 3d 9c fa 61 be 87 fd e3 bd
       -0.09641407 0.09578134 -0.22068256 -0.11132341
000350 fa 4b 34 3c c9 22 4a be a7 b1 e5 3d 5c ae 2c bd
       0.011004442 -0.19739832 0.11215525 -0.04215847
000360 60 ed da bc 19 64 64 3c b3 19 97 bd 2f 37 c2 bd
       -0.026724517 0.013939881 -0.073779486 -0.09483182
000370 2e c0 fa bd 22 e1 d4 3d c8 d2 6d be 16 85 e4 bd
       -0.122436866 0.10394503 -0.23224938 -0.11158197
000380 00 09 75 bd cb 8a 74 3d d7 df a7 ba c4 ff b5 3d
       -0.059823036 0.059702676 -0.0012807798 0.08886674
000390 fe a3 aa 3c 0e c3 3e be e6 8f 1f 3d fd fc 11 be
       0.02083015 -0.18629095 0.03895559 -0.14256664
0003a0 d5 65 2f 3e a0 5d 1d bd e0 e7 1f be a7 f3 31 be
       0.1712869 -0.038419366 -0.15615797 -0.17378102
0003b0 91 2c 2a be b2 0e 00 3d 69 ca 09 be ee aa 64 be
       -0.16618563 0.031264015 -0.1345612 -0.2233083
0003c0 94 6c 33 be 5a 55 67 bc 2d 37 38 3e 82 55 58 3d
       -0.17521888 -0.0141194705 0.17989798 0.05281592
0003d0 1a d6 89 3d 1f 11 90 bd 77 17 56 3e 2d 18 fc bc
       0.0673029 -0.070345156 0.20907389 -0.030773247
0003e0 c8 71 4d 3c bd cd af 3d d8 06 ff bb 42 22 91 3d
       0.012539335 0.08584163 -0.0077827983 0.07086612
0003f0 b8 9a 2a be 9a 7a 75 be 8e 9e ab bd 91 53 ab 3d
       -0.16660583 -0.2397255 -0.08379851 0.083655484

fc2.bias f4 [10]
000000 e3 9e 8b 3c f4 72 e2 3c aa 1b b2 3c 11 ef f5 bd
       0.017043537 0.027642705 0.021741707 -0.12008489
000010 d9 4a 5c 3d af 75 d3 bd 1d b8 e7 3d 73 e3 6f bd
       0.053782318 -0.10325181 0.11314414 -0.05856652
000020 40 7f 95 3d 65 f0 0c 3e
       0.07299662 0.13763578

exp_avg f4 [10, 1, 5, 5]
000000 3a 84 02 bb e7 91 1f bb 70 0a 97 bb 22 28 ed ba
       -0.001991524 -0.002434844 -0.0046093985 -0.0018093626
000010 c9 cb c2 bb 93 d0 9b 3b e8 11 2d 3b 53 f7 21 bb
       -0.0059447032 0.0047550886 0.0026408378 -0.0024714067
000020 0d 7f 27 bb 27 30 ab bb e5 26 8b 3b 05 25 40 3b
       -0.0025557906 -0.005224246 0.00424658 0.002931894
000030 fb 20 0f bb 86 5c ee ba c6 20 d4 ba da 71 5f 3b
       -0.0021839726 -0.0018185533 -0.0016184084 0.003409496
000040 98 54 26 3b 4e e0 80 3a 7b fa 9c 3b 8a 49 8c 3b
       0.0025380012 0.0009832473 0.004790602 0.0042812275
000050 6e bc 33 bb 68 ac 8a 39 eb 94 bf 3b 81 f2 15 3c
       -0.0027425545 0.00026449864 0.00584661 0.009152056
000060 a8 ef 0c 3c e0 4a 01 39 3a 02 38 39 e4 0c f4 b9
       0.00860206 0.00012330292 0.00017548437 -0.0004654891
000070 32 0d d3 3a 98 a5 87 3b fc b2 1f ba a3 67 77 3a
       0.0016101955 0.0041396134 -0.00060920394 0.00094377453
000080 f4 c4 06 b9 da 94 3a 3b e9 42 c7 3b 60 21 3d b8
       -0.00012852607 0.002847007 0.0060809744 -4.5092194e-05
000090 c0 f9 1f b8 90 b3 f0 3a 1c 08 d8 39 3e 60 0b 3b
       -3.8141152e-05 0.0018364061 0.00041204772 0.0021267082
0000a0 9e e4 85 3b 72 4e 9e 3a 8c b8 1e 3a 20 49 ec b9
       0.004086091 0.0012077822 0.00060547213 -0.0004506791
0000b0 d4 24 07 ba 1e 13 1d 3c 90 af e0 3b 74 3e 3b 3b
       -0.0005155329 0.009587077 0.006856866 0.002857116
0000c0 8a 20 36 3b 8e 90 28 bb 8c 91 10 3b 70 9a f7 3a
       0.002779039 -0.0025720927 0.002205941 0.001889063
0000d0 19 14 50 3b d9 bd 0c 3b 6f 94 82 ba 00 98 0b 3b
       0.003175026 0.0021475463 -0.000996245 0.0021300316
0000e0 de e3 29 3b 4b 25 c4 3b 96 57 81 3b 4c cb 17 bb
       0.0025923173 0.005985891 0.0039472086 -0.0023161946
0000f0 e8 ad e4 3a 73 b0 49 3b 1d e3 ab 3b ce 62 02 3b
       0.0017446848 0.0030775338 0.00524558 0.0019895318
000100 36 09 57 bb 5a 85 98 ba c0 eb 9e b9 ae b2 f5 39
       -0.0032811887 -0.0011636422 -0.00030311756 0.00046863168
000110 64 be de 3a 82 1f 0c bb 3e 01 5e bb 08 fd a2 bb
       0.0016993997 -0.0021381085 -0.0033875252 -0.0049740113
000120 10 88 96 bb 5e fe 39 bb 0d d8 5c bb ad 12 4d bb
       -0.0045938566 -0.0028380374 -0.0033698112 -0.003129165
000130 4b 82 be ba 3c 57 91 b9 58 ab 18 3a 03 89 41 3b
       -0.001453468 -0.0002772155 0.0005823872 0.0029531128
000140 66 61 77 bb ec db 29 bb 5c 9f e6 ba 2e 48 f7 39
       -0.0037747263 -0.0025918437 -0.00175951 0.0004716529
000150 5a 18 54 3b b4 5c 69 bb b0 62 09 bb ed c1 8f b9
       0.0032363147 -0.0035608234 -0.0020963363 -0.0002741957
000160 32 e1 4e 3b df a7 c3 3b b9 48 d5 b9 a9 a0 25 bb
       0.0031567332 0.0059709395 -0.00040680708 -0.0025272763
000170 c3 34 be ba 02 77 82 3b 66 88 a3 3b bc f0 b6 3a
       -0.0014511574 0.003981472 0.004990625 0.0013957242
000180 15 99 20 ba f7 a9 a7 ba 6c 67 bb 3a cc 8d 9a 3a
       -0.00061263266 -0.0012791742 0.001429779 0.0011791526
000190 b8 2a 6c 3b 40 37 2e 3b 58 97 14 ba ea 33 b1 3a
       0.0036036205 0.0026583225 -0.0005668304 0.00135195
0001a0 42 a9 c4 3b e4 46 e8 3b 70 56 61 3b 86 46 07 3b
       0.0060016224 0.007088529 0.0034383796 0.00206414
0001b0 1c 73 23 3b f0 b9 e9 3b 33 2c 05 3c 29 de b8 3b
       0.0024940437 0.007132761 0.008128214 0.005641718
0001c0 1c bf ea 3b 6d d4 de 3b 22 b6 09 3c 22 d9 f7 3b
       0.0071638953 0.0068002255 0.00840524 0.007563726
0001d0 48 19 16 3c 49 b4 24 3c d0 77 c3 3b 52 80 d2 3b
       0.009161301 0.010052749 0.0059652105 0.0064239884
0001e0 91 5d 6b 3b fa 60 da 3b 2a 34 ec 3b bf db 99 3b
       0.0035913924 0.0066643925 0.007208367 0.004695385
0001f0 da 22 9c 3b ff cb 97 3b b8 a2 6f 3b b8 01 c1 b9
       0.004764897 0.0046324725 0.0036565494 -0.0003681311
000200 74 a4 9a ba b8 20 0d bb 34 05 51 3c 05 bf 29 3c
       -0.0011798278 -0.0021534394 0.012757588 0.010360484
000210 b6 f8 d2 3b 7f 43 b5 3a 8b c3 33 ba 0f da 2b 3c
       0.00643834 0.001382932 -0.0006857446 0.010489001
000220 78 f6 0a 3c eb 99 a8 3b 8d 31 ee 3a 93 82 db ba
       0.008481614 0.0051453016 0.0018172726 -0.0016747288
000230 6a eb 16 3c 6a bc fa 3b ce 41 b3 3b 9e ad 63 3b
       0.0092114005 0.0076518552 0.005470491 0.0034740935
000240 03 1c 5d ba 82 42 6f 3b 4b 8a 2f 3b 4c f3 e0 3a
       -0.0008434655 0.0036508148 0.002678531 0.0017162352
000250 20 96 00 3b 9c ab 06 ba 31 b9 ad 3a ee c4 2d 3b
       0.0019620731 -0.0005137266 0.0013254044 0.0026515084
000260 02 d1 40 3b b5 29 a4 3b 0e a0 ac 3b 24 76 f1 3a
       0.0029421453 0.0050098547 0.0052681034 0.001842205
000270 b5 97 69 3b 9c fd 7a 3b f2 4a bf 3b ac c4 ad 3b
       0.0035643403 0.0038298136 0.0058377916 0.005302986
000280 05 79 8d 3a 05 1b 46 3b a1 60 29 3b 1e 43 a5 3b
       0.0010793513 0.0030228507 0.0025844949 0.0050434014
000290 40 59 a1 3b aa 19 2d 3a 66 41 ad 3a 1b ba 11 3a
       0.0049239695 0.00066032505 0.0013218343 0.0005559043
0002a0 5b 1e 20 3b 2f 0c 83 3b dc e8 3d 39 00 04 cd b7
       0.0024432156 0.003999255 0.00018111191 -2.4439767e-05
0002b0 9a 30 92 3a fe 43 2b 3b fc 30 5c 3b 60 e1 85 39
       0.00111534 0.0026133056 0.0033598533 0.00025535654
0002c0 64 3b e1 3a 20 ff 7d 3b 0c b3 8c 3b 2e a4 99 3b
       0.0017183837 0.0038756803 0.004293805 0.004688761
0002d0 d6 ea be ba 60 86 93 38 48 ff 16 3b 88 a9 3f b9
       -0.0014565836 7.0345355e-05 0.0023040343 -0.00018278335
0002e0 bf a3 9b ba 34 0e 27 bb 40 95 55 ba cc 0a dc ba
       -0.0011874362 -0.0025490643 -0.0008147545 -0.0016787886
0002f0 0a d6 66 bb b5 c0 94 ba 91 d1 26 bb ef 58 d0 ba
       -0.0035222792 -0.0011348935 -0.00254545 -0.0015895645
000300 52 0d 76 bb 22 bb ad ba 79 d6 3a ba 58 0a ae b9
       -0.003754456 -0.0013254622 -0.0007127296 -0.00033195573
000310 f8 5a 55 b9 c0 21 d7 ba 73 50 a7 ba 29 f2 af ba
       -0.00020347151 -0.0016413257 -0.0012765065 -0.001342361
000320 7e 57 86 bb 31 ca 61 bb 81 a5 f7 ba ed d2 e0 3a
       -0.0040997854 -0.003445279 -0.0018893928 0.0017152705
000330 49 3a 5a 3b 98 56 73 bb 32 ce 2c bb a8 10 88 ba
       0.00332989 -0.0037130471 -0.002636802 -0.001038094
000340 3c 6b e6 3a fd c6 23 3b cf 9a 95 bb 30 95 c4 ba
       0.0017579566 0.0024990432 -0.0045655738 -0.0014998075
000350 ee 70 9b b9 dc bf 90 3a 9e 4b 59 3a b6 3e 71 bb
       -0.00029648043 0.0011043507 0.0008289161 -0.003681106
000360 ea 55 aa ba 88 af 55 ba d2 02 45 3a 80 04 35 3a
       -0.0012995575 -0.00081514614 0.0007515374 0.00069052726
000370 71 39 ef ba d3 5b 55 ba a1 84 bf ba a0 76 a3 b8
       -0.0018251372 -0.0008138988 -0.001461167 -7.794541e-05
000380 1c ec f5 3a 34 cd 90 bb 42 f1 fd bb a4 98 9a bb
       0.0018762383 -0.0044189934 -0.0077497074 -0.004717903
000390 1f 69 81 3a 02 d2 b0 3b bd f3 c9 bb 76 55 e2 bb
       0.0009873247 0.0053961286 -0.006163089 -0.0069071604
0003a0 17 c7 c2 ba 74 6d 81 3b 60 8a 8e 3b c0 b5 e5 bb
       -0.0014860359 0.0039498154 0.0043499917 -0.0070101917
0003b0 25 27 d7 bb b6 df 9b 3a bc 90 64 3b e1 82 6d 3b
       -0.0065659457 0.0011892233 0.0034876307 0.003624134
0003c0 22 12 2c bb 4e 24 67 bb 5d 31 48 3b 62 c8 82 3b
       -0.0026255925 -0.0035269442 0.0030547 0.0039911726
0003d0 c2 d4 09 3b 1c 0e a1 3a 6c 14 70 3a a2 0f 9f 3b
       0.0021031355 0.001228753 0.00091583165 0.0048541585
0003e0 dc 1e 81 3b 46 3b 47 3a
       0.0039404463 0.000760008

exp_avg_sq f4 [10, 1, 5, 5]
000000 bd 2c 44 39 ca 9b 48 39 6b 82 46 39 40 28 5a 39
       0.00018708683 0.00019131522 0.00018931336 0.00020805094
000010 8a 36 8b 39 cb ae 40 39 b2 f4 56 39 e8 9f 50 39
       0.0002655278 0.00018375662 0.00020499786 0.00019895996
000020 00 63 39 39 43 2b 6a 39 5a b6 50 39 6f 60 44 39
       0.00017679855 0.00022332095 0.00019904357 0.00018727941
000030 50 0c 74 39 ec 66 37 39 65 5a 3e 39 79 08 66 39
       0.0002327424 0.00017490581 0.00018153487 0.00021937666
000040 4c 25 4a 39 24 e5 59 39 c5 b6 5a 39 4b 2e 61 39
       0.00019278115 0.00020780094 0.00020858187 0.00021474918
000050 21 5a 78 39 9e d5 53 39 58 ef 55 39 7d ac 73 39
       0.00023684699 0.00020202107 0.00020402425 0.00023238543
000060 1f c3 79 39 d8 04 a1 39 59 e2 9d 39 dc be a5 39
       0.00023819179 0.00030711922 0.00030114016 0.00031613454
000070 c5 ef a1 39 4a a3 90 39 50 ee 93 39 8a 7f 8a 39
       0.00030886955 0.0002758748 0.00028215582 0.00026416435
000080 c5 e6 91 39 bc 1d 83 39 69 fc 78 39 b2 3e 89 39
       0.00027828492 0.0002500842 0.00023745153 0.00026177388
000090 64 3b 60 39 1d c3 3d 39 1d c0 40 39 6d aa 67 39
       0.0002138443 0.0001809713 0.00018382115 0.00022093365
0000a0 06 45 6a 39 65 ed 39 39 f7 00 27 39 c7 5c 42 39
       0.00022341692 0.00017731411 0.0001592672 0.00018535844
0000b0 7e 8b 57 39 84 41 47 39 a7 7c 27 39 ad 55 25 39
       0.00020555963 0.00019002525 0.00015972798 0.00015767543
0000c0 43 83 23 39 26 fc 45 39 08 87 ec 39 3f 2c c4 39
       0.0001559379 0.00018881317 0.00045114034 0.00037417
0000d0 50 c9 8b 39 cb fd 56 39 3b ec 3f 39 6a c1 00 3a
       0.00026662135 0.00020503176 0.00018303182 0.00049116334
0000e0 da 13 d8 39 02 5d 95 39 aa 02 46 39 7b 2e 35 39
       0.0004121352 0.0002848879 0.00018883744 0.0001727882
0000f0 05 98 02 3a 29 13 d4 39 00 0e 8a 39 93 7c 30 39
       0.0004981759 0.00040450066 0.00026331842 0.00016831075
000100 34 1a 40 39 71 45 e2 39 94 a6 b8 39 13 b1 5e 39
       0.00018320308 0.00043157817 0.00035219325 0.00021237535
000110 a8 56 3e 39 a4 30 48 39 05 c9 c7 39 20 95 9e 39
       0.00018152094 0.00019091606 0.0003810601 0.00030247215
000120 96 38 5b 39 f6 47 5e 39 8f 10 49 39 7c 4e f3 38
       0.00020906547 0.00021198377 0.00019175022 0.00011601762
000130 a6 5e fe 38 ba 34 02 39 0d 79 1c 39 ea e0 29 39
       0.000121292935 0.00012417408 0.00014922414 0.00016200883
000140 bf 91 05 39 ab 00 04 39 80 fb 09 39 54 3b 24 39
       0.00012738163 0.0001258875 0.00013159029 0.0001566236
000150 52 4f 20 39 12 16 10 39 c2 a1 01 39 92 6f 0c 39
       0.00015288338 0.00013741132 0.00012362658 0.00013393004
000160 25 bf 10 39 72 f8 02 39 c9 64 11 39 86 62 fb 38
       0.00013804117 0.00012490319 0.00013865823 0.00011986964
000170 10 9c f8 38 53 7b f5 38 c2 bb f0 38 42 09 0a 39
       0.000118546304 0.00011705481 0.000114790644 0.00013164154
000180 aa 6c 0b 39 2f 20 05 39 40 30 fe 38 e4 ea fd 38
       0.00013296554 0.00012695858 0.00012120651 0.00012107732
000190 5c 40 e6 39 3f 3d ef 39 12 e7 02 3a c9 16 0f 3a
       0.0004391697 0.00045631264 0.00049935386 0.00054584123
0001a0 ec db 12 3a e7 b4 00 3a 70 61 08 3a 6f e1 12 3a
       0.0005602229 0.0004909769 0.00052025076 0.000560305
0001b0 ee 9c 1b 3a cb f5 13 3a 8f 58 f7 39 1e 5b de 39
       0.0005936165 0.0005644231 0.00047177493 0.00042411027
0001c0 e5 b7 d1 39 c1 20 de 39 14 7d f8 39 64 88 cf 39
       0.00040000599 0.00042367543 0.00047395437 0.00039583736
0001d0 73 74 ad 39 46 65 a6 39 a0 55 ae 39 d2 25 cc 39
       0.00033083893 0.00031737442 0.00033251662 0.0003893809
0001e0 22 bf c1 39 db 42 ac 39 28 b3 ac 39 57 c0 ad 39
       0.00036954234 0.00032856208 0.00032939878 0.00033140436
0001f0 97 e1 c6 39 eb 59 70 39 81 8f 6c 39 b6 4c 6e 39
       0.0003793358 0.0002292168 0.00022560173 0.00022726026
000200 58 84 71 39 24 ef 86 39 65 6f 98 39 16 08 88 39
       0.00023032853 0.00025736645 0.00029074695 0.00025945966
000210 45 20 86 39 0e 21 89 39 9c de 8c 39 fa b7 9b 39
       0.00025582514 0.00026155304 0.00026868738 0.00029700977
000220 93 c5 8d 39 94 92 80 39 64 82 83 39 42 21 90 39
       0.0002704082 0.00024523272 0.00025083416 0.000274906
000230 ad c6 a2 39 2c 89 a0 39 78 fc 8b 39 26 01 92 39
       0.00031047073 0.0003061978 0.0002670025 0.00027848146
000240 f7 6b 9d 39 2d 95 b8 39 0d e3 b2 39 a6 c6 96 39
       0.00030025814 0.0003520636 0.00034119972 0.00028758234
000250 1e cb a0 39 a0 7b af 39 f1 72 bc 38 06 2d b9 38
       0.00030668912 0.0003347071 8.985948e-05 8.829874e-05
000260 52 20 bb 38 0e 16 bc 38 a5 9c c6 38 69 77 bb 38
       8.922875e-05 8.9686466e-05 9.470553e-05 8.939097e-05
000270 79 cc b7 38 af 11 b3 38 d3 af ab 38 54 dc b5 38
       8.764206e-05 8.538679e-05 8.186665e-05 8.671792e-05
000280 59 76 b0 38 8d 2e b4 38 5e 67 b1 38 4d a0 b5 38
       8.414378e-05 8.5917396e-05 8.459271e-05 8.660611e-05
000290 8f fd be 38 48 c8 b2 38 02 b3 ad 38 10 38 b0 38
       9.107135e-05 8.525007e-05 8.282626e-05 8.4027764e-05
0002a0 13 30 c7 38 36 0d dd 38 9b 35 c3 38 91 51 c9 38
       9.498014e-05 0.00010540562 9.3083094e-05 9.59962e-05
0002b0 c0 15 c4 38 d9 98 d8 38 41 5e dd 38 7c 95 04 39
       9.3500596e-05 0.00010328153 0.00010555657 0.00012644188
0002c0 0b e0 f6 38 b0 7a dd 38 35 db e6 38 dd 2e e7 38
       0.00011771925 0.000105609535 0.00011008085 0.00011023667
0002d0 d5 bb 00 39 3c 98 e4 38 2a 7e ba 38 68 f1 d3 38
       0.00012277004 0.00010900243 8.892671e-05 0.000101062295
0002e0 cf 35 d6 38 3c 79 ff 38 b1 68 d1 38 6c 70 bb 38
       0.00010214338 0.00012181929 9.985397e-05 8.937795e-05
0002f0 71 6f e3 38 56 d2 c1 38 b1 bd ee 38 f1 10 cd 38
       0.00010844961 9.242135e-05 0.00011384057 9.778317e-05
000300 57 eb f5 38 6d e7 e3 38 a2 59 a8 38 ed c8 d8 38
       0.00011726346 0.0001086731 8.02756e-05 0.00010337108
000310 01 26 ed 38 71 f1 fc 38 3b b6 da 38 3c 65 b0 38
       0.000113081194 0.00012061268 0.00010428993 8.41119e-05
000320 f5 94 fb 38 3b e3 f4 38 28 f5 f3 38 b9 33 f8 38
       0.00011996358 0.000116771516 0.00011632807 0.000118351956
000330 1e 00 07 39 d9 bd e6 38 93 b8 d7 38 34 5c e2 38
       0.00012874647 0.000110026165 0.000102863785 0.00010793694
000340 3c 71 ee 38 e6 a5 e9 38 5e bf e6 38 8a 36 db 38
       0.00011369816 0.00011141207 0.000110028996 0.000104528925
000350 ac 14 dd 38 91 f7 d9 38 2d b8 cc 38 10 82 e2 38
       0.000105419516 0.00010393479 9.7617834e-05 0.00010800746
000360 0f 83 e0 38 ec fc d9 38 23 d8 d5 38 42 4a d6 38
       0.00010705564 0.00010394477 0.0001019689 0.00010218147
000370 46 87 fc 38 9f 42 f8 38 d6 00 e8 38 74 94 ee 38
       0.00012041493 0.00011837971 0.00011062778 0.00011376376
000380 d9 9d 0d 39 fe e8 33 39 95 b8 5c 39 c2 00 60 39
       0.0001350561 0.00017157567 0.00021049597 0.00021362587
000390 ab bc 6c 39 05 4b 94 39 44 d3 58 39 52 41 6e 39
       0.00022576998 0.00028284654 0.00020678068 0.00022721782
0003a0 51 90 5b 39 f5 fa 83 39 0c 6e a1 39 aa a8 80 39
       0.0002093923 0.00025173245 0.00030790304 0.00024539727
0003b0 3b 1b 4f 39 38 71 50 39 8a 24 8a 39 7e 90 a5 39
       0.00019751202 0.00019878603 0.00026348635 0.00031578908
0003c0 42 15 82 39 72 e2 41 39 2a f7 5f 39 1d 64 90 39
       0.0002481137 0.00018490272 0.00021359013 0.0002754041
0003d0 83 2c a9 39 3a 76 70 39 5b 11 4a 39 45 42 65 39
       0.00032267356 0.00022932226 0.00019270687 0.00021863829
0003e0 a1 e4 90 39 2f f9 a4 39
       0.00027636162 0.00031466174

exp_avg f4 [10]
000000 c6 1c 0e 3c 34 d6 20 3b d0 d5 ed 39 da 38 37 3b
       0.008673852 0.0024541738 0.00045363465 0.002795747
000010 56 66 3e bb 38 66 0b 3a 80 12 5d bb b0 30 d4 39
       -0.0029052696 0.0005317661 -0.003373295 0.00040472066
000020 96 4a 97 3a 67 d6 d7 bb
       0.0011542614 -0.006586838

exp_avg_sq f4 [10]
000000 8b bf b5 39 9c 95 e1 39 67 f1 de 39 82 b4 09 39
       0.0003466572 0.00043026812 0.00042522998 0.00013132583
000010 18 9d b9 39 68 62 e7 39 f1 bf b9 38 27 2f 0a 39
       0.00035402994 0.00044133072 8.857239e-05 0.00013178271
000020 7d 35 ff 38 7b 90 c8 39
       0.000121693105 0.0003825462
