CODES_and_STUFF/checkpoint/model_epoch2.pth (torch, 270767 bytes, 24 tensors)

conv1.weight f4 [10, 1, 5, 5]
0	0x3e9345b4	0.28764117
1	0x3e8c1f2e	0.27367538
2	0x3d413edb	0.047179084
3	0xbedf3b95	-0.43600145
4	0xbeac9e6d	-0.3371462
5	0x3d007b20	0.03136742
6	0x3ed3b8f4	0.41352046
7	0x3ef48c7a	0.47763425
8	0x3db94ecd	0.09048233
9	0xbe5c16ed	-0.2149312
10	0xbea466ae	-0.32109588
11	0x3ea6812a	0.3252042
12	0x3eb31ed9	0.34984472
13	0x3e315df8	0.17321002
14	0xbea49f04	-0.3215257
15	0xbd7fda29	-0.062463913
16	0xbd80ee3f	-0.06295442
17	0x3ea4cf6b	0.32189497
18	0x3ec596c8	0.385916
19	0x3e6aeb1d	0.22941251
20	0xbe2a8e13	-0.1665576
21	0xbe49c015	-0.1970218
22	0x3ddc0f3b	0.107450925
23	0x3ee0a915	0.43879
24	0x3e4efccb	0.2021362
25	0xbe8ab4f5	-0.27091184
26	0xbe36ceb2	-0.17852286
27	0xbeb0ae0f	-0.34507796
28	0xbe5b3eb2	-0.21410635
29	0xbcc19c53	-0.023634112
30	0xbdb33c4a	-0.087517336
31	0xbcc0d57c	-0.023539297
32	0xbe786f27	-0.24261151
33	0xbe966d8a	-0.29380447
34	0xbe8d5e87	-0.2761118
35	0x3e8332fb	0.25624833
36	0x3d411609	0.047140155
37	0xbe251582	-0.16121486
38	0x3e9ecb04	0.31014264
39	0x3e8cb7ac	0.2748388
40	0x3e4c8248	0.19971573
41	0x3d6cd49c	0.057819948
42	0x3edabe71	0.4272342
43	0x3e711e7c	0.23546785
44	0x3e9cc487	0.30618688
45	0xbe45cd5b	-0.19316618
46	0x3e91323a	0.28358632
47	0x3e9086ed	0.2822794
48	0x3c6a7677	0.014310471
49	0xbe8201c1	-0.25391963
50	0xbe90487d	-0.28180304
51	0xbe3d9630	-0.18514323
52	0x3dcbd972	0.09953584
53	0x3ec8ae54	0.39195502
54	0x3e40b096	0.18817362
55	0xbe287735	-0.16451724
56	0xbd149ae1	-0.036280517
57	0xbdd0a560	-0.10187793
58	0x3e160bf8	0.14653003
59	0x3eb775ff	0.3583221
60	0xbc781258	-0.015141092
61	0x3c934a3b	0.017979732
62	0xbe0ad88b	-0.13559167
63	0x3e1fc29c	0.15601581
64	0x3ebf40f0	0.3735423
65	0xbe988dc2	-0.29795653
66	0xbe8a0744	-0.26958668
67	0xbe90e8fe	-0.2830276
68	0x3e9dbf9c	0.3081025
69	0x3e8a5019	0.27014235
70	0xbe16a1a7	-0.14710103
71	0xbe253491	-0.16133334
72	0xbe08a7f8	-0.13345325
73	0x3e37a6ef	0.17934774
74	0x3ed29c6f	0.41134974
75	0xbe034656	-0.128198
76	0xbbfb0cf2	-0.0076614553
77	0xbe8d11b9	-0.27552584
78	0x3dac9c0e	0.084282026
79	0x3d506ee0	0.05088699
80	0xbe31c421	-0.17359973
81	0xbe588b22	-0.21146825
82	0x3c945a10	0.018109351
83	0x3ce9004d	0.028442526
84	0x3d7d125e	0.061785094
85	0x3c8ad4f8	0.016947255
86	0xbd649a1b	-0.05581103
87	0x3e21d2da	0.1580309
88	0xbdfffff9	-0.12499995
89	0x3d11c3c2	0.03558708
90	0xbd077b93	-0.033076834
91	0x3d90f49d	0.07077906
92	0xbdb88474	-0.090096384
93	0xbdcb8292	-0.09937014
94	0xbe3ac74c	-0.18240088
95	0x3e95b78b	0.29241595
96	0x3eabc85d	0.33551303
97	0x3e762dd0	0.24040914
98	0x3e13ee30	0.1444633
99	0x3e79961f	0.24373673
100	0x3e34f021	0.17669727
101	0x3d354a70	0.044260442
102	0x3e058b02	0.13041309
103	0x3e08bdf0	0.13353705
104	0x3e529f2a	0.20568529
105	0x3e6c6f6e	0.23089382
106	0x3e6b6409	0.22987379
107	0x3ebccc40	0.3687458
108	0x3eb68962	0.3565169
109	0x3e57f7ca	0.21090618
110	0x3de8135c	0.113318175
111	0xbcb4d8f5	-0.02207611
112	0x3d3b00c9	0.045655046
113	0x3d914d7a	0.070948556
114	0x3e63146e	0.22175762
115	0xbea3250d	-0.31864205
116	0xbe33fbf9	-0.17576589
117	0xbe5b5545	-0.21419246
118	0xbe5a27c3	-0.2130423
119	0xbe0adbaf	-0.13560365
120	0xbeb90491	-0.36136296
121	0xbe88d26f	-0.26723048
122	0xbe9112e7	-0.28334734
123	0xbec1c395	-0.3784453
124	0xbeab2c98	-0.3343246
125	0x3e35ca70	0.17753005
126	0x3ec6fb81	0.38863757
127	0x3e7899a0	0.24277353
128	0x3e4dfc3c	0.20115751
129	0x3ddffa6a	0.109364346
130	0x3e11f53e	0.14253709
131	0x3d18a0e7	0.037262823
132	0x3eada712	0.33916527
133	0x3e96bb16	0.2943961
134	0x3e20a819	0.15689124
135	0xbe7db70d	-0.2477686
136	0xbc950885	-0.018192539
137	0xbe58bab6	-0.21164975
138	0x3d1de067	0.038544085
139	0x3d8ac7f1	0.06776417
140	0xbed71612	-0.42009026
141	0xbde337ad	-0.11094604
142	0xbea308b0	-0.31842566
143	0xbc3fae83	-0.011699322
144	0xbdda5ab6	-0.10661833
145	0xbe6b6728	-0.2298857
146	0xbea1cbe3	-0.31600866
147	0x3ca90f2d	0.02063712
148	0xbda2b896	-0.07945363
149	0x3cc0fee2	0.023559038
150	0xbd1285b3	-0.035772037
151	0xbb2ac4b3	-0.0026057183
152	0xbcf81646	-0.030284058
153	0xbd7d82c1	-0.061892275
154	0xbde22164	-0.11041525
155	0xbda66a0a	-0.08125694
156	0xbd20c4ac	-0.03925006
157	0xbe12c838	-0.1433419
158	0xbe185121	-0.14874698
159	0xbcb498a6	-0.022045445
160	0x3d87921f	0.06619667
161	0x3d47f48f	0.048817214
162	0xbdf2604e	-0.11834775
163	0x3ddc084a	0.107437685
164	0xbe183f89	-0.14867987
165	0xbdf00e4a	-0.117214754
166	0xbe3685cf	-0.17824481
167	0x3cdab6df	0.026698528
168	0xbcd30f72	-0.0257642
169	0x3e0798b2	0.13241842
170	0xbdcab8cb	-0.09898528
171	0x3e73cf9c	0.23809665
172	0xbdb6589c	-0.0890362
173	0x3d9cd0f9	0.07657046
174	0xbd9b9f56	-0.0759875
175	0xbe539b2c	-0.20664662
176	0xbe395170	-0.18097472
177	0xbe1708bb	-0.14749424
178	0xbcee18cc	-0.029064558
179	0x3deecd96	0.11660306
180	0xbdb48d0f	-0.08815967
181	0xbea51806	-0.3224489
182	0x3aa7aa36	0.0012791816
183	0xbb7a40aa	-0.0038185515
184	0x3ea19be6	0.31564254
185	0xbe98a146	-0.29810542
186	0xbe7ae3e0	-0.2450099
187	0x3e2ac845	0.1667796
188	0x3ec092fa	0.37612134
189	0x3e9a1718	0.30095744
190	0xbe1ea5c7	-0.15492927
191	0xbe1b6031	-0.15173413
192	0x3ec2387e	0.37933725
193	0x3ec2dd61	0.38059524
194	0x3d1fdd6b	0.03902952
195	0xbd9893e9	-0.074500866
196	0x3e90ac34	0.2825638
197	0x3e09631a	0.1341671
198	0x3e02602e	0.12732002
199	0xbdae540a	-0.08512123
200	0x3e368bde	0.17826793
201	0xbde22a59	-0.110432334
202	0xbe31dcab	-0.17369334
203	0x3cbe68d6	0.023243349
204	0xbd6bf57d	-0.057607163
205	0x3d8d9d0d	0.06914721
206	0xbe15fa52	-0.14646271
207	0xbe07599a	-0.13217774
208	0xbcfaaef3	-0.030601
209	0x3d1fd36a	0.03901998
210	0x3c8b2e75	0.016989926
211	0xbe03bb18	-0.1286434
212	0xbe82e23c	-0.25563228
213	0x3d85e32b	0.065374695
214	0xbe3358c3	-0.17514329
215	0x3bf073ff	0.0073380466
216	0xbe846f5c	-0.2586621
217	0xbd9d9bb0	-0.07695711
218	0xbdb97942	-0.09056331
219	0xbda51418	-0.08060473
220	0xbbba6920	-0.0056888014
221	0xbd5a0b8a	-0.05323366
222	0xbe4e14bb	-0.20125096
223	0xbdab2e56	-0.08358447
224	0x3dd25248	0.102696
225	0x3eb367d1	0.35040143
226	0x3e23f8c8	0.16012871
227	0x3e5e948b	0.21736352
228	0x3dfea81b	0.12434407
229	0xbe285d4b	-0.16441838
230	0x3ec47ed4	0.38378012
231	0x3e34b135	0.17645724
232	0xbd9eaeb4	-0.07748166
233	0x3d5b84dc	0.0535935
234	0xbd41b69a	-0.047293283
235	0x3ec9bb1d	0.3940057
236	0x3e5c014e	0.21484873
237	0xbd5a536a	-0.053302206
238	0xbe2d7e60	-0.1694274
239	0xbe407856	-0.18795905
240	0x3e8ce738	0.27520156
241	0xbd5ae0e5	-0.053437132
242	0xbe3c4bd5	-0.18388303
243	0xbde6d6d0	-0.11271441
244	0xbe9ae54a	-0.3025306
245	0x3e7f3008	0.24920666
246	0xbd427bdf	-0.047481414
247	0xbe04e984	-0.12979704
248	0xbe9d1b4e	-0.30684894
249	0xbe6668d6	-0.22500929

conv1.bias f4 [10]
0	0x3e68de77	0.22741114
1	0x3c956b6c	0.0182397
2	0xbe009eaf	-0.12560533
3	0x3e086721	0.1332059
4	0x3c8d11d2	0.017220411
5	0x3d85091c	0.06495878
6	0xbe44af40	-0.19207478
7	0x3ada0eee	0.001663653
8	0xbe47dd76	-0.19518074
9	0x3da9bbff	0.082878105

conv2.weight f4 [20, 10, 5, 5]
0	0xbd5c71d1	-0.05381948
1	0xbdbbd9fb	-0.09172436
2	0xbd324a55	-0.04352792
3	0xbe1488c9	-0.14505304
4	0xbd4d0ece	-0.050062947
5	0xbe450260	-0.19239187
6	0xbcaf0aac	-0.021367393
7	0xba9decd6	-0.0012048732
8	0xbe130d10	-0.14360452
9	0x3ce3f4ac	0.02782663
10	0xbdcc98eb	-0.09990104
11	0xbd2dcefe	-0.04243373
12	0xbc949337	-0.018136604
13	0x3d8e08c9	0.069352694
14	0xbbd8f867	-0.0066214087
15	0x3d0a7ee1	0.033812407
16	0xbd72194e	-0.059106164
17	0xbdc63c97	-0.09679525
18	0xbdd924d8	-0.106027305
19	0xbdb62d8f	-0.08895408
20	0x3d54fd90	0.05199963
21	0x3d725892	0.0591665
22	0x3d68d702	0.056845672
23	0x3dc54c45	0.09633688
24	0x3de4fb68	0.111807644
25	0xbd55c42c	-0.052189037
26	0xbd1ac131	-0.037781898
27	0xbcf2d829	-0.029644089
28	0x3e04c8d1	0.1296723
29	0x3e17a542	0.14809135
30	0xbc65a236	-0.014015725
31	0xbd739789	-0.059470687
32	0x3d36da8c	0.044642016
33	0x3df69287	0.120396666
34	0xbd46bc20	-0.048519254
35	0xbdcc97d5	-0.09989897
36	0xbc9caf84	-0.019126661
37	0xbd869e82	-0.06573202
38	0xbde6991f	-0.11259674
39	0xbd9ca559	-0.07648725
40	0x3de252f1	0.11050976
41	0x3e3e4c8c	0.18583888
42	0x3e31caf3	0.17362575
43	0x3e19d304	0.15021902
44	0x3d991c70	0.07476127
45	0x3e305d3e	0.17223069
46	0x3e23c4ae	0.15992996
47	0x3e025aa6	0.12729892
48	0x3d739839	0.059471343
49	0x3da9ea78	0.082966745
50	0xbe0d46b6	-0.13796505
51	0x3ae32cca	0.0017332074
52	0x3ddb696a	0.107134655
53	0x3d907f26	0.07055502
54	0xbd8a63b1	-0.06757296
55	0xbe88ff99	-0.26757506
56	0xbd2afbaa	-0.04174391
57	0x3972f229	0.0002316913
58	0x3c5b94aa	0.0134021435
59	0x3d91036b	0.0708073
60	0xbe8a7bdf	-0.2704763
61	0xbd53eaf5	-0.051737744
62	0xbd5aefb9	-0.053451274
63	0xbde91b41	-0.113821514
64	0xbe006eac	-0.12542218
65	0xbe20cf84	-0.15704161
66	0xbdc849f6	-0.09779732
67	0xbe4ed25d	-0.20197435
68	0xbe19b40f	-0.15010093
69	0xbe6b5364	-0.2298103
70	0x3d83a419	0.064277835
71	0xbd7d48c4	-0.061836973
72	0xbd27d7e0	-0.04097736
73	0x3cabc8fb	0.020969858
74	0xbd24bdcf	-0.040220078
75	0xbd0b14ca	-0.033955373
76	0x3da2fb2f	0.07958066
77	0x3ddae728	0.10688621
78	0x3db6957f	0.08915233
79	0x3cf3e5c7	0.029772652
80	0xba56e929	-0.0008198196
81	0xbd2625d1	-0.04056341
82	0x3cd2cd4a	0.025732655
83	0xbbf44530	-0.007454537
84	0xbd91e50a	-0.07123764
85	0x3cfe1d94	0.031019963
86	0x3d9e5fc2	0.07733108
87	0x3d1bc194	0.038026407
88	0xbcd85150	-0.02640596
89	0x3bf1d78a	0.0073804306
90	0xbd144f07	-0.03620818
91	0x3e043456	0.1291059
92	0x3e15a06c	0.14611977
93	0x3e00f759	0.12594356
94	0x3da3ff57	0.080076866
95	0x3c3eb3f1	0.011639581
96	0xbc724e03	-0.014789107
97	0x3cd6f28b	0.0262387
98	0xbbdaa67c	-0.0066726785
99	0xbcbf2ada	-0.023335863
100	0x3db59921	0.08867098
101	0xbc1324f8	-0.008980982
102	0xbcd14875	-0.025547246
103	0x3d4c0baf	0.04981583
104	0x3cff86a4	0.031192131
105	0x3d686a07	0.05674174
106	0x3e14f6c8	0.14547265
107	0x3dd82ee8	0.10555822
108	0x3e145e35	0.14489062
109	0x3dee3913	0.1163198
110	0x3dc8359e	0.09775852
111	0x3e195f28	0.14977705
112	0x3e45c51c	0.19313473
113	0x3e3727c1	0.17886259
114	0xbd751df3	-0.059843015
115	0xbca95570	-0.020670623
116	0xbde7e0b2	-0.11322154
117	0xbd6923cf	-0.056918915
118	0xbe0d8e76	-0.13823876
119	0xbe3c2e0b	-0.18376939
120	0xbbfb0e14	-0.0076615904
121	0xbdbc8a1c	-0.0920603
122	0xbd7ac5bd	-0.061223734
123	0x3c88d118	0.016701266
124	0x3dcee86d	0.101029254
125	0x3d4b8454	0.049686745
126	0x3d05ab85	0.032634277
127	0x3d4f69bc	0.050637946
128	0x3c54fc52	0.012999611
129	0x3d4731f6	0.04863163
130	0xbd0c5c9c	-0.034268007
131	0x3d82fd36	0.063959524
132	0x3cfae12c	0.030624948
133	0xbc93f34b	-0.018060347
134	0x3dcf6742	0.10127117
135	0xbd36d6fb	-0.044638615
136	0x3e17da69	0.1482941
137	0x3df18004	0.11791995
138	0x3e4be66a	0.19912115
139	0x3db86414	0.090034634
140	0xbcefdbef	-0.029279677
141	0xbdbf1e27	-0.09331923
142	0x3d1451f2	0.03621096
143	0xbdf77313	-0.120824955
144	0xbe25e994	-0.16202384
145	0x3c6bae05	0.014384751
146	0x3ade9cbb	0.0016983965
147	0x3ce2d4f0	0.027689427
148	0x3d00649d	0.031345952
149	0x3d01448e	0.03155952
150	0x3b7ddbc7	0.0038735734
151	0x3d83cee8	0.064359486
152	0x3d758503	0.059941303
153	0x3d362a65	0.044474024
154	0x3d38fa84	0.045160785
155	0xbce81a9a	-0.028332997
156	0xbc6b2065	-0.014350985
157	0x3c9e575b	0.019328764
158	0xbd3c60ab	-0.045990627
159	0xbc961487	-0.018320335
160	0x3cdbb0a1	0.026817622
161	0x3d15a7e1	0.036537055
162	0x3d505404	0.050861374
163	0x3d0dd510	0.03462702
164	0xbc514610	-0.012773052
165	0x3d0d2257	0.034456577
166	0xbc810eeb	-0.015754184
167	0xbc413f4c	-0.011794876
168	0x3cb41ac0	0.021985412
169	0xbc7633bb	-0.015026982
170	0xbd280137	-0.041016784
171	0xbcc9b3c4	-0.024621852
172	0xbd21171e	-0.039328687
173	0xbd0de45e	-0.034641616
174	0x3d2d539b	0.04231606
175	0xbd1b7429	-0.037952576
176	0xbd33667d	-0.043798912
177	0x3dbc7dc2	0.09203674
178	0x3d42c08b	0.047546905
179	0x3da18672	0.078869715
180	0xbc01a9e3	-0.007914039
181	0xbd76435c	-0.060122833
182	0x3de0f995	0.10985104
183	0x3deb63f5	0.11493675
184	0xbd3ad390	-0.045611918
185	0xbe74c66c	-0.23903817
186	0xbe1c74db	-0.15278952
187	0xbe3ad4db	-0.1824526
188	0xbe3c1de3	-0.18370776
189	0xbe2c9a3b	-0.16855709
190	0xbdcbde61	-0.09954525
191	0xbdda9e6a	-0.10674746
192	0x3c8ebd5a	0.017424274
193	0x3d96f0ac	0.07370123
194	0x3d16a9bc	0.036782965
195	0x3e1baef5	0.1520346
196	0x3d954f94	0.07290569
197	0x3cbef74e	0.023311283
198	0xbd397758	-0.04527983
199	0xbdc16b2d	-0.0944427
200	0xbd7ee3ec	-0.062229082
201	0xbc7ee00c	-0.015556347
202	0x3b1e22e7	0.002412969
203	0xbd24327f	-0.04008722
204	0xbd28e56b	-0.041234415
205	0xbcf6ab77	-0.030111058
206	0x3cc68886	0.024235021
207	0x3d1df09c	0.03855954
208	0x3cbf2b65	0.023336122
209	0x3ca164e7	0.019701434
210	0x3d060063	0.032715213
211	0x3d59997f	0.0531249
212	0x3db4e5c4	0.08832887
213	0x3c0f5e15	0.008750458
214	0x3c985737	0.018596275
215	0xbd0d18eb	-0.03444759
216	0x3d4275a9	0.04747549
217	0x3c030594	0.007996935
218	0xbd70adf6	-0.058759652
219	0xbd891744	-0.06693891
220	0xbdc825ad	-0.09772811
221	0xbdf6bad4	-0.120473534
222	0xbdbf990f	-0.093553655
223	0x39b3a767	0.00034266265
224	0xbd46a3ca	-0.048496045
225	0xbcc4fbf9	-0.024045931
226	0x3d186bc8	0.037212163
227	0x3c2cd291	0.01054825
228	0x3d3c185b	0.045921665
229	0xbb8403e4	-0.004028784
230	0xbd3442c7	-0.044008996
231	0xbd17a072	-0.037018247
232	0xbd2fe852	-0.042946167
233	0xbc05b421	-0.008160622
234	0xbc33b125	-0.0109675275
235	0x3bed44ed	0.0072408826
236	0xbdc9ffcd	-0.09863243
237	0xbd72275c	-0.059119567
238	0xbe59a4dc	-0.21254295
239	0xbe70fac3	-0.23533158
240	0xbde2c039	-0.1107182
241	0xbde5d2c7	-0.11221843
242	0xbe667170	-0.2250421
243	0xbe62ecb0	-0.22160602
244	0xbe218583	-0.15773587
245	0x3a5826bf	0.000824552
246	0xbbe12ad7	-0.006871562
247	0xbda947b4	-0.082656294
248	0xbdfb6e04	-0.12276843
249	0xbda06db8	-0.07833427
250	0x3b9c386d	0.0047674687
251	0x3da7652d	0.081735946
252	0x3d91b85c	0.07115242
253	0x3d153b91	0.03643376
254	0x3d33cad1	0.043894593
255	0xbe240b69	-0.16019978

conv2.bias f4 [20]
0	0xbcf7edf9	-0.030264841
1	0x3d1130ce	0.035446934
2	0xbc8e5ee6	-0.017379235
3	0xbb51555f	-0.0031941754
4	0xbd3244a3	-0.04352249
5	0x3ca555b7	0.020182474
6	0xbd26f2e7	-0.040758993
7	0x3c01c7bf	0.007921158
8	0xbd92caa6	-0.07167558
9	0xbd94e1e1	-0.072696455
10	0xbd5ca3d0	-0.05386716
11	0x3c5483dd	0.012970892
12	0xbca13f6f	-0.019683568
13	0x3c6d5baa	0.014487186
14	0xbcbc827c	-0.023011439
15	0x3d1293e8	0.035785586
16	0xbd77ca2c	-0.06049554
17	0x3b89ab23	0.0042013093
18	0xbd5d1c1b	-0.05398188
19	0xbcbd7397	-0.023126407

fc1.weight f4 [50, 320]
0	0xbd54946a	-0.05189935
1	0x3ca6b8fa	0.020351876
2	0x3d9674db	0.07346507
3	0xbd898236	-0.06714289
4	0xbd67197c	-0.05642079
5	0xbd1964cb	-0.03744964
6	0x3a9ca106	0.0011949844
7	0x3d452948	0.048135072
8	0x3d4fba8f	0.050715026
9	0x3ce8355c	0.028345756
10	0x3be2fc15	0.006927023
11	0x3d18e524	0.0373279
12	0x3dc5f4bc	0.0966582
13	0x3db97563	0.09055593
14	0xbc12ed97	-0.008967779
15	0xbe417943	-0.18893914
16	0x3bd1e81a	0.0064058425
17	0xbb9bce53	-0.0047548204
18	0x3c9fcb79	0.019506203
19	0xbc05368e	-0.008130683
20	0xbe105024	-0.14093071
21	0x3d0ed674	0.034872487
22	0xbb890285	-0.0041812086
23	0xbdefbc94	-0.1170589
24	0x3d38406e	0.04498332
25	0xbd31d7a8	-0.043418556
26	0xbdff936b	-0.124792896
27	0xbdca3908	-0.09874159
28	0x3d80a741	0.06281901
29	0x3d85c709	0.065321036
30	0x3da79e78	0.081845224
31	0xbdbe35ac	-0.09287581
32	0xbd1c9218	-0.038225263
33	0xbcc40412	-0.023927722
34	0xbdf4cfe7	-0.11953717
35	0xbcb2490e	-0.02176335
36	0x3d80a1a6	0.06280832
37	0xbd89d246	-0.067295596
38	0xbc35f6fc	-0.011106249
39	0x3d8e16b1	0.06937922
40	0xbd8e06d9	-0.069349
41	0x3b417b37	0.0029522905
42	0x3ce11899	0.02747755
43	0xbdcade27	-0.099056534
44	0x3ab8ec29	0.0014108467
45	0xbd15571e	-0.036460035
46	0x3c88e5c1	0.016711118
47	0x3d90cb1a	0.070699885
48	0x3c9dc650	0.019259602
49	0x3bfd2f70	0.0077266023
50	0xbd35cfc9	-0.044387612
51	0x3c941b30	0.01807937
52	0xbd2c85f2	-0.042119928
53	0x3cc00072	0.023437712
54	0xbab20ef7	-0.0013584782
55	0x3d803751	0.06260551
56	0xbd211faa	-0.039336838
57	0xbdf0e652	-0.1176268
58	0xbd1b2bfa	-0.037883736
59	0x3d880168	0.06640893
60	0x3c86ea2c	0.016469084
61	0x3d4cec0f	0.05002981
62	0x3dffe364	0.12494543
63	0xbd160569	-0.036626253
64	0x3cb3783b	0.021907916
65	0x3c38ac09	0.011271485
66	0xbd5d3c6e	-0.05401271
67	0xbe1bfe42	-0.1523371
68	0xbb69ece8	-0.0035694186
69	0x3c008740	0.007844746
70	0xbce9d744	-0.02854503
71	0x3bd47cdd	0.0064846114
72	0x3d7ee681	0.062231544
73	0x3ad98236	0.0016594592
74	0xbcc30d53	-0.023810064
75	0x3dab25a9	0.083567925
76	0x3d834861	0.064102896
77	0x3d81e915	0.06343285
78	0xbd5b3a3b	-0.05352233
79	0xbd68ef6d	-0.05686896
80	0xbda0b7ec	-0.0784758
81	0xbe1d812f	-0.15381311
82	0xbcbee148	-0.023300782
83	0xbd0de4be	-0.034641974
84	0xbd1d2657	-0.03836664
85	0x3d2ff416	0.042957388
86	0xbbc92eb1	-0.0061395993
87	0xbca66bd9	-0.020315098
88	0x3df3f6f6	0.119123384
89	0x3e35be5a	0.17748395
90	0x3d915c86	0.070977256
91	0xbd12bd14	-0.03582485
92	0xbcf0fecc	-0.029418372
93	0xbd8fe33b	-0.07025763
94	0xbd3f7bab	-0.0467488
95	0x3dad0c85	0.084496535
96	0xbc92578d	-0.017864013
97	0x3d8018a4	0.062547
98	0x3c801601	0.015635492
99	0xbe563ade	-0.20920894
100	0x3cc5a781	0.024127724
101	0x3d1dc237	0.038515296
102	0x3b9c66d6	0.004773001
103	0xbdd97133	-0.10617294
104	0xbb876cfe	-0.004132866
105	0xbdbdc602	-0.092662826
106	0x3b929a8e	0.0044739908
107	0xbce9d0cd	-0.028541947
108	0xbc9622df	-0.018327175
109	0xbb4e0e33	-0.003144157
110	0xbccd3556	-0.025049847
111	0xbd43f51b	-0.047841173
112	0xbd8f5a8f	-0.069996946
113	0xbc925bce	-0.017866042
114	0x3d5225f7	0.051305737
115	0x3e096783	0.13418393
116	0xbd0c3e44	-0.03423907
117	0x3a347edb	0.0006885358
118	0x3dab16bf	0.08353948
119	0x3d0773d0	0.03306943
120	0xb7cb45d0	-2.4231995e-05
121	0x3deac19d	0.1146271
122	0x3d7906d4	0.060797527
123	0x3cdc1d45	0.026869426
124	0x3d14a9e7	0.036294844
125	0xbdb9927b	-0.09061142
126	0xbd1c9a54	-0.038233116
127	0xbda5b53f	-0.080912106
128	0xbd0a5e70	-0.03378147
129	0xbcd2a211	-0.025712045
130	0xbc7c4b3e	-0.0153987985
131	0x3d8f5f7b	0.07000633
132	0xbd12bb74	-0.0358233
133	0x3b491d0f	0.0030687486
134	0xbaf0ba49	-0.0018366064
135	0xbdbd0a6c	-0.092305034
136	0x3cb80e22	0.022467677
137	0xbd9499e5	-0.072559156
138	0xbc6817c6	-0.014165824
139	0xbcaed5b1	-0.02134213
140	0xbc232265	-0.009956931
141	0x3da3febd	0.08007572
142	0x3c8aba49	0.01693453
143	0x3d3371a8	0.043809563
144	0x3d876445	0.06610922
145	0xbc4d5c80	-0.012534261
146	0xbe0598a3	-0.13046508
147	0xbdb2b6e9	-0.087262936
148	0xbd681b4b	-0.056666654
149	0xbd23142c	-0.03981416
150	0xbd130f39	-0.03590319
151	0xbd57bf03	-0.052672397
152	0x3d4613e0	0.048358798
153	0xbe09f82f	-0.13473581
154	0xbe25fc60	-0.16209555
155	0x3d5fb9e9	0.054620657
156	0x3e04e5a2	0.12978223
157	0x3df345a5	0.11878518
158	0xbcffff1e	-0.031249579
159	0xbcb419b3	-0.02198491
160	0xbd38935d	-0.04506241
161	0x3d535860	0.051597953
162	0xbb941733	-0.004519367
163	0x3cd965d7	0.026537819
164	0x3c0235a1	0.007947356
165	0x3c80303e	0.015648004
166	0x3cbfba51	0.023404272
167	0x3d3c6344	0.045993105
168	0xbca91b12	-0.020642791
169	0x3e1e37cb	0.15450971
170	0xbc63d3ea	-0.013905505
171	0xbdb32d08	-0.087488234
172	0xbb5cab43	-0.0033671416
173	0x3d948b8c	0.07253179
174	0xbd0ef302	-0.03489972
175	0xbd20907b	-0.039200287
176	0xbd10d05c	-0.035354957
177	0xbd043f9a	-0.032287218
178	0xbd3a44fb	-0.04547594
179	0xbd1d1ce7	-0.03835764
180	0xbe0869b9	-0.1332158
181	0xbc1c069c	-0.00952306
182	0xbdc5ff0b	-0.09667786
183	0xbd9070ce	-0.07052766
184	0x3dcfd68a	0.10148342
185	0x3dca1322	0.098669305
186	0xbcfab96f	-0.030606
187	0x3cf0176b	0.029308042
188	0x3d9fdb5f	0.078055136
189	0x3d43c82a	0.047798313
190	0x3debab8c	0.11507329
191	0x3d915417	0.07096117
192	0xbc995eb3	-0.018721914
193	0xbe6e96b2	-0.23299673
194	0xbd499f8d	-0.049224425
195	0x3d7a40b0	0.061096847
196	0xbcc9d4b2	-0.024637554
197	0xbe4450e7	-0.19171487
198	0xbd8ef792	-0.06980814
199	0xbcc1e4ca	-0.023668665
200	0xbd24e4ae	-0.04025715
201	0xbd337fb9	-0.043822978
202	0xbcb65f81	-0.022262337
203	0x3d286efd	0.04112147
204	0xbdc89eaa	-0.09795888
205	0xbda6675a	-0.081251815
206	0x3dd4935b	0.10379668
207	0x3dd6fdeb	0.1049765
208	0xbd65f9ea	-0.05614654
209	0xbc815375	-0.015786866
210	0x3da27415	0.07932297
211	0xba22d66f	-0.00062117627
212	0xbddcb453	-0.107765816
213	0xbd97b2ac	-0.07407126
214	0xbd61ab06	-0.05509474
215	0x3d95ae4f	0.07308637
216	0x3b52e310	0.0032178797
217	0xbdb5359c	-0.08848116
218	0xbdb13a72	-0.08653726
219	0xbe2fe9fc	-0.17179102
220	0x3dd84a86	0.10561089
221	0x3cf1f039	0.029533492
222	0xbdf6b2ad	-0.120457985
223	0xbe3ba19b	-0.18323366
224	0x3d0268b5	0.031838138
225	0xbcb91d7f	-0.022597073
226	0xbe04ec99	-0.1298088
227	0xbe101db8	-0.14073837
228	0x3e1e8ffe	0.15484616
229	0x3d91e89c	0.07124445
230	0xbe166258	-0.14685953
231	0x3d1d6b77	0.038432565
232	0x3d92c92f	0.07167279
233	0x3d2207ce	0.039558224
234	0xbdc0991b	-0.094042026
235	0x3c864319	0.016389417
236	0xbbcd8600	-0.0062720776
237	0xbe3de58a	-0.18544593
238	0xbe554c0e	-0.20829794
239	0x3ccd9786	0.025096666
240	0xbdb912c9	-0.09036786
241	0xbdb9d5b1	-0.090739615
242	0xbd0fa30f	-0.035067614
243	0xbd8778d9	-0.06614847
244	0x3d2eee9c	0.042708024
245	0xbcdec176	-0.027191859
246	0x3dc06610	0.09394467
247	0xbc93bbb2	-0.018033836
248	0xbcdc0b34	-0.02686081
249	0x3dc42606	0.09577565
250	0xbd0c6ab3	-0.034281444
251	0xbdbaea47	-0.09126716
252	0xbd6fc69e	-0.058539025
253	0xbd6d1666	-0.05788269
254	0x3c2e1283	0.010624531
255	0x3e1650f4	0.14679319

fc1.bias f4 [50]
0	0x3d5dc077	0.054138627
1	0xbc24a2b1	-0.010048554
2	0x3e18fa57	0.14939247
3	0xbbc1fd42	-0.0059200833
4	0x3d36dd5d	0.044644702
5	0x3c926bd9	0.017873691
6	0x3db8ce34	0.09023705
7	0x3d8b8a91	0.06813539
8	0x3c72f2b7	0.014828376
9	0x3d181f56	0.03713926
10	0x3da542e2	0.080693975
11	0x3db48f05	0.08816341
12	0x3dabaddb	0.0838277
13	0x3dd07d81	0.10180188
14	0x3d67b040	0.05656457
15	0x3da00c51	0.07814849
16	0x3c2faedb	0.010722841
17	0xbd4ce3ef	-0.050022062
18	0x3d4f7dc2	0.05065704
19	0xbc2faeef	-0.01072286
20	0x3d99db6a	0.07512553
21	0x3d4a5751	0.049399678
22	0x3d46a832	0.048500247
23	0x3d19cb0a	0.03754715
24	0x3cd62055	0.026138464
25	0x3cc462f3	0.023972964
26	0x3c328545	0.010896032
27	0x3df15a18	0.11784762
28	0x3dc089c4	0.09401277
29	0x3c8c25a7	0.017107798
30	0x3ae162c6	0.0017195574
31	0x3db7e423	0.089790605
32	0x3e04cd97	0.12969051
33	0xbc1af9d5	-0.009458979
34	0x3dc188d9	0.0944993
35	0x3cdc3a84	0.026883371
36	0x3c75cb1a	0.0150020365
37	0xbd74314f	-0.059617337
38	0x3e0171f5	0.12641127
39	0x3dc15b75	0.09441272
40	0x3d129ce6	0.03579416
41	0x3c05054c	0.008118939
42	0x3cab82cf	0.020936398
43	0x3e0701ba	0.13184252
44	0x3d795b93	0.060878348
45	0x3db1c1b3	0.08679523
46	0x3dbf72ae	0.09348045
47	0x3da2a1ac	0.07940993
48	0x3df0cb77	0.11757558
49	0x3c9352c3	0.0179838

fc2.weight f4 [10, 50]
0	0xbe84054a	-0.25785285
1	0xbe2a25ba	-0.16615954
2	0xbe660688	-0.22463429
3	0xbd970058	-0.073731124
4	0x3df25246	0.11832099
5	0xbe27d11b	-0.16388361
6	0xbe992315	-0.29909578
7	0xbe2f8888	-0.17141926
8	0xbe35b4bb	-0.17744724
9	0x3df57e23	0.11986949
10	0x3cfe920c	0.0310755
11	0xbe1a5b3e	-0.15073869
12	0xbe73ac46	-0.23796186
13	0x3dd81477	0.10550778
14	0xbda4eb74	-0.080527216
15	0xbe21b66d	-0.15792246
16	0x3d77369b	0.06035481
17	0xbe71e31d	-0.23621793
18	0xbe1bddd6	-0.15221342
19	0xbd6709f0	-0.05640596
20	0xbdc247e4	-0.09486368
21	0x3e4179a0	0.18894053
22	0x3de4e2e2	0.11176087
23	0xbe5841ef	-0.21118902
24	0x3e123a65	0.14280088
25	0xbd268ed9	-0.040663574
26	0x3db1530f	0.0865842
27	0xbe38a23a	-0.18030635
28	0x3ca7411f	0.020416794
29	0x3dc72e83	0.09725668
30	0xbe51f261	-0.20502616
31	0x3d8ce9fb	0.06880566
32	0xbdba3db5	-0.09093801
33	0x3deae013	0.1146852
34	0xbe525dd0	-0.20543599
35	0xbe3112c9	-0.17292322
36	0x3e346d14	0.17619735
37	0xbe2fd613	-0.17171507
38	0xbe0c4cee	-0.13701221
39	0x3dc19554	0.0945231
40	0x3dc55f29	0.09637291
41	0x3c481974	0.0122131
42	0xbdb90f6c	-0.090361446
43	0x3daf127a	0.08548446
44	0xbe9f4301	-0.31105807
45	0xbdb5cbb3	-0.08876743
46	0xbdde83a2	-0.10864951
47	0xbd4cdcb5	-0.05001517
48	0x3d5f46cf	0.054510888
49	0xbe9c1289	-0.3048289
50	0xbe237f3b	-0.15966503
51	0xbcfd34f6	-0.030909043
52	0x3e22de4b	0.1590511
53	0xbd241017	-0.040054407
54	0xbdf993d6	-0.121864006
55	0x3d022e09	0.031782184
56	0x3dc73b2d	0.09728084
57	0x3dd3e7be	0.10346936
58	0xbd15ec32	-0.036602207
59	0xbe599e82	-0.21251872
60	0xbab36329	-0.0013686168
61	0x3e3408aa	0.1758143
62	0x3dd1a22a	0.102360085
63	0x3db190a8	0.08670169
64	0xbdc68639	-0.0969357
65	0x3da64946	0.081194445
66	0xbe8b98f1	-0.27265123
67	0xbe217c19	-0.15769996
68	0x3ddfbab9	0.109242864
69	0xbdf4fba4	-0.11962059
70	0xbe43c540	-0.19118214
71	0xbe58e657	-0.21181618
72	0xbdfe2759	-0.12409849
73	0x3d860762	0.06544377
74	0xbe2ab3ce	-0.16670153
75	0x3e5fe810	0.21865869
76	0xbe957e7a	-0.29198056
77	0x3df2b865	0.11851577
78	0xbe7fd3b2	-0.24983099
79	0xbe3ffc23	-0.18748526
80	0xbe284ff5	-0.16436751
81	0xbd996d31	-0.0749153
82	0x3e320b1b	0.17387049
83	0x3b2cfeca	0.0026396983
84	0x3dd7923a	0.105259374
85	0x3d3128fe	0.043251984
86	0xbe6733fa	-0.22578421
87	0xbe6edc57	-0.2332624
88	0x3e1951eb	0.14972655
89	0x3d9e2637	0.07722133
90	0x3d893a03	0.06700518
91	0xbe2b11b4	-0.16705972
92	0xbe3eae2a	-0.18621126
93	0x3d890548	0.066904604
94	0xbe044ac6	-0.12919149
95	0x3da32dc5	0.07967714
96	0x3e49f8cb	0.19723813
97	0xbd0a234f	-0.03372508
98	0xbe866a0d	-0.26252785
99	0xbe0b9bc5	-0.1363364
100	0xbe8a04a6	-0.2695667
101	0x3dc3efbf	0.09567212
102	0xbe5477c5	-0.20748813
103	0x3de57825	0.112045564
104	0x3de54fdd	0.11196873
105	0xbe7a0eb3	-0.2441967
106	0xbe08d0d1	-0.13360907
107	0xbe20849c	-0.15675586
108	0xbe136e8e	-0.14397642
109	0x3da7c224	0.08191326
110	0x3ca9a6c0	0.020709395
111	0x3de87673	0.113507174
112	0xbd5319b2	-0.051538177
113	0xbdd30a61	-0.10304714
114	0x3c92defe	0.017928597
115	0x3d943d95	0.07238308
116	0xbdb0b0e6	-0.08627491
117	0x3a0da5fe	0.0005403458
118	0x3df8d0ee	0.12149225
119	0x3c36d5d4	0.011159379
120	0xbe0c4e45	-0.13701732
121	0xbd143c9b	-0.03619061
122	0x3d783b01	0.060603146
123	0x3d877870	0.066147685
124	0x3de01f6c	0.10943493
125	0xbd234cf8	-0.039868325
126	0xbe0d769c	-0.13814777
127	0xbe713c4a	-0.23558155
128	0xbe80eb43	-0.2517949
129	0xbd6eb6bb	-0.058279734
130	0x3d259570	0.040425718
131	0xbe4254a0	-0.18977594
132	0x3e297214	0.16547424
133	0x3dd3f460	0.10349345
134	0x3e0410fc	0.12897104
135	0x3d676b6d	0.056498934
136	0x3d26a7aa	0.04068724
137	0x3d9ae9d4	0.075641304
138	0x3e140c9b	0.14457934
139	0x3df61ecd	0.120175935
140	0x3d2b5948	0.041833192
141	0xbe06d710	-0.13167977
142	0x3e244dfa	0.1604537
143	0xbe0fa30c	-0.14027041
144	0xbe46c10f	-0.19409584
145	0xbe83337d	-0.2562522
146	0xbd5f91a9	-0.05458227
147	0x3e1d17e0	0.15341139
148	0xbd73954f	-0.059468564
149	0xbe0a693e	-0.13516709
150	0x3d0a73d9	0.033801887
151	0x3da4e7c7	0.080520205
152	0xbe8d3199	-0.27576903
153	0x3d9d8411	0.07691205
154	0x3daa2231	0.08307303
155	0xbe45adaa	-0.19304529
156	0x3dfcf1a3	0.12350776
157	0xbd8cf8f8	-0.068834245
158	0x3e283492	0.16426304
159	0xbdb55f0c	-0.088560194
160	0x3cfc6d71	0.030813904
161	0x3c9ee49b	0.019396117
162	0x3de6fee8	0.11279088
163	0xbe477adc	-0.19480461
164	0xbe3f5d31	-0.18687893
165	0x3dcbf882	0.099595085
166	0xbe357414	-0.17720062
167	0x3d87a639	0.06623501
168	0xbce4b655	-0.027918974
169	0xbdf7c167	-0.120974354
170	0xbcbb89a2	-0.022892777
171	0xbd9a633d	-0.075384595
172	0x3de9ebb2	0.114219084
173	0x3d9ddfc3	0.07708695
174	0x3d90984c	0.07060298
175	0xbd8085f4	-0.062755495
176	0xbe2a928b	-0.16657464
177	0xbdc0276a	-0.09382518
178	0xbcf89f03	-0.03034926
179	0x3dd785c8	0.105235636
180	0x3ce947fd	0.02847671
181	0x3d42f1af	0.04759377
182	0xbe2761e6	-0.16345939
183	0x3da6970d	0.081342794
184	0xbe1ae920	-0.15127993
185	0x3cd3737e	0.025811907
186	0xbdfdf55b	-0.124003135
187	0xbd4f5de1	-0.05062664
188	0x39ff524c	0.00048698706
189	0xbdf528bd	-0.11970661
190	0x3da15231	0.07877005
191	0xbe02c5d6	-0.12770781
192	0xbdc5467b	-0.09632584
193	0xbe58b259	-0.21161784
194	0x3c6ad4b9	0.014332944
195	0x3e216acd	0.15763398
196	0xbe5740cf	-0.21020816
197	0xbd561b11	-0.052271906
198	0xbe353fe0	-0.17700148
199	0x3c6553a4	0.013996992
200	0xbdc012c3	-0.093785785
201	0xbe637ba5	-0.22215135
202	0x3e41473a	0.18874827
203	0x3da3e013	0.08001723
204	0xbe293f3c	-0.16528028
205	0xbcb9a940	-0.022663713
206	0x3de97bf1	0.11400593
207	0x3e1f56e7	0.15560494
208	0xbe1ba18c	-0.15198344
209	0x3db50557	0.08838909
210	0xbe67bb1a	-0.22629967
211	0xbdd1177a	-0.10209556
212	0x3d25e5e5	0.040502448
213	0xbe4fbd06	-0.2028695
214	0x3de10ef5	0.10989181
215	0xbd742202	-0.059602745
216	0xbcb9d8bd	-0.022686357
217	0x3d3b0b0a	0.045664825
218	0xbcc5e3e7	-0.024156524
219	0xbdae8a77	-0.08522504
220	0xbe0ccc17	-0.13749729
221	0x3dd725aa	0.10505231
222	0xbe82e5ce	-0.25565952
223	0xbe1bfea2	-0.15233853
224	0xbc8f60fb	-0.017502299
225	0x3dbd469c	0.09241983
226	0xbc5d1e24	-0.013495956
227	0x3db9265a	0.09040518
228	0x3d5299f5	0.051416356
229	0xbe639dbd	-0.22228141
230	0x3cf9aaba	0.030476917
231	0xbe1e1535	-0.15437777
232	0x3e313cf0	0.17308402
233	0xbd356f3a	-0.044295527
234	0xbe1b8aca	-0.15189663
235	0xbe340d49	-0.17583193
236	0xbe369c60	-0.1783309
237	0x3d4acc0e	0.049511008
238	0xbe0696ba	-0.13143435
239	0xbe33acf5	-0.17546447
240	0xbe5b3f67	-0.21410905
241	0xbd850797	-0.06495588
242	0x3e4f898b	0.20267312
243	0x3d9589a1	0.07301641
244	0x3dae6e49	0.08517129
245	0xbd7d7bc5	-0.061885614
246	0x3e70dba7	0.2352129
247	0xbd16b80c	-0.036796615
248	0x3d1671d2	0.03672964
249	0x3d8b5afd	0.06804464
250	0x3ce92aa8	0.028462723
251	0x3d74a494	0.059727266
252	0xbe30471b	-0.17214625
253	0xbe81fc44	-0.25387776
254	0xbdf847c4	-0.12123063
255	0x3ddb8063	0.10717847

fc2.bias f4 [10]
0	0x3d969e70	0.07354438
1	0x3da9b563	0.0828655
2	0xba5ad9e4	-0.0008348508
3	0xbe107395	-0.14106591
4	0x3d296c7d	0.041363228
5	0xbdefc9e0	-0.117084265
6	0x3dc6a322	0.09699084
7	0xbdd903e1	-0.10596443
8	0x3dbad717	0.091230564
9	0x3e1dee3a	0.15422907

exp_avg f4 [10, 1, 5, 5]
0	0x3bd086ee	0.006363741
1	0x3b6b8dfa	0.003594278
2	0x3ba7839c	0.0051121246
3	0x3c0ed59d	0.008717922
4	0x3c228f60	0.009921879
5	0x3beafade	0.007171019
6	0x3b26df87	0.0025462823
7	0x3aa2ba2e	0.0012415105
8	0x3bc6f56e	0.006071738
9	0x3c03d09a	0.00804534
10	0x3bc9adac	0.0061547365
11	0x3b87528e	0.0041297143
12	0x3b188e5a	0.0023278208
13	0x3b5c15a8	0.0033582244
14	0x3bc90928	0.0061351247
15	0x3bbb6a14	0.0057194326
16	0x3bc2c3fc	0.0059437733
17	0x3afd5ee5	0.0019330649
18	0x3b692dc1	0.003558025
19	0x3bac91ad	0.0052663893
20	0x3b0181db	0.0019761238
21	0x3aa13884	0.0012300168
22	0x3abf50b8	0.00145962
23	0x3b88533e	0.004160314
24	0x3bafbc08	0.0053629912
25	0x3b921d77	0.004459079
26	0x3bc65c47	0.006053481
27	0x3be6f5da	0.0070483508
28	0x3bfc1120	0.007692471
29	0x3bc66466	0.006054449
30	0x3bbbf76f	0.0057362835
31	0x3bb567d4	0.005536059
32	0x3b8f18cf	0.004366971
33	0x3bbaa019	0.0056953547
34	0x3b6f8a2d	0.0036550865
35	0x3b8db5bd	0.0043246434
36	0xb6676000	-3.4477562e-06
37	0xba7f7846	-0.00097454
38	0x3b118ec8	0.0022210348
39	0x3994c438	0.00028374954
40	0x3a7decdc	0.0009686479
41	0xbbbae125	-0.005703109
42	0xbc0f3eb9	-0.008742982
43	0xbb5b937d	-0.0033504658
44	0xbba65930	-0.00507655
45	0xb9220550	-0.00015451503
46	0xbc1bc204	-0.009506706
47	0xbbe9a8f0	-0.0071307346
48	0xbb337d84	-0.0027388046
49	0xbb2b5adb	-0.0026146683
50	0xbaf02020	-0.0018320121
51	0xbb235cf6	-0.0024927235
52	0xba8d0461	-0.0010758751
53	0xbafa16a0	-0.0019080229
54	0xbafa114b	-0.001907864
55	0xbb218b98	-0.0024649855
56	0xba9ab6c6	-0.0011803738
57	0x3a546e5c	0.0008103603
58	0xba30b500	-0.0006740838
59	0xbb0f671c	-0.0021881526
60	0xbaa175af	-0.0012318398
61	0x3af60226	0.0018768951
62	0x3b8c3a4e	0.0042794114
63	0x3b30c9f8	0.0026975852
64	0xba15ce2b	-0.00057146203
65	0xba59f966	-0.00083150563
66	0x3b623e7b	0.0034522105
67	0x3bf8a34c	0.007587826
68	0x3bdf1b98	0.0068087094
69	0x3ade9119	0.0016980498
70	0x3ac8d0d8	0.0015321029
71	0x3bd4789e	0.0064841053
72	0x3c2b9ae7	0.010473943
73	0x3c0b04cb	0.008485029
74	0x3b4a1b94	0.0030839192
75	0x3b05685c	0.0020356392
76	0x3b3ff378	0.0029289406
77	0x3b94b1ca	0.0045377957
78	0x3b7e0cf4	0.0038765045
79	0x3b94a32c	0.004536053
80	0x3b39d829	0.0028357601
81	0x3b85ed6b	0.0040871403
82	0x3b3fcdbe	0.002926692
83	0x3b0fa549	0.0021918586
84	0x3a2786d8	0.0006390638
85	0x3a6c0b63	0.00090043823
86	0x3b1d2c88	0.0023982842
87	0x3a975a6c	0.0011547334
88	0x3acff0a2	0.0015864561
89	0xb9ac566e	-0.00032870792
90	0x3a8e2613	0.0010845087
91	0x39fe3550	0.00048486376
92	0x3aff9434	0.0019499124
93	0x3b57fec2	0.0032958244
94	0x3b01205a	0.001970312
95	0x3a80152d	0.0009771936
96	0x3a9e13d0	0.0012060348
97	0x3b0b4183	0.0021248765
98	0x38604760	5.3472235e-05
99	0x3a5d18c9	0.0008434174
100	0x3adcfd00	0.0016860068
101	0x3b077ba5	0.0020673063
102	0xba7ac497	-0.00095660373
103	0xbb6308ff	-0.0034642813
104	0xbc0b3dc6	-0.008498615
105	0xbabfbc74	-0.0014628307
106	0xbb4d984f	-0.00313713
107	0xbc09c87f	-0.008409618
108	0xbc17f63a	-0.009275014
109	0xbbda78eb	-0.0066672466
110	0xba212b68	-0.00061481306
111	0xbbb00c66	-0.0053725718
112	0xbb8ed68c	-0.004359072
113	0xba65c718	-0.0008765324
114	0xbb11ffa4	-0.0022277618
115	0x3b15d830	0.0022864453
116	0x3a82f52e	0.0009991282
117	0x3b7ca64e	0.0038551274
118	0x3ba02708	0.0048874654
119	0x3a951424	0.00113738
120	0x3a3a9cf8	0.0007118727
121	0x3b36b0fa	0.0027876482
122	0x3b87fe9b	0.0041502244
123	0x3b715339	0.0036823286
124	0xbaf55e24	-0.0018720073
125	0x3b3925a3	0.0028251193
126	0xb990355b	-0.00027505573
127	0xbbc73d89	-0.0060803336
128	0xbbc54cef	-0.006021134
129	0xbba0a306	-0.0049022464
130	0x3a98f2ae	0.0011669004
131	0xbb690a63	-0.003555917
132	0xbb938464	-0.004501866
133	0xbb9107e7	-0.004425991
134	0xbb4b7002	-0.0031042104
135	0xba95649d	-0.0011397783
136	0xbb801152	-0.0039083147
137	0xbad2823a	-0.0016060539
138	0xbb1753d8	-0.0023090746
139	0xba9d8fde	-0.0012021025
140	0xb9c7ef80	-0.0003813468
141	0x3915fb30	0.00014303322
142	0x3ab8c9f8	0.0014098277
143	0x38543e00	5.060248e-05
144	0xb8f83480	-0.000118353404
145	0x39a89470	0.00032154052
146	0x3af194b4	0.0018431158
147	0x3ad46846	0.0016205392
148	0x39872310	0.0002577533
149	0x3a2c0390	0.000656181
150	0xbb438447	-0.0029833482
151	0xb956e960	-0.0002049557
152	0x39f21730	0.00046175113
153	0x37664800	1.3725832e-05
154	0xba64dfc4	-0.00087308534
155	0xbac2b432	-0.0014854728
156	0x3ae590da	0.0017514483
157	0xb9a24df8	-0.0003095714
158	0xba8a1fd6	-0.0010538052
159	0xb9123a00	-0.00013945252
160	0x399ac0d0	0.00029516825
161	0x3a537224	0.00080660195
162	0xb9dea868	-0.00042468612
163	0xb9ff6050	-0.00048709149
164	0xba5bdc94	-0.0008387056
165	0xbaca8c92	-0.001545327
166	0xba98edca	-0.0011667546
167	0xbab2017e	-0.0013580767
168	0xba1bf75c	-0.000594964
169	0x399fe948	0.0003050065
170	0xbad0c7c4	-0.0015928675
171	0xba99d1ee	-0.0011735538
172	0xbb2376e6	-0.0024942695
173	0xbaabe14b	-0.0013113407
174	0xba09535c	-0.0005238557
175	0xb98583db	-0.00025465977
176	0x3ad9fc75	0.0016631024
177	0x3b7631b4	0.0037566246
178	0x3b8ac41a	0.004234803
179	0x3a795608	0.0009511416
180	0x3a22c6e5	0.0006209447
181	0x3a9a60ce	0.0011778118
182	0x3ba4eab2	0.0050328607
183	0x3b1dfe24	0.0024107778
184	0xb3caa000	-9.435462e-08
185	0x395e8088	0.00021219451
186	0x38b26b10	8.507643e-05
187	0x3b41b185	0.0029555273
188	0x3b24fe08	0.0025175828
189	0x3aaf1960	0.0013359003
190	0xbac03424	-0.0014663977
191	0xba6d65c1	-0.0009055995
192	0x3a659237	0.00087574444
193	0xba43b5e6	-0.00074657646
194	0xb98adf2a	-0.0002648768
195	0x3b1f88bc	0.0024342975
196	0x3952ad80	0.00020091794
197	0xbaa06ae0	-0.0012238882
198	0xba395324	-0.0007069579
199	0xba8cfff6	-0.0010757435
200	0x3a4f2724	0.0007902256
201	0xba12b4b8	-0.0005596387
202	0xbad602bc	-0.0016327719
203	0xbb05ccdb	-0.0020416293
204	0xbb14f84e	-0.002273101
205	0xb9a7d1f8	-0.0003200916
206	0xbb06f08f	-0.0020590161
207	0xbb17764c	-0.0023111282
208	0xbb1a497b	-0.0023542333
209	0xbb555591	-0.0032552222
210	0x39d286c0	0.00040154718
211	0x382fc080	4.190253e-05
212	0xb96e0780	-0.00022700243
213	0xbafb2c83	-0.0019163046
214	0xbb308e75	-0.002694038
215	0x3a88fdc7	0.0010451608
216	0xb77f0200	-1.519965e-05
217	0xb9bff940	-0.00036616065
218	0xbb03436a	-0.0020029196
219	0xb9db37a4	-0.0004181239
220	0xba85df59	-0.0010213658
221	0xb95ff1bc	-0.0002135699
222	0xba3d1144	-0.00072123506
223	0xba85724d	-0.0010181159
224	0x3a833c6d	0.0010012515
225	0x3b853d26	0.0040661274
226	0x3b0f7942	0.0021892344
227	0x3aaa5130	0.0012994166
228	0xb9c0f090	-0.00036800327
229	0xbb63088b	-0.0034642543
230	0x3b3fe4cc	0.002928066
231	0x393edb3c	0.00018201483
232	0xb7a421e0	-1.9566098e-05
233	0xba6c73a8	-0.00090199197
234	0xbbb55a57	-0.005534451
235	0x3b453fb3	0.0030097782
236	0xb91c8468	-0.00014926645
237	0xbaeb571a	-0.0017955035
238	0xbbcd4d1e	-0.0062652966
239	0xbbf3f9ae	-0.0074455356
240	0x3b431f12	0.0029773158
241	0xbac4b440	-0.0015007332
242	0xbb75252f	-0.0037406196
243	0xbc050d4e	-0.008120848
244	0xbbc73237	-0.006078984
245	0x3b75c67d	0.0037502341
246	0x395c8b8d	0.00021032822
247	0xbaac687d	-0.0013153699
248	0xbb073cff	-0.0020635722
249	0xb9be5e58	-0.00036309916

exp_avg_sq f4 [10, 1, 5, 5]
0	0x39b1b705	0.0003389643
1	0x39ab4b0c	0.00032671576
2	0x39b529c8	0.0003455414
3	0x39ca4003	0.00038576135
4	0x39ea5728	0.00044696894
5	0x39a4c636	0.00031428196
6	0x39aa665d	0.00032501193
7	0x39a7d37d	0.00032010293
8	0x3990daad	0.00027628746
9	0x39bb4f0e	0.0003572632
10	0x39a74afc	0.0003190859
11	0x39a988d8	0.00032336148
12	0x39bef58d	0.00036422574
13	0x39947e67	0.00028322937
14	0x39a62b64	0.00031694316
15	0x39a7d736	0.00032013067
16	0x399c3989	0.00029797506
17	0x39ab6a69	0.00032694943
18	0x39b23e91	0.0003399742
19	0x39bc0415	0.00035861196
20	0x39b3d1d8	0.00034297886
21	0x39a68333	0.00031759738
22	0x39bb928a	0.000357766
23	0x39d027fd	0.00039702645
24	0x39c6db66	0.00037928968
25	0x3a165e01	0.00057360536
26	0x3a0d5b90	0.0005392367
27	0x3a0e4a67	0.0005427957
28	0x3a056f93	0.0005090173
29	0x39f1e5d0	0.00046138326
30	0x3a0eacbf	0.00054426113
31	0x39ffaa82	0.00048764428
32	0x39fa94cd	0.0004779458
33	0x39e4a121	0.000436076
34	0x39dc72ea	0.00042047288
35	0x3a025b8d	0.00049727486
36	0x39d5f905	0.0004081206
37	0x39b0ef48	0.00033747614
38	0x39b4fcfa	0.00034520758
39	0x39ce6f06	0.000393741
40	0x39dafe4f	0.00041769675
41	0x39afde95	0.00033544438
42	0x3998fa37	0.00029178124
43	0x39b0188c	0.00033587625
44	0x39c0036f	0.00036623652
45	0x39c361fc	0.00037266302
46	0x39a821d5	0.00032068664
47	0x39a007c0	0.00030523352
48	0x399ca443	0.00029877023
49	0x39b4cbd2	0.00034484133
50	0x3a256e6f	0.00063107064
51	0x3a0d76c4	0.00053964206
52	0x39d1206d	0.00039887746
53	0x39aa9413	0.0003253525
54	0x399ce3f6	0.00029924483
55	0x3a34ecff	0.000690177
56	0x3a18bc76	0.0005826423
57	0x39d5c252	0.00040771306
58	0x39965ed0	0.0002868087
59	0x399316de	0.00028055062
60	0x3a30e88b	0.0006748519
61	0x3a11f7e5	0.000556825
62	0x39c01bf6	0.00036641926
63	0x3986462f	0.00025610763
64	0x3999ce50	0.0002933615
65	0x3a1b9116	0.00059344
66	0x39fcb908	0.00048203045
67	0x39997812	0.00029271893
68	0x39a13357	0.00030746564
69	0x39ab5fcc	0.00032687036
70	0x3a081901	0.0005191714
71	0x39d47595	0.00040523396
72	0x39a57a07	0.0003156217
73	0x39c2ee35	0.00037180042
74	0x39a0aeeb	0.00030647902
75	0x39471f32	0.0001898974
76	0x393f37a7	0.00018235912
77	0x393bf92e	0.00017926536
78	0x39514ef1	0.00019961201
79	0x3968615f	0.00022161518
80	0x394f51fb	0.00019771598
81	0x393fd899	0.00018295868
82	0x39443010	0.00018709921
83	0x395d2f58	0.0002109384
84	0x39632ec6	0.00021665831
85	0x3950e8d0	0.00019923155
86	0x3936d699	0.00017436816
87	0x39483183	0.00019091931
88	0x394f5c37	0.00019775411
89	0x39504f4c	0.00019865966
90	0x3947f5c1	0.0001906967
91	0x393062fd	0.00016821544
92	0x392f7701	0.00016733633
93	0x3933ead2	0.00017158248
94	0x39443262	0.00018710786
95	0x394534c4	0.00018807041
96	0x393d3c60	0.00018046936
97	0x392c3176	0.00016421624
98	0x39376cc7	0.00017492763
99	0x395089d4	0.00019887771
100	0x3a4a093e	0.00077070657
101	0x3a5075c5	0.00079521193
102	0x3a5d61db	0.00084450626
103	0x3a6c34dc	0.0009010562
104	0x3a6d727c	0.0009057892
105	0x3a604f22	0.00085567136
106	0x3a67ed46	0.0008847307
107	0x3a73f068	0.00093055377
108	0x3a73df1d	0.0009302961
109	0x3a625042	0.0008633175
110	0x3a60eea0	0.000858048
111	0x3a4c2857	0.00077879935
112	0x3a37611e	0.00069953676
113	0x3a32bd15	0.00068183366
114	0x3a3b85f1	0.0007153443
115	0x3a36b53a	0.0006969754
116	0x3a1c7de9	0.000596969
117	0x3a0dd060	0.00054097734
118	0x3a0dc3b2	0.0005407884
119	0x3a214206	0.0006151501
120	0x3a215107	0.00061537366
121	0x3a1355e0	0.00056204014
122	0x3a0dab77	0.00054042734
123	0x3a12c20f	0.0005598375
124	0x3a2860df	0.00064231263
125	0x39e7f560	0.00044242572
126	0x39dfe973	0.00042707808
127	0x39dec2eb	0.00042488365
128	0x39e1ec94	0.0004309161
129	0x39fabde6	0.000478252
130	0x3a0c0804	0.00053417706
131	0x39f746c8	0.00047164247
132	0x39e8de94	0.00044416322
133	0x39ed2ac8	0.00045236037
134	0x39ff04d9	0.00048641002
135	0x3a0ce820	0.00053751655
136	0x39f16090	0.00046039047
137	0x39d749d6	0.00041063008
138	0x39e3f3d5	0.00043478483
139	0x39f3cf12	0.0004650285
140	0x3a07b258	0.00051764166
141	0x39f78c93	0.00047216247
142	0x39dfc677	0.00042681742
143	0x39f1381f	0.00046008916
144	0x3a01ded1	0.00049541617
145	0x3a0f477b	0.00054656685
146	0x3a089ee3	0.0005211664
147	0x39f3a43f	0.00046470945
148	0x3a02bdc0	0.00049873814
149	0x3a0fa5c1	0.00054797163
150	0x39090bac	0.00013069686
151	0x3905647b	0.000127213
152	0x3902f486	0.00012488858
153	0x3908c89c	0.00013044704
154	0x3914a3b4	0.00014175364
155	0x38f6ec30	0.000117741874
156	0x38ed39d9	0.000113118156
157	0x38f563be	0.00011701089
158	0x390107ff	0.00012305377
159	0x390c1768	0.0001336016
160	0x38e4edda	0.000109161905
161	0x38e4724d	0.000108931774
162	0x38e9acb3	0.000111424735
163	0x38f5c9b7	0.00011720083
164	0x390cde90	0.00013434351
165	0x38e59748	0.00010947749
166	0x38e23e0f	0.00010788079
167	0x38ef53b6	0.000114120005
168	0x3905fa1f	0.00012777046
169	0x39144aac	0.00014142197
170	0x38f1f954	0.000115382165
171	0x3902ee1c	0.00012486469
172	0x39063e98	0.00012802554
173	0x390ed0f3	0.00013620015
174	0x3911bbb9	0.0001389821
175	0x3966796f	0.00021979747
176	0x39584703	0.00020625819
177	0x394c2975	0.000194704
178	0x394bdc19	0.00019441581
179	0x39402bc8	0.00018326857
180	0x39583a93	0.00020621186
181	0x39446218	0.0001872856
182	0x391f5a6c	0.00015197106
183	0x391fee5a	0.00015252215
184	0x3928de64	0.00016104575
185	0x395598df	0.00020370212
186	0x392aa209	0.00016272826
187	0x390a7abf	0.00013206432
188	0x392b8da0	0.0001636059
189	0x391a1f2f	0.00014698201
190	0x39426908	0.00018540409
191	0x391e48b2	0.00015095135
192	0x3934662d	0.00017204201
193	0x392e6700	0.00016632304
194	0x390c2f75	0.0001336912
195	0x39324c96	0.00017003933
196	0x393d589c	0.00018057454
197	0x3946cc05	0.00018958755
198	0x39345696	0.00017198393
199	0x39127daa	0.00013970459
200	0x394694b1	0.00018938143
201	0x392ed11c	0.00016671832
202	0x3931e7cc	0.00016966386
203	0x393c8562	0.00017978766
204	0x394eb110	0.00019711652
205	0x392d1029	0.00016504586
206	0x391a4372	0.0001471171
207	0x3921cb87	0.00015429976
208	0x39261bcb	0.00015841347
209	0x392cf6a0	0.00016495073
210	0x392809f0	0.0001602543
211	0x39185b03	0.00014529754
212	0x3917e295	0.0001448489
213	0x3914785a	0.00014159214
214	0x391c940e	0.00014932474
215	0x392a602f	0.00016248295
216	0x391cfbac	0.00014971074
217	0x3914e8f5	0.00014201163
218	0x3917ff4e	0.0001449559
219	0x392b835a	0.00016356763
220	0x3937ad10	0.00017516711
221	0x3927652f	0.00015964055
222	0x391eb48c	0.00015135313
223	0x392c81f6	0.00016451612
224	0x3967456d	0.0002205574
225	0x399a1c27	0.00029394144
226	0x39bb4fd8	0.00035726908
227	0x39ba9296	0.000355859
228	0x39c8ee81	0.00038324672
229	0x39fcf142	0.00048244937
230	0x39a2689b	0.00030976985
231	0x39bdf8bc	0.0003623421
232	0x39aae094	0.0003259225
233	0x39dcc677	0.00042109538
234	0x3a0cbeb2	0.0005368992
235	0x39c65b08	0.00037833326
236	0x39adaf77	0.00033127863
237	0x39ae29e5	0.0003321908
238	0x39f5aeb6	0.0004686021
239	0x3a146247	0.00056603964
240	0x39da106a	0.0004159243
241	0x39b1d4ad	0.00033918527
242	0x39cdb83b	0.0003923791
243	0x3a06d43f	0.00051433215
244	0x3a1d724e	0.00060061074
245	0x39d8f56d	0.00041381587
246	0x39ca83e3	0.00038626706
247	0x39d79ddb	0.00041125607
248	0x3a091214	0.0005228829
249	0x3a21d8d6	0.00061739737

exp_avg f4 [10]
0	0xbaca6b1e	-0.00154433
1	0xbc240ef5	-0.010013332
2	0x3b1dc378	0.0024072807
3	0xbb3b9b0a	-0.0028626346
4	0xbad9c12a	-0.0016613354
5	0xbb1a49de	-0.0023542563
6	0x3b01b516	0.0019791774
7	0xbb05e64c	-0.0020431457
8	0x3b47f69a	0.0030511976
9	0x3b8eb2e9	0.004354824

exp_avg_sq f4 [10]
0	0x3a0c6e8f	0.00053570507
1	0x3a48d9cd	0.00076618494
2	0x3a2c21a6	0.00065662933
3	0x395ea207	0.0002123193
4	0x3a229fea	0.00062036386
5	0x3a37faba	0.0007018257
6	0x3908dc7e	0.0001305211
7	0x3977cd75	0.00023632294
8	0x392d4ff0	0.00016528345
9	0x3a477e97	0.0007610111
